discarding /home/haow3/miniconda2/bin from PATH
prepending /home/haow3/miniconda2/envs/cafferc3/bin to PATH
WARNING: Logging before InitGoogleLogging() is written to STDERR
I0805 08:57:26.013686 20726 net.cpp:49] Initializing net from parameters: 
name: "AlexNetOcclusion"
input: "data"
state {
  phase: TEST
}
input_shape {
  dim: 10
  dim: 3
  dim: 227
  dim: 227
}
layer {
  name: "conv1"
  type: "Convolution"
  bottom: "data"
  top: "conv1"
  param {
    lr_mult: 0
    decay_mult: 1
  }
  param {
    lr_mult: 0
    decay_mult: 0
  }
  convolution_param {
    num_output: 96
    kernel_size: 11
    stride: 4
    weight_filler {
      type: "gaussian"
      std: 0.01
    }
    bias_filler {
      type: "constant"
      value: 0
    }
  }
}
layer {
  name: "relu1"
  type: "ReLU"
  bottom: "conv1"
  top: "conv1"
}
layer {
  name: "norm1"
  type: "LRN"
  bottom: "conv1"
  top: "norm1"
  lrn_param {
    local_size: 5
    alpha: 0.0001
    beta: 0.75
  }
}
layer {
  name: "pool1"
  type: "Pooling"
  bottom: "norm1"
  top: "pool1"
  pooling_param {
    pool: MAX
    kernel_size: 3
    stride: 2
  }
}
layer {
  name: "conv2"
  type: "Convolution"
  bottom: "pool1"
  top: "conv2"
  param {
    lr_mult: 0
    decay_mult: 1
  }
  param {
    lr_mult: 0
    decay_mult: 0
  }
  convolution_param {
    num_output: 256
    pad: 2
    kernel_size: 5
    group: 2
    weight_filler {
      type: "gaussian"
      std: 0.01
    }
    bias_filler {
      type: "constant"
      value: 0.1
    }
  }
}
layer {
  name: "relu2"
  type: "ReLU"
  bottom: "conv2"
  top: "conv2"
}
layer {
  name: "norm2"
  type: "LRN"
  bottom: "conv2"
  top: "norm2"
  lrn_param {
    local_size: 5
    alpha: 0.0001
    beta: 0.75
  }
}
layer {
  name: "pool2"
  type: "Pooling"
  bottom: "norm2"
  top: "pool2"
  pooling_param {
    pool: MAX
    kernel_size: 3
    stride: 2
  }
}
layer {
  name: "conv3"
  type: "Convolution"
  bottom: "pool2"
  top: "conv3"
  param {
    lr_mult: 0
    decay_mult: 1
  }
  param {
    lr_mult: 0
    decay_mult: 0
  }
  convolution_param {
    num_output: 384
    pad: 1
    kernel_size: 3
    weight_filler {
      type: "gaussian"
      std: 0.01
    }
    bias_filler {
      type: "constant"
      value: 0
    }
  }
}
layer {
  name: "relu3"
  type: "ReLU"
  bottom: "conv3"
  top: "conv3"
}
layer {
  name: "conv4"
  type: "Convolution"
  bottom: "conv3"
  top: "conv4"
  param {
    lr_mult: 0
    decay_mult: 1
  }
  param {
    lr_mult: 0
    decay_mult: 0
  }
  convolution_param {
    num_output: 384
    pad: 1
    kernel_size: 3
    group: 2
    weight_filler {
      type: "gaussian"
      std: 0.01
    }
    bias_filler {
      type: "constant"
      value: 0.1
    }
  }
}
layer {
  name: "relu4"
  type: "ReLU"
  bottom: "conv4"
  top: "conv4"
}
layer {
  name: "conv5"
  type: "Convolution"
  bottom: "conv4"
  top: "conv5"
  param {
    lr_mult: 0
    decay_mult: 1
  }
  param {
    lr_mult: 0
    decay_mult: 0
  }
  convolution_param {
    num_output: 256
    pad: 1
    kernel_size: 3
    group: 2
    weight_filler {
      type: "gaussian"
      std: 0.01
    }
    bias_filler {
      type: "constant"
      value: 0.1
    }
  }
}
layer {
  name: "relu5"
  type: "ReLU"
  bottom: "conv5"
  top: "conv5"
}
layer {
  name: "pool5"
  type: "Pooling"
  bottom: "conv5"
  top: "pool5"
  pooling_param {
    pool: MAX
    kernel_size: 3
    stride: 2
  }
}
layer {
  name: "fc6"
  type: "InnerProduct"
  bottom: "pool5"
  top: "fc6"
  param {
    lr_mult: 0
    decay_mult: 1
  }
  param {
    lr_mult: 0
    decay_mult: 0
  }
  inner_product_param {
    num_output: 4096
    weight_filler {
      type: "gaussian"
      std: 0.005
    }
    bias_filler {
      type: "constant"
      value: 0.1
    }
  }
}
layer {
  name: "relu6"
  type: "ReLU"
  bottom: "fc6"
  top: "fc6"
}
layer {
  name: "drop6"
  type: "Dropout"
  bottom: "fc6"
  top: "fc6"
  dropout_param {
    dropout_ratio: 0.5
  }
}
layer {
  name: "fc7"
  type: "InnerProduct"
  bottom: "fc6"
  top: "fc7"
  param {
    lr_mult: 0
    decay_mult: 1
  }
  param {
    lr_mult: 0
    decay_mult: 0
  }
  inner_product_param {
    num_output: 4096
    weight_filler {
      type: "gaussian"
      std: 0.005
    }
    bias_filler {
      type: "constant"
      value: 0.1
    }
  }
}
layer {
  name: "relu7"
  type: "ReLU"
  bottom: "fc7"
  top: "fc7"
}
layer {
  name: "drop7"
  type: "Dropout"
  bottom: "fc7"
  top: "fc7"
  dropout_param {
    dropout_ratio: 0.5
  }
}
layer {
  name: "fc8_occlusion"
  type: "InnerProduct"
  bottom: "fc7"
  top: "fc8_occlusion"
  param {
    lr_mult: 1
    decay_mult: 1
  }
  param {
    lr_mult: 2
    decay_mult: 0
  }
  inner_product_param {
    num_output: 20
    weight_filler {
      type: "gaussian"
      std: 0.01
    }
    bias_filler {
      type: "constant"
      value: 0
    }
  }
}
layer {
  name: "prob"
  type: "Softmax"
  bottom: "fc8_occlusion"
  top: "prob"
}
I0805 08:57:26.013885 20726 net.cpp:413] Input 0 -> data
I0805 08:57:26.024615 20726 layer_factory.hpp:77] Creating layer conv1
I0805 08:57:26.024782 20726 net.cpp:106] Creating Layer conv1
I0805 08:57:26.024791 20726 net.cpp:454] conv1 <- data
I0805 08:57:26.024802 20726 net.cpp:411] conv1 -> conv1
I0805 08:57:26.237985 20726 net.cpp:150] Setting up conv1
I0805 08:57:26.238040 20726 net.cpp:157] Top shape: 10 96 55 55 (2904000)
I0805 08:57:26.238045 20726 net.cpp:165] Memory required for data: 11616000
I0805 08:57:26.238070 20726 layer_factory.hpp:77] Creating layer relu1
I0805 08:57:26.238087 20726 net.cpp:106] Creating Layer relu1
I0805 08:57:26.238092 20726 net.cpp:454] relu1 <- conv1
I0805 08:57:26.238100 20726 net.cpp:397] relu1 -> conv1 (in-place)
I0805 08:57:26.238384 20726 net.cpp:150] Setting up relu1
I0805 08:57:26.238397 20726 net.cpp:157] Top shape: 10 96 55 55 (2904000)
I0805 08:57:26.238401 20726 net.cpp:165] Memory required for data: 23232000
I0805 08:57:26.238405 20726 layer_factory.hpp:77] Creating layer norm1
I0805 08:57:26.238418 20726 net.cpp:106] Creating Layer norm1
I0805 08:57:26.238422 20726 net.cpp:454] norm1 <- conv1
I0805 08:57:26.238427 20726 net.cpp:411] norm1 -> norm1
I0805 08:57:26.238618 20726 net.cpp:150] Setting up norm1
I0805 08:57:26.238629 20726 net.cpp:157] Top shape: 10 96 55 55 (2904000)
I0805 08:57:26.238633 20726 net.cpp:165] Memory required for data: 34848000
I0805 08:57:26.238637 20726 layer_factory.hpp:77] Creating layer pool1
I0805 08:57:26.238646 20726 net.cpp:106] Creating Layer pool1
I0805 08:57:26.238651 20726 net.cpp:454] pool1 <- norm1
I0805 08:57:26.238656 20726 net.cpp:411] pool1 -> pool1
I0805 08:57:26.238698 20726 net.cpp:150] Setting up pool1
I0805 08:57:26.238705 20726 net.cpp:157] Top shape: 10 96 27 27 (699840)
I0805 08:57:26.238708 20726 net.cpp:165] Memory required for data: 37647360
I0805 08:57:26.238713 20726 layer_factory.hpp:77] Creating layer conv2
I0805 08:57:26.238729 20726 net.cpp:106] Creating Layer conv2
I0805 08:57:26.238734 20726 net.cpp:454] conv2 <- pool1
I0805 08:57:26.238741 20726 net.cpp:411] conv2 -> conv2
I0805 08:57:26.244951 20726 net.cpp:150] Setting up conv2
I0805 08:57:26.245054 20726 net.cpp:157] Top shape: 10 256 27 27 (1866240)
I0805 08:57:26.245059 20726 net.cpp:165] Memory required for data: 45112320
I0805 08:57:26.245091 20726 layer_factory.hpp:77] Creating layer relu2
I0805 08:57:26.245120 20726 net.cpp:106] Creating Layer relu2
I0805 08:57:26.245126 20726 net.cpp:454] relu2 <- conv2
I0805 08:57:26.245137 20726 net.cpp:397] relu2 -> conv2 (in-place)
I0805 08:57:26.245337 20726 net.cpp:150] Setting up relu2
I0805 08:57:26.245349 20726 net.cpp:157] Top shape: 10 256 27 27 (1866240)
I0805 08:57:26.245352 20726 net.cpp:165] Memory required for data: 52577280
I0805 08:57:26.245357 20726 layer_factory.hpp:77] Creating layer norm2
I0805 08:57:26.245371 20726 net.cpp:106] Creating Layer norm2
I0805 08:57:26.245375 20726 net.cpp:454] norm2 <- conv2
I0805 08:57:26.245383 20726 net.cpp:411] norm2 -> norm2
I0805 08:57:26.245738 20726 net.cpp:150] Setting up norm2
I0805 08:57:26.245753 20726 net.cpp:157] Top shape: 10 256 27 27 (1866240)
I0805 08:57:26.245755 20726 net.cpp:165] Memory required for data: 60042240
I0805 08:57:26.245759 20726 layer_factory.hpp:77] Creating layer pool2
I0805 08:57:26.245784 20726 net.cpp:106] Creating Layer pool2
I0805 08:57:26.245789 20726 net.cpp:454] pool2 <- norm2
I0805 08:57:26.245795 20726 net.cpp:411] pool2 -> pool2
I0805 08:57:26.245843 20726 net.cpp:150] Setting up pool2
I0805 08:57:26.245851 20726 net.cpp:157] Top shape: 10 256 13 13 (432640)
I0805 08:57:26.245854 20726 net.cpp:165] Memory required for data: 61772800
I0805 08:57:26.245858 20726 layer_factory.hpp:77] Creating layer conv3
I0805 08:57:26.245887 20726 net.cpp:106] Creating Layer conv3
I0805 08:57:26.245890 20726 net.cpp:454] conv3 <- pool2
I0805 08:57:26.245898 20726 net.cpp:411] conv3 -> conv3
I0805 08:57:26.258407 20726 net.cpp:150] Setting up conv3
I0805 08:57:26.258530 20726 net.cpp:157] Top shape: 10 384 13 13 (648960)
I0805 08:57:26.258535 20726 net.cpp:165] Memory required for data: 64368640
I0805 08:57:26.258574 20726 layer_factory.hpp:77] Creating layer relu3
I0805 08:57:26.258607 20726 net.cpp:106] Creating Layer relu3
I0805 08:57:26.258615 20726 net.cpp:454] relu3 <- conv3
I0805 08:57:26.258627 20726 net.cpp:397] relu3 -> conv3 (in-place)
I0805 08:57:26.258822 20726 net.cpp:150] Setting up relu3
I0805 08:57:26.258832 20726 net.cpp:157] Top shape: 10 384 13 13 (648960)
I0805 08:57:26.258836 20726 net.cpp:165] Memory required for data: 66964480
I0805 08:57:26.258841 20726 layer_factory.hpp:77] Creating layer conv4
I0805 08:57:26.258864 20726 net.cpp:106] Creating Layer conv4
I0805 08:57:26.258869 20726 net.cpp:454] conv4 <- conv3
I0805 08:57:26.258875 20726 net.cpp:411] conv4 -> conv4
I0805 08:57:26.273318 20726 net.cpp:150] Setting up conv4
I0805 08:57:26.273344 20726 net.cpp:157] Top shape: 10 384 13 13 (648960)
I0805 08:57:26.273349 20726 net.cpp:165] Memory required for data: 69560320
I0805 08:57:26.273356 20726 layer_factory.hpp:77] Creating layer relu4
I0805 08:57:26.273365 20726 net.cpp:106] Creating Layer relu4
I0805 08:57:26.273370 20726 net.cpp:454] relu4 <- conv4
I0805 08:57:26.273376 20726 net.cpp:397] relu4 -> conv4 (in-place)
I0805 08:57:26.274348 20726 net.cpp:150] Setting up relu4
I0805 08:57:26.274359 20726 net.cpp:157] Top shape: 10 384 13 13 (648960)
I0805 08:57:26.274363 20726 net.cpp:165] Memory required for data: 72156160
I0805 08:57:26.274366 20726 layer_factory.hpp:77] Creating layer conv5
I0805 08:57:26.274379 20726 net.cpp:106] Creating Layer conv5
I0805 08:57:26.274382 20726 net.cpp:454] conv5 <- conv4
I0805 08:57:26.274391 20726 net.cpp:411] conv5 -> conv5
I0805 08:57:26.286196 20726 net.cpp:150] Setting up conv5
I0805 08:57:26.286211 20726 net.cpp:157] Top shape: 10 256 13 13 (432640)
I0805 08:57:26.286216 20726 net.cpp:165] Memory required for data: 73886720
I0805 08:57:26.286226 20726 layer_factory.hpp:77] Creating layer relu5
I0805 08:57:26.286234 20726 net.cpp:106] Creating Layer relu5
I0805 08:57:26.286242 20726 net.cpp:454] relu5 <- conv5
I0805 08:57:26.286249 20726 net.cpp:397] relu5 -> conv5 (in-place)
I0805 08:57:26.286433 20726 net.cpp:150] Setting up relu5
I0805 08:57:26.286443 20726 net.cpp:157] Top shape: 10 256 13 13 (432640)
I0805 08:57:26.286447 20726 net.cpp:165] Memory required for data: 75617280
I0805 08:57:26.286450 20726 layer_factory.hpp:77] Creating layer pool5
I0805 08:57:26.286458 20726 net.cpp:106] Creating Layer pool5
I0805 08:57:26.286463 20726 net.cpp:454] pool5 <- conv5
I0805 08:57:26.286470 20726 net.cpp:411] pool5 -> pool5
I0805 08:57:26.286516 20726 net.cpp:150] Setting up pool5
I0805 08:57:26.286525 20726 net.cpp:157] Top shape: 10 256 6 6 (92160)
I0805 08:57:26.286527 20726 net.cpp:165] Memory required for data: 75985920
I0805 08:57:26.286531 20726 layer_factory.hpp:77] Creating layer fc6
I0805 08:57:26.286548 20726 net.cpp:106] Creating Layer fc6
I0805 08:57:26.286552 20726 net.cpp:454] fc6 <- pool5
I0805 08:57:26.286561 20726 net.cpp:411] fc6 -> fc6
I0805 08:57:26.708097 20726 net.cpp:150] Setting up fc6
I0805 08:57:26.708143 20726 net.cpp:157] Top shape: 10 4096 (40960)
I0805 08:57:26.708148 20726 net.cpp:165] Memory required for data: 76149760
I0805 08:57:26.708158 20726 layer_factory.hpp:77] Creating layer relu6
I0805 08:57:26.708189 20726 net.cpp:106] Creating Layer relu6
I0805 08:57:26.708195 20726 net.cpp:454] relu6 <- fc6
I0805 08:57:26.708204 20726 net.cpp:397] relu6 -> fc6 (in-place)
I0805 08:57:26.708698 20726 net.cpp:150] Setting up relu6
I0805 08:57:26.708711 20726 net.cpp:157] Top shape: 10 4096 (40960)
I0805 08:57:26.708715 20726 net.cpp:165] Memory required for data: 76313600
I0805 08:57:26.708719 20726 layer_factory.hpp:77] Creating layer drop6
I0805 08:57:26.708729 20726 net.cpp:106] Creating Layer drop6
I0805 08:57:26.708732 20726 net.cpp:454] drop6 <- fc6
I0805 08:57:26.708739 20726 net.cpp:397] drop6 -> fc6 (in-place)
I0805 08:57:26.708770 20726 net.cpp:150] Setting up drop6
I0805 08:57:26.708776 20726 net.cpp:157] Top shape: 10 4096 (40960)
I0805 08:57:26.708780 20726 net.cpp:165] Memory required for data: 76477440
I0805 08:57:26.708782 20726 layer_factory.hpp:77] Creating layer fc7
I0805 08:57:26.708793 20726 net.cpp:106] Creating Layer fc7
I0805 08:57:26.708796 20726 net.cpp:454] fc7 <- fc6
I0805 08:57:26.708802 20726 net.cpp:411] fc7 -> fc7
I0805 08:57:26.897445 20726 net.cpp:150] Setting up fc7
I0805 08:57:26.897517 20726 net.cpp:157] Top shape: 10 4096 (40960)
I0805 08:57:26.897521 20726 net.cpp:165] Memory required for data: 76641280
I0805 08:57:26.897534 20726 layer_factory.hpp:77] Creating layer relu7
I0805 08:57:26.897550 20726 net.cpp:106] Creating Layer relu7
I0805 08:57:26.897555 20726 net.cpp:454] relu7 <- fc7
I0805 08:57:26.897564 20726 net.cpp:397] relu7 -> fc7 (in-place)
I0805 08:57:26.897804 20726 net.cpp:150] Setting up relu7
I0805 08:57:26.897815 20726 net.cpp:157] Top shape: 10 4096 (40960)
I0805 08:57:26.897819 20726 net.cpp:165] Memory required for data: 76805120
I0805 08:57:26.897822 20726 layer_factory.hpp:77] Creating layer drop7
I0805 08:57:26.897831 20726 net.cpp:106] Creating Layer drop7
I0805 08:57:26.897835 20726 net.cpp:454] drop7 <- fc7
I0805 08:57:26.897842 20726 net.cpp:397] drop7 -> fc7 (in-place)
I0805 08:57:26.897871 20726 net.cpp:150] Setting up drop7
I0805 08:57:26.897877 20726 net.cpp:157] Top shape: 10 4096 (40960)
I0805 08:57:26.897881 20726 net.cpp:165] Memory required for data: 76968960
I0805 08:57:26.897883 20726 layer_factory.hpp:77] Creating layer fc8_occlusion
I0805 08:57:26.897896 20726 net.cpp:106] Creating Layer fc8_occlusion
I0805 08:57:26.897898 20726 net.cpp:454] fc8_occlusion <- fc7
I0805 08:57:26.897904 20726 net.cpp:411] fc8_occlusion -> fc8_occlusion
I0805 08:57:26.899505 20726 net.cpp:150] Setting up fc8_occlusion
I0805 08:57:26.899518 20726 net.cpp:157] Top shape: 10 20 (200)
I0805 08:57:26.899521 20726 net.cpp:165] Memory required for data: 76969760
I0805 08:57:26.899528 20726 layer_factory.hpp:77] Creating layer prob
I0805 08:57:26.899538 20726 net.cpp:106] Creating Layer prob
I0805 08:57:26.899541 20726 net.cpp:454] prob <- fc8_occlusion
I0805 08:57:26.899547 20726 net.cpp:411] prob -> prob
I0805 08:57:26.899902 20726 net.cpp:150] Setting up prob
I0805 08:57:26.899916 20726 net.cpp:157] Top shape: 10 20 (200)
I0805 08:57:26.899920 20726 net.cpp:165] Memory required for data: 76970560
I0805 08:57:26.899924 20726 net.cpp:228] prob does not need backward computation.
I0805 08:57:26.899929 20726 net.cpp:228] fc8_occlusion does not need backward computation.
I0805 08:57:26.899932 20726 net.cpp:228] drop7 does not need backward computation.
I0805 08:57:26.899935 20726 net.cpp:228] relu7 does not need backward computation.
…
