discarding /home/haow3/miniconda2/bin from PATH
prepending /home/haow3/miniconda2/envs/cafferc3/bin to PATH
WARNING: Logging before InitGoogleLogging() is written to STDERR
I0805 08:57:17.472687 20464 net.cpp:49] Initializing net from parameters: 
name: "AlexNetOcclusion"
input: "data"
state {
  phase: TEST
}
input_shape {
  dim: 10
  dim: 3
  dim: 227
  dim: 227
}
layer {
  name: "conv1"
  type: "Convolution"
  bottom: "data"
  top: "conv1"
  param {
    lr_mult: 0
    decay_mult: 1
  }
  param {
    lr_mult: 0
    decay_mult: 0
  }
  convolution_param {
    num_output: 96
    kernel_size: 11
    stride: 4
    weight_filler {
      type: "gaussian"
      std: 0.01
    }
    bias_filler {
      type: "constant"
      value: 0
    }
  }
}
layer {
  name: "relu1"
  type: "ReLU"
  bottom: "conv1"
  top: "conv1"
}
layer {
  name: "norm1"
  type: "LRN"
  bottom: "conv1"
  top: "norm1"
  lrn_param {
    local_size: 5
    alpha: 0.0001
    beta: 0.75
  }
}
layer {
  name: "pool1"
  type: "Pooling"
  bottom: "norm1"
  top: "pool1"
  pooling_param {
    pool: MAX
    kernel_size: 3
    stride: 2
  }
}
layer {
  name: "conv2"
  type: "Convolution"
  bottom: "pool1"
  top: "conv2"
  param {
    lr_mult: 0
    decay_mult: 1
  }
  param {
    lr_mult: 0
    decay_mult: 0
  }
  convolution_param {
    num_output: 256
    pad: 2
    kernel_size: 5
    group: 2
    weight_filler {
      type: "gaussian"
      std: 0.01
    }
    bias_filler {
      type: "constant"
      value: 0.1
    }
  }
}
layer {
  name: "relu2"
  type: "ReLU"
  bottom: "conv2"
  top: "conv2"
}
layer {
  name: "norm2"
  type: "LRN"
  bottom: "conv2"
  top: "norm2"
  lrn_param {
    local_size: 5
    alpha: 0.0001
    beta: 0.75
  }
}
layer {
  name: "pool2"
  type: "Pooling"
  bottom: "norm2"
  top: "pool2"
  pooling_param {
    pool: MAX
    kernel_size: 3
    stride: 2
  }
}
layer {
  name: "conv3"
  type: "Convolution"
  bottom: "pool2"
  top: "conv3"
  param {
    lr_mult: 0
    decay_mult: 1
  }
  param {
    lr_mult: 0
    decay_mult: 0
  }
  convolution_param {
    num_output: 384
    pad: 1
    kernel_size: 3
    weight_filler {
      type: "gaussian"
      std: 0.01
    }
    bias_filler {
      type: "constant"
      value: 0
    }
  }
}
layer {
  name: "relu3"
  type: "ReLU"
  bottom: "conv3"
  top: "conv3"
}
layer {
  name: "conv4"
  type: "Convolution"
  bottom: "conv3"
  top: "conv4"
  param {
    lr_mult: 0
    decay_mult: 1
  }
  param {
    lr_mult: 0
    decay_mult: 0
  }
  convolution_param {
    num_output: 384
    pad: 1
    kernel_size: 3
    group: 2
    weight_filler {
      type: "gaussian"
      std: 0.01
    }
    bias_filler {
      type: "constant"
      value: 0.1
    }
  }
}
layer {
  name: "relu4"
  type: "ReLU"
  bottom: "conv4"
  top: "conv4"
}
layer {
  name: "conv5"
  type: "Convolution"
  bottom: "conv4"
  top: "conv5"
  param {
    lr_mult: 0
    decay_mult: 1
  }
  param {
    lr_mult: 0
    decay_mult: 0
  }
  convolution_param {
    num_output: 256
    pad: 1
    kernel_size: 3
    group: 2
    weight_filler {
      type: "gaussian"
      std: 0.01
    }
    bias_filler {
      type: "constant"
      value: 0.1
    }
  }
}
layer {
  name: "relu5"
  type: "ReLU"
  bottom: "conv5"
  top: "conv5"
}
layer {
  name: "pool5"
  type: "Pooling"
  bottom: "conv5"
  top: "pool5"
  pooling_param {
    pool: MAX
    kernel_size: 3
    stride: 2
  }
}
layer {
  name: "fc6"
  type: "InnerProduct"
  bottom: "pool5"
  top: "fc6"
  param {
    lr_mult: 0
    decay_mult: 1
  }
  param {
    lr_mult: 0
    decay_mult: 0
  }
  inner_product_param {
    num_output: 4096
    weight_filler {
      type: "gaussian"
      std: 0.005
    }
    bias_filler {
      type: "constant"
      value: 0.1
    }
  }
}
layer {
  name: "relu6"
  type: "ReLU"
  bottom: "fc6"
  top: "fc6"
}
layer {
  name: "drop6"
  type: "Dropout"
  bottom: "fc6"
  top: "fc6"
  dropout_param {
    dropout_ratio: 0.5
  }
}
layer {
  name: "fc7"
  type: "InnerProduct"
  bottom: "fc6"
  top: "fc7"
  param {
    lr_mult: 0
    decay_mult: 1
  }
  param {
    lr_mult: 0
    decay_mult: 0
  }
  inner_product_param {
    num_output: 4096
    weight_filler {
      type: "gaussian"
      std: 0.005
    }
    bias_filler {
      type: "constant"
      value: 0.1
    }
  }
}
layer {
  name: "relu7"
  type: "ReLU"
  bottom: "fc7"
  top: "fc7"
}
layer {
  name: "drop7"
  type: "Dropout"
  bottom: "fc7"
  top: "fc7"
  dropout_param {
    dropout_ratio: 0.5
  }
}
layer {
  name: "fc8_occlusion"
  type: "InnerProduct"
  bottom: "fc7"
  top: "fc8_occlusion"
  param {
    lr_mult: 1
    decay_mult: 1
  }
  param {
    lr_mult: 2
    decay_mult: 0
  }
  inner_product_param {
    num_output: 20
    weight_filler {
      type: "gaussian"
      std: 0.01
    }
    bias_filler {
      type: "constant"
      value: 0
    }
  }
}
layer {
  name: "prob"
  type: "Softmax"
  bottom: "fc8_occlusion"
  top: "prob"
}
I0805 08:57:17.472786 20464 net.cpp:413] Input 0 -> data
I0805 08:57:17.481696 20464 layer_factory.hpp:77] Creating layer conv1
I0805 08:57:17.481729 20464 net.cpp:106] Creating Layer conv1
I0805 08:57:17.481734 20464 net.cpp:454] conv1 <- data
I0805 08:57:17.481741 20464 net.cpp:411] conv1 -> conv1
I0805 08:57:17.700042 20464 net.cpp:150] Setting up conv1
I0805 08:57:17.700098 20464 net.cpp:157] Top shape: 10 96 55 55 (2904000)
I0805 08:57:17.700103 20464 net.cpp:165] Memory required for data: 11616000
I0805 08:57:17.700125 20464 layer_factory.hpp:77] Creating layer relu1
I0805 08:57:17.700145 20464 net.cpp:106] Creating Layer relu1
I0805 08:57:17.700150 20464 net.cpp:454] relu1 <- conv1
I0805 08:57:17.700155 20464 net.cpp:397] relu1 -> conv1 (in-place)
I0805 08:57:17.700459 20464 net.cpp:150] Setting up relu1
I0805 08:57:17.700471 20464 net.cpp:157] Top shape: 10 96 55 55 (2904000)
I0805 08:57:17.700475 20464 net.cpp:165] Memory required for data: 23232000
I0805 08:57:17.700479 20464 layer_factory.hpp:77] Creating layer norm1
I0805 08:57:17.700491 20464 net.cpp:106] Creating Layer norm1
I0805 08:57:17.700495 20464 net.cpp:454] norm1 <- conv1
I0805 08:57:17.700502 20464 net.cpp:411] norm1 -> norm1
I0805 08:57:17.700675 20464 net.cpp:150] Setting up norm1
I0805 08:57:17.700685 20464 net.cpp:157] Top shape: 10 96 55 55 (2904000)
I0805 08:57:17.700688 20464 net.cpp:165] Memory required for data: 34848000
I0805 08:57:17.700691 20464 layer_factory.hpp:77] Creating layer pool1
I0805 08:57:17.700701 20464 net.cpp:106] Creating Layer pool1
I0805 08:57:17.700706 20464 net.cpp:454] pool1 <- norm1
I0805 08:57:17.700711 20464 net.cpp:411] pool1 -> pool1
I0805 08:57:17.700748 20464 net.cpp:150] Setting up pool1
I0805 08:57:17.700754 20464 net.cpp:157] Top shape: 10 96 27 27 (699840)
I0805 08:57:17.700757 20464 net.cpp:165] Memory required for data: 37647360
I0805 08:57:17.700762 20464 layer_factory.hpp:77] Creating layer conv2
I0805 08:57:17.700778 20464 net.cpp:106] Creating Layer conv2
I0805 08:57:17.700781 20464 net.cpp:454] conv2 <- pool1
I0805 08:57:17.700788 20464 net.cpp:411] conv2 -> conv2
I0805 08:57:17.706115 20464 net.cpp:150] Setting up conv2
I0805 08:57:17.706131 20464 net.cpp:157] Top shape: 10 256 27 27 (1866240)
I0805 08:57:17.706135 20464 net.cpp:165] Memory required for data: 45112320
I0805 08:57:17.706143 20464 layer_factory.hpp:77] Creating layer relu2
I0805 08:57:17.706151 20464 net.cpp:106] Creating Layer relu2
I0805 08:57:17.706154 20464 net.cpp:454] relu2 <- conv2
I0805 08:57:17.706159 20464 net.cpp:397] relu2 -> conv2 (in-place)
I0805 08:57:17.706311 20464 net.cpp:150] Setting up relu2
I0805 08:57:17.706321 20464 net.cpp:157] Top shape: 10 256 27 27 (1866240)
I0805 08:57:17.706323 20464 net.cpp:165] Memory required for data: 52577280
I0805 08:57:17.706327 20464 layer_factory.hpp:77] Creating layer norm2
I0805 08:57:17.706336 20464 net.cpp:106] Creating Layer norm2
I0805 08:57:17.706339 20464 net.cpp:454] norm2 <- conv2
I0805 08:57:17.706344 20464 net.cpp:411] norm2 -> norm2
I0805 08:57:17.706624 20464 net.cpp:150] Setting up norm2
I0805 08:57:17.706635 20464 net.cpp:157] Top shape: 10 256 27 27 (1866240)
I0805 08:57:17.706639 20464 net.cpp:165] Memory required for data: 60042240
I0805 08:57:17.706642 20464 layer_factory.hpp:77] Creating layer pool2
I0805 08:57:17.706656 20464 net.cpp:106] Creating Layer pool2
I0805 08:57:17.706660 20464 net.cpp:454] pool2 <- norm2
I0805 08:57:17.706665 20464 net.cpp:411] pool2 -> pool2
I0805 08:57:17.706699 20464 net.cpp:150] Setting up pool2
I0805 08:57:17.706707 20464 net.cpp:157] Top shape: 10 256 13 13 (432640)
I0805 08:57:17.706708 20464 net.cpp:165] Memory required for data: 61772800
I0805 08:57:17.706712 20464 layer_factory.hpp:77] Creating layer conv3
I0805 08:57:17.706725 20464 net.cpp:106] Creating Layer conv3
I0805 08:57:17.706729 20464 net.cpp:454] conv3 <- pool2
I0805 08:57:17.706734 20464 net.cpp:411] conv3 -> conv3
I0805 08:57:17.717051 20464 net.cpp:150] Setting up conv3
I0805 08:57:17.717067 20464 net.cpp:157] Top shape: 10 384 13 13 (648960)
I0805 08:57:17.717070 20464 net.cpp:165] Memory required for data: 64368640
I0805 08:57:17.717080 20464 layer_factory.hpp:77] Creating layer relu3
I0805 08:57:17.717088 20464 net.cpp:106] Creating Layer relu3
I0805 08:57:17.717092 20464 net.cpp:454] relu3 <- conv3
I0805 08:57:17.717097 20464 net.cpp:397] relu3 -> conv3 (in-place)
I0805 08:57:17.717249 20464 net.cpp:150] Setting up relu3
I0805 08:57:17.717257 20464 net.cpp:157] Top shape: 10 384 13 13 (648960)
I0805 08:57:17.717260 20464 net.cpp:165] Memory required for data: 66964480
I0805 08:57:17.717264 20464 layer_factory.hpp:77] Creating layer conv4
I0805 08:57:17.717275 20464 net.cpp:106] Creating Layer conv4
I0805 08:57:17.717279 20464 net.cpp:454] conv4 <- conv3
I0805 08:57:17.717286 20464 net.cpp:411] conv4 -> conv4
I0805 08:57:17.725889 20464 net.cpp:150] Setting up conv4
I0805 08:57:17.725904 20464 net.cpp:157] Top shape: 10 384 13 13 (648960)
I0805 08:57:17.725908 20464 net.cpp:165] Memory required for data: 69560320
I0805 08:57:17.725914 20464 layer_factory.hpp:77] Creating layer relu4
I0805 08:57:17.725922 20464 net.cpp:106] Creating Layer relu4
I0805 08:57:17.725925 20464 net.cpp:454] relu4 <- conv4
I0805 08:57:17.725930 20464 net.cpp:397] relu4 -> conv4 (in-place)
I0805 08:57:17.726106 20464 net.cpp:150] Setting up relu4
I0805 08:57:17.726116 20464 net.cpp:157] Top shape: 10 384 13 13 (648960)
I0805 08:57:17.726119 20464 net.cpp:165] Memory required for data: 72156160
I0805 08:57:17.726124 20464 layer_factory.hpp:77] Creating layer conv5
I0805 08:57:17.726135 20464 net.cpp:106] Creating Layer conv5
I0805 08:57:17.726140 20464 net.cpp:454] conv5 <- conv4
I0805 08:57:17.726147 20464 net.cpp:411] conv5 -> conv5
I0805 08:57:17.732949 20464 net.cpp:150] Setting up conv5
I0805 08:57:17.732965 20464 net.cpp:157] Top shape: 10 256 13 13 (432640)
I0805 08:57:17.732969 20464 net.cpp:165] Memory required for data: 73886720
I0805 08:57:17.732980 20464 layer_factory.hpp:77] Creating layer relu5
I0805 08:57:17.732990 20464 net.cpp:106] Creating Layer relu5
I0805 08:57:17.732995 20464 net.cpp:454] relu5 <- conv5
I0805 08:57:17.733000 20464 net.cpp:397] relu5 -> conv5 (in-place)
I0805 08:57:17.733182 20464 net.cpp:150] Setting up relu5
I0805 08:57:17.733191 20464 net.cpp:157] Top shape: 10 256 13 13 (432640)
I0805 08:57:17.733196 20464 net.cpp:165] Memory required for data: 75617280
I0805 08:57:17.733199 20464 layer_factory.hpp:77] Creating layer pool5
I0805 08:57:17.733206 20464 net.cpp:106] Creating Layer pool5
I0805 08:57:17.733209 20464 net.cpp:454] pool5 <- conv5
I0805 08:57:17.733217 20464 net.cpp:411] pool5 -> pool5
I0805 08:57:17.733260 20464 net.cpp:150] Setting up pool5
I0805 08:57:17.733268 20464 net.cpp:157] Top shape: 10 256 6 6 (92160)
I0805 08:57:17.733270 20464 net.cpp:165] Memory required for data: 75985920
I0805 08:57:17.733273 20464 layer_factory.hpp:77] Creating layer fc6
I0805 08:57:17.733286 20464 net.cpp:106] Creating Layer fc6
I0805 08:57:17.733290 20464 net.cpp:454] fc6 <- pool5
I0805 08:57:17.733297 20464 net.cpp:411] fc6 -> fc6
I0805 08:57:18.133780 20464 net.cpp:150] Setting up fc6
I0805 08:57:18.133836 20464 net.cpp:157] Top shape: 10 4096 (40960)
I0805 08:57:18.133839 20464 net.cpp:165] Memory required for data: 76149760
I0805 08:57:18.133852 20464 layer_factory.hpp:77] Creating layer relu6
I0805 08:57:18.133878 20464 net.cpp:106] Creating Layer relu6
I0805 08:57:18.133883 20464 net.cpp:454] relu6 <- fc6
I0805 08:57:18.133890 20464 net.cpp:397] relu6 -> fc6 (in-place)
I0805 08:57:18.134397 20464 net.cpp:150] Setting up relu6
I0805 08:57:18.134425 20464 net.cpp:157] Top shape: 10 4096 (40960)
I0805 08:57:18.134428 20464 net.cpp:165] Memory required for data: 76313600
I0805 08:57:18.134433 20464 layer_factory.hpp:77] Creating layer drop6
I0805 08:57:18.134441 20464 net.cpp:106] Creating Layer drop6
I0805 08:57:18.134444 20464 net.cpp:454] drop6 <- fc6
I0805 08:57:18.134449 20464 net.cpp:397] drop6 -> fc6 (in-place)
I0805 08:57:18.134479 20464 net.cpp:150] Setting up drop6
I0805 08:57:18.134485 20464 net.cpp:157] Top shape: 10 4096 (40960)
I0805 08:57:18.134486 20464 net.cpp:165] Memory required for data: 76477440
I0805 08:57:18.134490 20464 layer_factory.hpp:77] Creating layer fc7
I0805 08:57:18.134500 20464 net.cpp:106] Creating Layer fc7
I0805 08:57:18.134505 20464 net.cpp:454] fc7 <- fc6
I0805 08:57:18.134510 20464 net.cpp:411] fc7 -> fc7
I0805 08:57:18.312595 20464 net.cpp:150] Setting up fc7
I0805 08:57:18.312651 20464 net.cpp:157] Top shape: 10 4096 (40960)
I0805 08:57:18.312655 20464 net.cpp:165] Memory required for data: 76641280
I0805 08:57:18.312667 20464 layer_factory.hpp:77] Creating layer relu7
I0805 08:57:18.312682 20464 net.cpp:106] Creating Layer relu7
I0805 08:57:18.312688 20464 net.cpp:454] relu7 <- fc7
I0805 08:57:18.312695 20464 net.cpp:397] relu7 -> fc7 (in-place)
I0805 08:57:18.312929 20464 net.cpp:150] Setting up relu7
I0805 08:57:18.312938 20464 net.cpp:157] Top shape: 10 4096 (40960)
I0805 08:57:18.312942 20464 net.cpp:165] Memory required for data: 76805120
I0805 08:57:18.312944 20464 layer_factory.hpp:77] Creating layer drop7
I0805 08:57:18.312953 20464 net.cpp:106] Creating Layer drop7
I0805 08:57:18.312958 20464 net.cpp:454] drop7 <- fc7
I0805 08:57:18.312963 20464 net.cpp:397] drop7 -> fc7 (in-place)
I0805 08:57:18.312994 20464 net.cpp:150] Setting up drop7
I0805 08:57:18.313001 20464 net.cpp:157] Top shape: 10 4096 (40960)
I0805 08:57:18.313005 20464 net.cpp:165] Memory required for data: 76968960
I0805 08:57:18.313009 20464 layer_factory.hpp:77] Creating layer fc8_occlusion
I0805 08:57:18.313017 20464 net.cpp:106] Creating Layer fc8_occlusion
I0805 08:57:18.313020 20464 net.cpp:454] fc8_occlusion <- fc7
I0805 08:57:18.313025 20464 net.cpp:411] fc8_occlusion -> fc8_occlusion
I0805 08:57:18.314543 20464 net.cpp:150] Setting up fc8_occlusion
I0805 08:57:18.314555 20464 net.cpp:157] Top shape: 10 20 (200)
I0805 08:57:18.314558 20464 net.cpp:165] Memory required for data: 76969760
I0805 08:57:18.314564 20464 layer_factory.hpp:77] Creating layer prob
I0805 08:57:18.314571 20464 net.cpp:106] Creating Layer prob
I0805 08:57:18.314575 20464 net.cpp:454] prob <- fc8_occlusion
I0805 08:57:18.314582 20464 net.cpp:411] prob -> prob
I0805 08:57:18.314923 20464 net.cpp:150] Setting up prob
I0805 08:57:18.314934 20464 net.cpp:157] Top shape: 10 20 (200)
I0805 08:57:18.314939 20464 net.cpp:165] Memory required for data: 76970560
I0805 08:57:18.314942 20464 net.cpp:228] prob does not need backward computation.
I0805 08:57:18.314946 20464 net.cpp:228] fc8_occlusion does not need backward computation.
I0805 08:57:18.314949 20464 net.cpp:228] drop7 does not need backward computation.
I0805 08:57:18.314952 20464 net.cpp:228] relu7 does not need backward computation.
…
