discarding /home/haow3/miniconda2/bin from PATH
prepending /home/haow3/miniconda2/envs/cafferc3/bin to PATH
WARNING: Logging before InitGoogleLogging() is written to STDERR
I0805 08:57:17.467700 20550 net.cpp:49] Initializing net from parameters: 
name: "AlexNetOcclusion"
input: "data"
state {
  phase: TEST
}
input_shape {
  dim: 10
  dim: 3
  dim: 227
  dim: 227
}
layer {
  name: "conv1"
  type: "Convolution"
  bottom: "data"
  top: "conv1"
  param {
    lr_mult: 0
    decay_mult: 1
  }
  param {
    lr_mult: 0
    decay_mult: 0
  }
  convolution_param {
    num_output: 96
    kernel_size: 11
    stride: 4
    weight_filler {
      type: "gaussian"
      std: 0.01
    }
    bias_filler {
      type: "constant"
      value: 0
    }
  }
}
layer {
  name: "relu1"
  type: "ReLU"
  bottom: "conv1"
  top: "conv1"
}
layer {
  name: "norm1"
  type: "LRN"
  bottom: "conv1"
  top: "norm1"
  lrn_param {
    local_size: 5
    alpha: 0.0001
    beta: 0.75
  }
}
layer {
  name: "pool1"
  type: "Pooling"
  bottom: "norm1"
  top: "pool1"
  pooling_param {
    pool: MAX
    kernel_size: 3
    stride: 2
  }
}
layer {
  name: "conv2"
  type: "Convolution"
  bottom: "pool1"
  top: "conv2"
  param {
    lr_mult: 0
    decay_mult: 1
  }
  param {
    lr_mult: 0
    decay_mult: 0
  }
  convolution_param {
    num_output: 256
    pad: 2
    kernel_size: 5
    group: 2
    weight_filler {
      type: "gaussian"
      std: 0.01
    }
    bias_filler {
      type: "constant"
      value: 0.1
    }
  }
}
layer {
  name: "relu2"
  type: "ReLU"
  bottom: "conv2"
  top: "conv2"
}
layer {
  name: "norm2"
  type: "LRN"
  bottom: "conv2"
  top: "norm2"
  lrn_param {
    local_size: 5
    alpha: 0.0001
    beta: 0.75
  }
}
layer {
  name: "pool2"
  type: "Pooling"
  bottom: "norm2"
  top: "pool2"
  pooling_param {
    pool: MAX
    kernel_size: 3
    stride: 2
  }
}
layer {
  name: "conv3"
  type: "Convolution"
  bottom: "pool2"
  top: "conv3"
  param {
    lr_mult: 0
    decay_mult: 1
  }
  param {
    lr_mult: 0
    decay_mult: 0
  }
  convolution_param {
    num_output: 384
    pad: 1
    kernel_size: 3
    weight_filler {
      type: "gaussian"
      std: 0.01
    }
    bias_filler {
      type: "constant"
      value: 0
    }
  }
}
layer {
  name: "relu3"
  type: "ReLU"
  bottom: "conv3"
  top: "conv3"
}
layer {
  name: "conv4"
  type: "Convolution"
  bottom: "conv3"
  top: "conv4"
  param {
    lr_mult: 0
    decay_mult: 1
  }
  param {
    lr_mult: 0
    decay_mult: 0
  }
  convolution_param {
    num_output: 384
    pad: 1
    kernel_size: 3
    group: 2
    weight_filler {
      type: "gaussian"
      std: 0.01
    }
    bias_filler {
      type: "constant"
      value: 0.1
    }
  }
}
layer {
  name: "relu4"
  type: "ReLU"
  bottom: "conv4"
  top: "conv4"
}
layer {
  name: "conv5"
  type: "Convolution"
  bottom: "conv4"
  top: "conv5"
  param {
    lr_mult: 0
    decay_mult: 1
  }
  param {
    lr_mult: 0
    decay_mult: 0
  }
  convolution_param {
    num_output: 256
    pad: 1
    kernel_size: 3
    group: 2
    weight_filler {
      type: "gaussian"
      std: 0.01
    }
    bias_filler {
      type: "constant"
      value: 0.1
    }
  }
}
layer {
  name: "relu5"
  type: "ReLU"
  bottom: "conv5"
  top: "conv5"
}
layer {
  name: "pool5"
  type: "Pooling"
  bottom: "conv5"
  top: "pool5"
  pooling_param {
    pool: MAX
    kernel_size: 3
    stride: 2
  }
}
layer {
  name: "fc6"
  type: "InnerProduct"
  bottom: "pool5"
  top: "fc6"
  param {
    lr_mult: 0
    decay_mult: 1
  }
  param {
    lr_mult: 0
    decay_mult: 0
  }
  inner_product_param {
    num_output: 4096
    weight_filler {
      type: "gaussian"
      std: 0.005
    }
    bias_filler {
      type: "constant"
      value: 0.1
    }
  }
}
layer {
  name: "relu6"
  type: "ReLU"
  bottom: "fc6"
  top: "fc6"
}
layer {
  name: "drop6"
  type: "Dropout"
  bottom: "fc6"
  top: "fc6"
  dropout_param {
    dropout_ratio: 0.5
  }
}
layer {
  name: "fc7"
  type: "InnerProduct"
  bottom: "fc6"
  top: "fc7"
  param {
    lr_mult: 0
    decay_mult: 1
  }
  param {
    lr_mult: 0
    decay_mult: 0
  }
  inner_product_param {
    num_output: 4096
    weight_filler {
      type: "gaussian"
      std: 0.005
    }
    bias_filler {
      type: "constant"
      value: 0.1
    }
  }
}
layer {
  name: "relu7"
  type: "ReLU"
  bottom: "fc7"
  top: "fc7"
}
layer {
  name: "drop7"
  type: "Dropout"
  bottom: "fc7"
  top: "fc7"
  dropout_param {
    dropout_ratio: 0.5
  }
}
layer {
  name: "fc8_occlusion"
  type: "InnerProduct"
  bottom: "fc7"
  top: "fc8_occlusion"
  param {
    lr_mult: 1
    decay_mult: 1
  }
  param {
    lr_mult: 2
    decay_mult: 0
  }
  inner_product_param {
    num_output: 20
    weight_filler {
      type: "gaussian"
      std: 0.01
    }
    bias_filler {
      type: "constant"
      value: 0
    }
  }
}
layer {
  name: "prob"
  type: "Softmax"
  bottom: "fc8_occlusion"
  top: "prob"
}
I0805 08:57:17.467831 20550 net.cpp:413] Input 0 -> data
I0805 08:57:17.479768 20550 layer_factory.hpp:77] Creating layer conv1
I0805 08:57:17.479805 20550 net.cpp:106] Creating Layer conv1
I0805 08:57:17.479811 20550 net.cpp:454] conv1 <- data
I0805 08:57:17.479818 20550 net.cpp:411] conv1 -> conv1
I0805 08:57:17.732233 20550 net.cpp:150] Setting up conv1
I0805 08:57:17.732270 20550 net.cpp:157] Top shape: 10 96 55 55 (2904000)
I0805 08:57:17.732275 20550 net.cpp:165] Memory required for data: 11616000
I0805 08:57:17.732295 20550 layer_factory.hpp:77] Creating layer relu1
I0805 08:57:17.732309 20550 net.cpp:106] Creating Layer relu1
I0805 08:57:17.732313 20550 net.cpp:454] relu1 <- conv1
I0805 08:57:17.732321 20550 net.cpp:397] relu1 -> conv1 (in-place)
I0805 08:57:17.732640 20550 net.cpp:150] Setting up relu1
I0805 08:57:17.732652 20550 net.cpp:157] Top shape: 10 96 55 55 (2904000)
I0805 08:57:17.732656 20550 net.cpp:165] Memory required for data: 23232000
I0805 08:57:17.732659 20550 layer_factory.hpp:77] Creating layer norm1
I0805 08:57:17.732671 20550 net.cpp:106] Creating Layer norm1
I0805 08:57:17.732674 20550 net.cpp:454] norm1 <- conv1
I0805 08:57:17.732679 20550 net.cpp:411] norm1 -> norm1
I0805 08:57:17.732851 20550 net.cpp:150] Setting up norm1
I0805 08:57:17.732861 20550 net.cpp:157] Top shape: 10 96 55 55 (2904000)
I0805 08:57:17.732863 20550 net.cpp:165] Memory required for data: 34848000
I0805 08:57:17.732867 20550 layer_factory.hpp:77] Creating layer pool1
I0805 08:57:17.732875 20550 net.cpp:106] Creating Layer pool1
I0805 08:57:17.732878 20550 net.cpp:454] pool1 <- norm1
I0805 08:57:17.732884 20550 net.cpp:411] pool1 -> pool1
I0805 08:57:17.732920 20550 net.cpp:150] Setting up pool1
I0805 08:57:17.732926 20550 net.cpp:157] Top shape: 10 96 27 27 (699840)
I0805 08:57:17.732929 20550 net.cpp:165] Memory required for data: 37647360
I0805 08:57:17.732933 20550 layer_factory.hpp:77] Creating layer conv2
I0805 08:57:17.732946 20550 net.cpp:106] Creating Layer conv2
I0805 08:57:17.732950 20550 net.cpp:454] conv2 <- pool1
I0805 08:57:17.732956 20550 net.cpp:411] conv2 -> conv2
I0805 08:57:17.739029 20550 net.cpp:150] Setting up conv2
I0805 08:57:17.739047 20550 net.cpp:157] Top shape: 10 256 27 27 (1866240)
I0805 08:57:17.739050 20550 net.cpp:165] Memory required for data: 45112320
I0805 08:57:17.739060 20550 layer_factory.hpp:77] Creating layer relu2
I0805 08:57:17.739069 20550 net.cpp:106] Creating Layer relu2
I0805 08:57:17.739073 20550 net.cpp:454] relu2 <- conv2
I0805 08:57:17.739078 20550 net.cpp:397] relu2 -> conv2 (in-place)
I0805 08:57:17.739243 20550 net.cpp:150] Setting up relu2
I0805 08:57:17.739253 20550 net.cpp:157] Top shape: 10 256 27 27 (1866240)
I0805 08:57:17.739255 20550 net.cpp:165] Memory required for data: 52577280
I0805 08:57:17.739259 20550 layer_factory.hpp:77] Creating layer norm2
I0805 08:57:17.739266 20550 net.cpp:106] Creating Layer norm2
I0805 08:57:17.739270 20550 net.cpp:454] norm2 <- conv2
I0805 08:57:17.739276 20550 net.cpp:411] norm2 -> norm2
I0805 08:57:17.739567 20550 net.cpp:150] Setting up norm2
I0805 08:57:17.739578 20550 net.cpp:157] Top shape: 10 256 27 27 (1866240)
I0805 08:57:17.739581 20550 net.cpp:165] Memory required for data: 60042240
I0805 08:57:17.739585 20550 layer_factory.hpp:77] Creating layer pool2
I0805 08:57:17.739598 20550 net.cpp:106] Creating Layer pool2
I0805 08:57:17.739603 20550 net.cpp:454] pool2 <- norm2
I0805 08:57:17.739609 20550 net.cpp:411] pool2 -> pool2
I0805 08:57:17.739645 20550 net.cpp:150] Setting up pool2
I0805 08:57:17.739651 20550 net.cpp:157] Top shape: 10 256 13 13 (432640)
I0805 08:57:17.739655 20550 net.cpp:165] Memory required for data: 61772800
I0805 08:57:17.739657 20550 layer_factory.hpp:77] Creating layer conv3
I0805 08:57:17.739670 20550 net.cpp:106] Creating Layer conv3
I0805 08:57:17.739673 20550 net.cpp:454] conv3 <- pool2
I0805 08:57:17.739680 20550 net.cpp:411] conv3 -> conv3
I0805 08:57:17.750767 20550 net.cpp:150] Setting up conv3
I0805 08:57:17.750783 20550 net.cpp:157] Top shape: 10 384 13 13 (648960)
I0805 08:57:17.750787 20550 net.cpp:165] Memory required for data: 64368640
I0805 08:57:17.750799 20550 layer_factory.hpp:77] Creating layer relu3
I0805 08:57:17.750810 20550 net.cpp:106] Creating Layer relu3
I0805 08:57:17.750816 20550 net.cpp:454] relu3 <- conv3
I0805 08:57:17.750823 20550 net.cpp:397] relu3 -> conv3 (in-place)
I0805 08:57:17.750980 20550 net.cpp:150] Setting up relu3
I0805 08:57:17.750989 20550 net.cpp:157] Top shape: 10 384 13 13 (648960)
I0805 08:57:17.750993 20550 net.cpp:165] Memory required for data: 66964480
I0805 08:57:17.750996 20550 layer_factory.hpp:77] Creating layer conv4
I0805 08:57:17.751008 20550 net.cpp:106] Creating Layer conv4
I0805 08:57:17.751013 20550 net.cpp:454] conv4 <- conv3
I0805 08:57:17.751019 20550 net.cpp:411] conv4 -> conv4
I0805 08:57:17.760123 20550 net.cpp:150] Setting up conv4
I0805 08:57:17.760138 20550 net.cpp:157] Top shape: 10 384 13 13 (648960)
I0805 08:57:17.760141 20550 net.cpp:165] Memory required for data: 69560320
I0805 08:57:17.760149 20550 layer_factory.hpp:77] Creating layer relu4
I0805 08:57:17.760155 20550 net.cpp:106] Creating Layer relu4
I0805 08:57:17.760159 20550 net.cpp:454] relu4 <- conv4
I0805 08:57:17.760165 20550 net.cpp:397] relu4 -> conv4 (in-place)
I0805 08:57:17.760319 20550 net.cpp:150] Setting up relu4
I0805 08:57:17.760329 20550 net.cpp:157] Top shape: 10 384 13 13 (648960)
I0805 08:57:17.760331 20550 net.cpp:165] Memory required for data: 72156160
I0805 08:57:17.760335 20550 layer_factory.hpp:77] Creating layer conv5
I0805 08:57:17.760345 20550 net.cpp:106] Creating Layer conv5
I0805 08:57:17.760349 20550 net.cpp:454] conv5 <- conv4
I0805 08:57:17.760356 20550 net.cpp:411] conv5 -> conv5
I0805 08:57:17.767210 20550 net.cpp:150] Setting up conv5
I0805 08:57:17.767225 20550 net.cpp:157] Top shape: 10 256 13 13 (432640)
I0805 08:57:17.767228 20550 net.cpp:165] Memory required for data: 73886720
I0805 08:57:17.767241 20550 layer_factory.hpp:77] Creating layer relu5
I0805 08:57:17.767248 20550 net.cpp:106] Creating Layer relu5
I0805 08:57:17.767251 20550 net.cpp:454] relu5 <- conv5
I0805 08:57:17.767257 20550 net.cpp:397] relu5 -> conv5 (in-place)
I0805 08:57:17.767432 20550 net.cpp:150] Setting up relu5
I0805 08:57:17.767441 20550 net.cpp:157] Top shape: 10 256 13 13 (432640)
I0805 08:57:17.767446 20550 net.cpp:165] Memory required for data: 75617280
I0805 08:57:17.767448 20550 layer_factory.hpp:77] Creating layer pool5
I0805 08:57:17.767460 20550 net.cpp:106] Creating Layer pool5
I0805 08:57:17.767465 20550 net.cpp:454] pool5 <- conv5
I0805 08:57:17.767470 20550 net.cpp:411] pool5 -> pool5
I0805 08:57:17.767513 20550 net.cpp:150] Setting up pool5
I0805 08:57:17.767520 20550 net.cpp:157] Top shape: 10 256 6 6 (92160)
I0805 08:57:17.767524 20550 net.cpp:165] Memory required for data: 75985920
I0805 08:57:17.767526 20550 layer_factory.hpp:77] Creating layer fc6
I0805 08:57:17.767540 20550 net.cpp:106] Creating Layer fc6
I0805 08:57:17.767544 20550 net.cpp:454] fc6 <- pool5
I0805 08:57:17.767549 20550 net.cpp:411] fc6 -> fc6
I0805 08:57:18.155270 20550 net.cpp:150] Setting up fc6
I0805 08:57:18.155308 20550 net.cpp:157] Top shape: 10 4096 (40960)
I0805 08:57:18.155315 20550 net.cpp:165] Memory required for data: 76149760
I0805 08:57:18.155326 20550 layer_factory.hpp:77] Creating layer relu6
I0805 08:57:18.155350 20550 net.cpp:106] Creating Layer relu6
I0805 08:57:18.155355 20550 net.cpp:454] relu6 <- fc6
I0805 08:57:18.155364 20550 net.cpp:397] relu6 -> fc6 (in-place)
I0805 08:57:18.155789 20550 net.cpp:150] Setting up relu6
I0805 08:57:18.155800 20550 net.cpp:157] Top shape: 10 4096 (40960)
I0805 08:57:18.155803 20550 net.cpp:165] Memory required for data: 76313600
I0805 08:57:18.155807 20550 layer_factory.hpp:77] Creating layer drop6
I0805 08:57:18.155814 20550 net.cpp:106] Creating Layer drop6
I0805 08:57:18.155817 20550 net.cpp:454] drop6 <- fc6
I0805 08:57:18.155824 20550 net.cpp:397] drop6 -> fc6 (in-place)
I0805 08:57:18.155850 20550 net.cpp:150] Setting up drop6
I0805 08:57:18.155858 20550 net.cpp:157] Top shape: 10 4096 (40960)
I0805 08:57:18.155860 20550 net.cpp:165] Memory required for data: 76477440
I0805 08:57:18.155864 20550 layer_factory.hpp:77] Creating layer fc7
I0805 08:57:18.155870 20550 net.cpp:106] Creating Layer fc7
I0805 08:57:18.155874 20550 net.cpp:454] fc7 <- fc6
I0805 08:57:18.155881 20550 net.cpp:411] fc7 -> fc7
I0805 08:57:18.327462 20550 net.cpp:150] Setting up fc7
I0805 08:57:18.327497 20550 net.cpp:157] Top shape: 10 4096 (40960)
I0805 08:57:18.327500 20550 net.cpp:165] Memory required for data: 76641280
I0805 08:57:18.327510 20550 layer_factory.hpp:77] Creating layer relu7
I0805 08:57:18.327520 20550 net.cpp:106] Creating Layer relu7
I0805 08:57:18.327525 20550 net.cpp:454] relu7 <- fc7
I0805 08:57:18.327531 20550 net.cpp:397] relu7 -> fc7 (in-place)
I0805 08:57:18.327749 20550 net.cpp:150] Setting up relu7
I0805 08:57:18.327756 20550 net.cpp:157] Top shape: 10 4096 (40960)
I0805 08:57:18.327759 20550 net.cpp:165] Memory required for data: 76805120
I0805 08:57:18.327762 20550 layer_factory.hpp:77] Creating layer drop7
I0805 08:57:18.327771 20550 net.cpp:106] Creating Layer drop7
I0805 08:57:18.327775 20550 net.cpp:454] drop7 <- fc7
I0805 08:57:18.327780 20550 net.cpp:397] drop7 -> fc7 (in-place)
I0805 08:57:18.327803 20550 net.cpp:150] Setting up drop7
I0805 08:57:18.327811 20550 net.cpp:157] Top shape: 10 4096 (40960)
I0805 08:57:18.327813 20550 net.cpp:165] Memory required for data: 76968960
I0805 08:57:18.327816 20550 layer_factory.hpp:77] Creating layer fc8_occlusion
I0805 08:57:18.327824 20550 net.cpp:106] Creating Layer fc8_occlusion
I0805 08:57:18.327827 20550 net.cpp:454] fc8_occlusion <- fc7
I0805 08:57:18.327834 20550 net.cpp:411] fc8_occlusion -> fc8_occlusion
I0805 08:57:18.329262 20550 net.cpp:150] Setting up fc8_occlusion
I0805 08:57:18.329272 20550 net.cpp:157] Top shape: 10 20 (200)
I0805 08:57:18.329275 20550 net.cpp:165] Memory required for data: 76969760
I0805 08:57:18.329282 20550 layer_factory.hpp:77] Creating layer prob
I0805 08:57:18.329290 20550 net.cpp:106] Creating Layer prob
I0805 08:57:18.329294 20550 net.cpp:454] prob <- fc8_occlusion
I0805 08:57:18.329299 20550 net.cpp:411] prob -> prob
I0805 08:57:18.329627 20550 net.cpp:150] Setting up prob
I0805 08:57:18.329638 20550 net.cpp:157] Top shape: 10 20 (200)
I0805 08:57:18.329640 20550 net.cpp:165] Memory required for data: 76970560
I0805 08:57:18.329643 20550 net.cpp:228] prob does not need backward computation.
I0805 08:57:18.329648 20550 net.cpp:228] fc8_occlusion does not need backward computation.
I0805 08:57:18.329650 20550 net.cpp:228] drop7 does not need backward computation.
I0805 08:57:18.329653 20550 net.cpp:228] relu7 does not need backward computation.
…
