discarding /home/haow3/miniconda2/bin from PATH
prepending /home/haow3/miniconda2/envs/cafferc3/bin to PATH
WARNING: Logging before InitGoogleLogging() is written to STDERR
I0805 08:57:48.082005   601 net.cpp:49] Initializing net from parameters: 
name: "AlexNetOcclusion"
input: "data"
state {
  phase: TEST
}
input_shape {
  dim: 10
  dim: 3
  dim: 227
  dim: 227
}
layer {
  name: "conv1"
  type: "Convolution"
  bottom: "data"
  top: "conv1"
  param {
    lr_mult: 0
    decay_mult: 1
  }
  param {
    lr_mult: 0
    decay_mult: 0
  }
  convolution_param {
    num_output: 96
    kernel_size: 11
    stride: 4
    weight_filler {
      type: "gaussian"
      std: 0.01
    }
    bias_filler {
      type: "constant"
      value: 0
    }
  }
}
layer {
  name: "relu1"
  type: "ReLU"
  bottom: "conv1"
  top: "conv1"
}
layer {
  name: "norm1"
  type: "LRN"
  bottom: "conv1"
  top: "norm1"
  lrn_param {
    local_size: 5
    alpha: 0.0001
    beta: 0.75
  }
}
layer {
  name: "pool1"
  type: "Pooling"
  bottom: "norm1"
  top: "pool1"
  pooling_param {
    pool: MAX
    kernel_size: 3
    stride: 2
  }
}
layer {
  name: "conv2"
  type: "Convolution"
  bottom: "pool1"
  top: "conv2"
  param {
    lr_mult: 0
    decay_mult: 1
  }
  param {
    lr_mult: 0
    decay_mult: 0
  }
  convolution_param {
    num_output: 256
    pad: 2
    kernel_size: 5
    group: 2
    weight_filler {
      type: "gaussian"
      std: 0.01
    }
    bias_filler {
      type: "constant"
      value: 0.1
    }
  }
}
layer {
  name: "relu2"
  type: "ReLU"
  bottom: "conv2"
  top: "conv2"
}
layer {
  name: "norm2"
  type: "LRN"
  bottom: "conv2"
  top: "norm2"
  lrn_param {
    local_size: 5
    alpha: 0.0001
    beta: 0.75
  }
}
layer {
  name: "pool2"
  type: "Pooling"
  bottom: "norm2"
  top: "pool2"
  pooling_param {
    pool: MAX
    kernel_size: 3
    stride: 2
  }
}
layer {
  name: "conv3"
  type: "Convolution"
  bottom: "pool2"
  top: "conv3"
  param {
    lr_mult: 0
    decay_mult: 1
  }
  param {
    lr_mult: 0
    decay_mult: 0
  }
  convolution_param {
    num_output: 384
    pad: 1
    kernel_size: 3
    weight_filler {
      type: "gaussian"
      std: 0.01
    }
    bias_filler {
      type: "constant"
      value: 0
    }
  }
}
layer {
  name: "relu3"
  type: "ReLU"
  bottom: "conv3"
  top: "conv3"
}
layer {
  name: "conv4"
  type: "Convolution"
  bottom: "conv3"
  top: "conv4"
  param {
    lr_mult: 0
    decay_mult: 1
  }
  param {
    lr_mult: 0
    decay_mult: 0
  }
  convolution_param {
    num_output: 384
    pad: 1
    kernel_size: 3
    group: 2
    weight_filler {
      type: "gaussian"
      std: 0.01
    }
    bias_filler {
      type: "constant"
      value: 0.1
    }
  }
}
layer {
  name: "relu4"
  type: "ReLU"
  bottom: "conv4"
  top: "conv4"
}
layer {
  name: "conv5"
  type: "Convolution"
  bottom: "conv4"
  top: "conv5"
  param {
    lr_mult: 0
    decay_mult: 1
  }
  param {
    lr_mult: 0
    decay_mult: 0
  }
  convolution_param {
    num_output: 256
    pad: 1
    kernel_size: 3
    group: 2
    weight_filler {
      type: "gaussian"
      std: 0.01
    }
    bias_filler {
      type: "constant"
      value: 0.1
    }
  }
}
layer {
  name: "relu5"
  type: "ReLU"
  bottom: "conv5"
  top: "conv5"
}
layer {
  name: "pool5"
  type: "Pooling"
  bottom: "conv5"
  top: "pool5"
  pooling_param {
    pool: MAX
    kernel_size: 3
    stride: 2
  }
}
layer {
  name: "fc6"
  type: "InnerProduct"
  bottom: "pool5"
  top: "fc6"
  param {
    lr_mult: 0
    decay_mult: 1
  }
  param {
    lr_mult: 0
    decay_mult: 0
  }
  inner_product_param {
    num_output: 4096
    weight_filler {
      type: "gaussian"
      std: 0.005
    }
    bias_filler {
      type: "constant"
      value: 0.1
    }
  }
}
layer {
  name: "relu6"
  type: "ReLU"
  bottom: "fc6"
  top: "fc6"
}
layer {
  name: "drop6"
  type: "Dropout"
  bottom: "fc6"
  top: "fc6"
  dropout_param {
    dropout_ratio: 0.5
  }
}
layer {
  name: "fc7"
  type: "InnerProduct"
  bottom: "fc6"
  top: "fc7"
  param {
    lr_mult: 0
    decay_mult: 1
  }
  param {
    lr_mult: 0
    decay_mult: 0
  }
  inner_product_param {
    num_output: 4096
    weight_filler {
      type: "gaussian"
      std: 0.005
    }
    bias_filler {
      type: "constant"
      value: 0.1
    }
  }
}
layer {
  name: "relu7"
  type: "ReLU"
  bottom: "fc7"
  top: "fc7"
}
layer {
  name: "drop7"
  type: "Dropout"
  bottom: "fc7"
  top: "fc7"
  dropout_param {
    dropout_ratio: 0.5
  }
}
layer {
  name: "fc8_occlusion"
  type: "InnerProduct"
  bottom: "fc7"
  top: "fc8_occlusion"
  param {
    lr_mult: 1
    decay_mult: 1
  }
  param {
    lr_mult: 2
    decay_mult: 0
  }
  inner_product_param {
    num_output: 20
    weight_filler {
      type: "gaussian"
      std: 0.01
    }
    bias_filler {
      type: "constant"
      value: 0
    }
  }
}
layer {
  name: "prob"
  type: "Softmax"
  bottom: "fc8_occlusion"
  top: "prob"
}
I0805 08:57:48.082157   601 net.cpp:413] Input 0 -> data
I0805 08:57:48.093106   601 layer_factory.hpp:77] Creating layer conv1
I0805 08:57:48.093143   601 net.cpp:106] Creating Layer conv1
I0805 08:57:48.093150   601 net.cpp:454] conv1 <- data
I0805 08:57:48.093164   601 net.cpp:411] conv1 -> conv1
I0805 08:57:48.343782   601 net.cpp:150] Setting up conv1
I0805 08:57:48.343890   601 net.cpp:157] Top shape: 10 96 55 55 (2904000)
I0805 08:57:48.343896   601 net.cpp:165] Memory required for data: 11616000
I0805 08:57:48.343940   601 layer_factory.hpp:77] Creating layer relu1
I0805 08:57:48.343977   601 net.cpp:106] Creating Layer relu1
I0805 08:57:48.343987   601 net.cpp:454] relu1 <- conv1
I0805 08:57:48.343998   601 net.cpp:397] relu1 -> conv1 (in-place)
I0805 08:57:48.344352   601 net.cpp:150] Setting up relu1
I0805 08:57:48.344367   601 net.cpp:157] Top shape: 10 96 55 55 (2904000)
I0805 08:57:48.344372   601 net.cpp:165] Memory required for data: 23232000
I0805 08:57:48.344377   601 layer_factory.hpp:77] Creating layer norm1
I0805 08:57:48.344399   601 net.cpp:106] Creating Layer norm1
I0805 08:57:48.344405   601 net.cpp:454] norm1 <- conv1
I0805 08:57:48.344413   601 net.cpp:411] norm1 -> norm1
I0805 08:57:48.345234   601 net.cpp:150] Setting up norm1
I0805 08:57:48.345249   601 net.cpp:157] Top shape: 10 96 55 55 (2904000)
I0805 08:57:48.345254   601 net.cpp:165] Memory required for data: 34848000
I0805 08:57:48.345259   601 layer_factory.hpp:77] Creating layer pool1
I0805 08:57:48.345274   601 net.cpp:106] Creating Layer pool1
I0805 08:57:48.345278   601 net.cpp:454] pool1 <- norm1
I0805 08:57:48.345285   601 net.cpp:411] pool1 -> pool1
I0805 08:57:48.345347   601 net.cpp:150] Setting up pool1
I0805 08:57:48.345357   601 net.cpp:157] Top shape: 10 96 27 27 (699840)
I0805 08:57:48.345361   601 net.cpp:165] Memory required for data: 37647360
I0805 08:57:48.345366   601 layer_factory.hpp:77] Creating layer conv2
I0805 08:57:48.345396   601 net.cpp:106] Creating Layer conv2
I0805 08:57:48.345401   601 net.cpp:454] conv2 <- pool1
I0805 08:57:48.345409   601 net.cpp:411] conv2 -> conv2
I0805 08:57:48.354938   601 net.cpp:150] Setting up conv2
I0805 08:57:48.355051   601 net.cpp:157] Top shape: 10 256 27 27 (1866240)
I0805 08:57:48.355057   601 net.cpp:165] Memory required for data: 45112320
I0805 08:57:48.355095   601 layer_factory.hpp:77] Creating layer relu2
I0805 08:57:48.355134   601 net.cpp:106] Creating Layer relu2
I0805 08:57:48.355144   601 net.cpp:454] relu2 <- conv2
I0805 08:57:48.355159   601 net.cpp:397] relu2 -> conv2 (in-place)
I0805 08:57:48.355391   601 net.cpp:150] Setting up relu2
I0805 08:57:48.355404   601 net.cpp:157] Top shape: 10 256 27 27 (1866240)
I0805 08:57:48.355412   601 net.cpp:165] Memory required for data: 52577280
I0805 08:57:48.355417   601 layer_factory.hpp:77] Creating layer norm2
I0805 08:57:48.355437   601 net.cpp:106] Creating Layer norm2
I0805 08:57:48.355442   601 net.cpp:454] norm2 <- conv2
I0805 08:57:48.355448   601 net.cpp:411] norm2 -> norm2
I0805 08:57:48.355836   601 net.cpp:150] Setting up norm2
I0805 08:57:48.355854   601 net.cpp:157] Top shape: 10 256 27 27 (1866240)
I0805 08:57:48.355857   601 net.cpp:165] Memory required for data: 60042240
I0805 08:57:48.355862   601 layer_factory.hpp:77] Creating layer pool2
I0805 08:57:48.355890   601 net.cpp:106] Creating Layer pool2
I0805 08:57:48.355895   601 net.cpp:454] pool2 <- norm2
I0805 08:57:48.355904   601 net.cpp:411] pool2 -> pool2
I0805 08:57:48.355957   601 net.cpp:150] Setting up pool2
I0805 08:57:48.355967   601 net.cpp:157] Top shape: 10 256 13 13 (432640)
I0805 08:57:48.355970   601 net.cpp:165] Memory required for data: 61772800
I0805 08:57:48.355975   601 layer_factory.hpp:77] Creating layer conv3
I0805 08:57:48.356007   601 net.cpp:106] Creating Layer conv3
I0805 08:57:48.356014   601 net.cpp:454] conv3 <- pool2
I0805 08:57:48.356020   601 net.cpp:411] conv3 -> conv3
I0805 08:57:48.370419   601 net.cpp:150] Setting up conv3
I0805 08:57:48.370546   601 net.cpp:157] Top shape: 10 384 13 13 (648960)
I0805 08:57:48.370553   601 net.cpp:165] Memory required for data: 64368640
I0805 08:57:48.370595   601 layer_factory.hpp:77] Creating layer relu3
I0805 08:57:48.370628   601 net.cpp:106] Creating Layer relu3
I0805 08:57:48.370638   601 net.cpp:454] relu3 <- conv3
I0805 08:57:48.370652   601 net.cpp:397] relu3 -> conv3 (in-place)
I0805 08:57:48.370890   601 net.cpp:150] Setting up relu3
I0805 08:57:48.370903   601 net.cpp:157] Top shape: 10 384 13 13 (648960)
I0805 08:57:48.370908   601 net.cpp:165] Memory required for data: 66964480
I0805 08:57:48.370913   601 layer_factory.hpp:77] Creating layer conv4
I0805 08:57:48.370939   601 net.cpp:106] Creating Layer conv4
I0805 08:57:48.370945   601 net.cpp:454] conv4 <- conv3
I0805 08:57:48.370955   601 net.cpp:411] conv4 -> conv4
I0805 08:57:48.383224   601 net.cpp:150] Setting up conv4
I0805 08:57:48.383353   601 net.cpp:157] Top shape: 10 384 13 13 (648960)
I0805 08:57:48.383359   601 net.cpp:165] Memory required for data: 69560320
I0805 08:57:48.383378   601 layer_factory.hpp:77] Creating layer relu4
I0805 08:57:48.383406   601 net.cpp:106] Creating Layer relu4
I0805 08:57:48.383415   601 net.cpp:454] relu4 <- conv4
I0805 08:57:48.383430   601 net.cpp:397] relu4 -> conv4 (in-place)
I0805 08:57:48.383651   601 net.cpp:150] Setting up relu4
I0805 08:57:48.383664   601 net.cpp:157] Top shape: 10 384 13 13 (648960)
I0805 08:57:48.383669   601 net.cpp:165] Memory required for data: 72156160
I0805 08:57:48.383674   601 layer_factory.hpp:77] Creating layer conv5
I0805 08:57:48.383702   601 net.cpp:106] Creating Layer conv5
I0805 08:57:48.383708   601 net.cpp:454] conv5 <- conv4
I0805 08:57:48.383718   601 net.cpp:411] conv5 -> conv5
I0805 08:57:48.392647   601 net.cpp:150] Setting up conv5
I0805 08:57:48.392761   601 net.cpp:157] Top shape: 10 256 13 13 (432640)
I0805 08:57:48.392767   601 net.cpp:165] Memory required for data: 73886720
I0805 08:57:48.392807   601 layer_factory.hpp:77] Creating layer relu5
I0805 08:57:48.392835   601 net.cpp:106] Creating Layer relu5
I0805 08:57:48.392844   601 net.cpp:454] relu5 <- conv5
I0805 08:57:48.392858   601 net.cpp:397] relu5 -> conv5 (in-place)
I0805 08:57:48.393331   601 net.cpp:150] Setting up relu5
I0805 08:57:48.393344   601 net.cpp:157] Top shape: 10 256 13 13 (432640)
I0805 08:57:48.393349   601 net.cpp:165] Memory required for data: 75617280
I0805 08:57:48.393354   601 layer_factory.hpp:77] Creating layer pool5
I0805 08:57:48.393369   601 net.cpp:106] Creating Layer pool5
I0805 08:57:48.393374   601 net.cpp:454] pool5 <- conv5
I0805 08:57:48.393381   601 net.cpp:411] pool5 -> pool5
I0805 08:57:48.393455   601 net.cpp:150] Setting up pool5
I0805 08:57:48.393465   601 net.cpp:157] Top shape: 10 256 6 6 (92160)
I0805 08:57:48.393468   601 net.cpp:165] Memory required for data: 75985920
I0805 08:57:48.393472   601 layer_factory.hpp:77] Creating layer fc6
I0805 08:57:48.393504   601 net.cpp:106] Creating Layer fc6
I0805 08:57:48.393509   601 net.cpp:454] fc6 <- pool5
I0805 08:57:48.393519   601 net.cpp:411] fc6 -> fc6
I0805 08:57:48.905542   601 net.cpp:150] Setting up fc6
I0805 08:57:48.905601   601 net.cpp:157] Top shape: 10 4096 (40960)
I0805 08:57:48.905607   601 net.cpp:165] Memory required for data: 76149760
I0805 08:57:48.905622   601 layer_factory.hpp:77] Creating layer relu6
I0805 08:57:48.905655   601 net.cpp:106] Creating Layer relu6
I0805 08:57:48.905663   601 net.cpp:454] relu6 <- fc6
I0805 08:57:48.905673   601 net.cpp:397] relu6 -> fc6 (in-place)
I0805 08:57:48.906188   601 net.cpp:150] Setting up relu6
I0805 08:57:48.906203   601 net.cpp:157] Top shape: 10 4096 (40960)
I0805 08:57:48.906208   601 net.cpp:165] Memory required for data: 76313600
I0805 08:57:48.906213   601 layer_factory.hpp:77] Creating layer drop6
I0805 08:57:48.906225   601 net.cpp:106] Creating Layer drop6
I0805 08:57:48.906230   601 net.cpp:454] drop6 <- fc6
I0805 08:57:48.906239   601 net.cpp:397] drop6 -> fc6 (in-place)
I0805 08:57:48.906277   601 net.cpp:150] Setting up drop6
I0805 08:57:48.906288   601 net.cpp:157] Top shape: 10 4096 (40960)
I0805 08:57:48.906293   601 net.cpp:165] Memory required for data: 76477440
I0805 08:57:48.906302   601 layer_factory.hpp:77] Creating layer fc7
I0805 08:57:48.906314   601 net.cpp:106] Creating Layer fc7
I0805 08:57:48.906319   601 net.cpp:454] fc7 <- fc6
I0805 08:57:48.906332   601 net.cpp:411] fc7 -> fc7
I0805 08:57:49.134475   601 net.cpp:150] Setting up fc7
I0805 08:57:49.134557   601 net.cpp:157] Top shape: 10 4096 (40960)
I0805 08:57:49.134563   601 net.cpp:165] Memory required for data: 76641280
I0805 08:57:49.134580   601 layer_factory.hpp:77] Creating layer relu7
I0805 08:57:49.134605   601 net.cpp:106] Creating Layer relu7
I0805 08:57:49.134613   601 net.cpp:454] relu7 <- fc7
I0805 08:57:49.134625   601 net.cpp:397] relu7 -> fc7 (in-place)
I0805 08:57:49.134905   601 net.cpp:150] Setting up relu7
I0805 08:57:49.134919   601 net.cpp:157] Top shape: 10 4096 (40960)
I0805 08:57:49.134923   601 net.cpp:165] Memory required for data: 76805120
I0805 08:57:49.134928   601 layer_factory.hpp:77] Creating layer drop7
I0805 08:57:49.134941   601 net.cpp:106] Creating Layer drop7
I0805 08:57:49.134946   601 net.cpp:454] drop7 <- fc7
I0805 08:57:49.134955   601 net.cpp:397] drop7 -> fc7 (in-place)
I0805 08:57:49.134992   601 net.cpp:150] Setting up drop7
I0805 08:57:49.135002   601 net.cpp:157] Top shape: 10 4096 (40960)
I0805 08:57:49.135006   601 net.cpp:165] Memory required for data: 76968960
I0805 08:57:49.135011   601 layer_factory.hpp:77] Creating layer fc8_occlusion
I0805 08:57:49.135025   601 net.cpp:106] Creating Layer fc8_occlusion
I0805 08:57:49.135030   601 net.cpp:454] fc8_occlusion <- fc7
I0805 08:57:49.135038   601 net.cpp:411] fc8_occlusion -> fc8_occlusion
I0805 08:57:49.136965   601 net.cpp:150] Setting up fc8_occlusion
I0805 08:57:49.136981   601 net.cpp:157] Top shape: 10 20 (200)
I0805 08:57:49.136986   601 net.cpp:165] Memory required for data: 76969760
I0805 08:57:49.136994   601 layer_factory.hpp:77] Creating layer prob
I0805 08:57:49.137006   601 net.cpp:106] Creating Layer prob
I0805 08:57:49.137012   601 net.cpp:454] prob <- fc8_occlusion
I0805 08:57:49.137019   601 net.cpp:411] prob -> prob
I0805 08:57:49.137442   601 net.cpp:150] Setting up prob
I0805 08:57:49.137459   601 net.cpp:157] Top shape: 10 20 (200)
I0805 08:57:49.137464   601 net.cpp:165] Memory required for data: 76970560
I0805 08:57:49.137470   601 net.cpp:228] prob does not need backward computation.
I0805 08:57:49.137475   601 net.cpp:228] fc8_occlusion does not need backward computation.
I0805 08:57:49.137480   601 net.cpp:228] drop7 does not need backward computation.
I0805 08:57:49.137483   601 net.cpp:228] relu7 does not need backward computation.
…
