discarding /home/haow3/miniconda2/bin from PATH
prepending /home/haow3/miniconda2/envs/cafferc3/bin to PATH
WARNING: Logging before InitGoogleLogging() is written to STDERR
I0805 08:57:53.957675 21166 net.cpp:49] Initializing net from parameters: 
name: "AlexNetOcclusion"
input: "data"
state {
  phase: TEST
}
input_shape {
  dim: 10
  dim: 3
  dim: 227
  dim: 227
}
layer {
  name: "conv1"
  type: "Convolution"
  bottom: "data"
  top: "conv1"
  param {
    lr_mult: 0
    decay_mult: 1
  }
  param {
    lr_mult: 0
    decay_mult: 0
  }
  convolution_param {
    num_output: 96
    kernel_size: 11
    stride: 4
    weight_filler {
      type: "gaussian"
      std: 0.01
    }
    bias_filler {
      type: "constant"
      value: 0
    }
  }
}
layer {
  name: "relu1"
  type: "ReLU"
  bottom: "conv1"
  top: "conv1"
}
layer {
  name: "norm1"
  type: "LRN"
  bottom: "conv1"
  top: "norm1"
  lrn_param {
    local_size: 5
    alpha: 0.0001
    beta: 0.75
  }
}
layer {
  name: "pool1"
  type: "Pooling"
  bottom: "norm1"
  top: "pool1"
  pooling_param {
    pool: MAX
    kernel_size: 3
    stride: 2
  }
}
layer {
  name: "conv2"
  type: "Convolution"
  bottom: "pool1"
  top: "conv2"
  param {
    lr_mult: 0
    decay_mult: 1
  }
  param {
    lr_mult: 0
    decay_mult: 0
  }
  convolution_param {
    num_output: 256
    pad: 2
    kernel_size: 5
    group: 2
    weight_filler {
      type: "gaussian"
      std: 0.01
    }
    bias_filler {
      type: "constant"
      value: 0.1
    }
  }
}
layer {
  name: "relu2"
  type: "ReLU"
  bottom: "conv2"
  top: "conv2"
}
layer {
  name: "norm2"
  type: "LRN"
  bottom: "conv2"
  top: "norm2"
  lrn_param {
    local_size: 5
    alpha: 0.0001
    beta: 0.75
  }
}
layer {
  name: "pool2"
  type: "Pooling"
  bottom: "norm2"
  top: "pool2"
  pooling_param {
    pool: MAX
    kernel_size: 3
    stride: 2
  }
}
layer {
  name: "conv3"
  type: "Convolution"
  bottom: "pool2"
  top: "conv3"
  param {
    lr_mult: 0
    decay_mult: 1
  }
  param {
    lr_mult: 0
    decay_mult: 0
  }
  convolution_param {
    num_output: 384
    pad: 1
    kernel_size: 3
    weight_filler {
      type: "gaussian"
      std: 0.01
    }
    bias_filler {
      type: "constant"
      value: 0
    }
  }
}
layer {
  name: "relu3"
  type: "ReLU"
  bottom: "conv3"
  top: "conv3"
}
layer {
  name: "conv4"
  type: "Convolution"
  bottom: "conv3"
  top: "conv4"
  param {
    lr_mult: 0
    decay_mult: 1
  }
  param {
    lr_mult: 0
    decay_mult: 0
  }
  convolution_param {
    num_output: 384
    pad: 1
    kernel_size: 3
    group: 2
    weight_filler {
      type: "gaussian"
      std: 0.01
    }
    bias_filler {
      type: "constant"
      value: 0.1
    }
  }
}
layer {
  name: "relu4"
  type: "ReLU"
  bottom: "conv4"
  top: "conv4"
}
layer {
  name: "conv5"
  type: "Convolution"
  bottom: "conv4"
  top: "conv5"
  param {
    lr_mult: 0
    decay_mult: 1
  }
  param {
    lr_mult: 0
    decay_mult: 0
  }
  convolution_param {
    num_output: 256
    pad: 1
    kernel_size: 3
    group: 2
    weight_filler {
      type: "gaussian"
      std: 0.01
    }
    bias_filler {
      type: "constant"
      value: 0.1
    }
  }
}
layer {
  name: "relu5"
  type: "ReLU"
  bottom: "conv5"
  top: "conv5"
}
layer {
  name: "pool5"
  type: "Pooling"
  bottom: "conv5"
  top: "pool5"
  pooling_param {
    pool: MAX
    kernel_size: 3
    stride: 2
  }
}
layer {
  name: "fc6"
  type: "InnerProduct"
  bottom: "pool5"
  top: "fc6"
  param {
    lr_mult: 0
    decay_mult: 1
  }
  param {
    lr_mult: 0
    decay_mult: 0
  }
  inner_product_param {
    num_output: 4096
    weight_filler {
      type: "gaussian"
      std: 0.005
    }
    bias_filler {
      type: "constant"
      value: 0.1
    }
  }
}
layer {
  name: "relu6"
  type: "ReLU"
  bottom: "fc6"
  top: "fc6"
}
layer {
  name: "drop6"
  type: "Dropout"
  bottom: "fc6"
  top: "fc6"
  dropout_param {
    dropout_ratio: 0.5
  }
}
layer {
  name: "fc7"
  type: "InnerProduct"
  bottom: "fc6"
  top: "fc7"
  param {
    lr_mult: 0
    decay_mult: 1
  }
  param {
    lr_mult: 0
    decay_mult: 0
  }
  inner_product_param {
    num_output: 4096
    weight_filler {
      type: "gaussian"
      std: 0.005
    }
    bias_filler {
      type: "constant"
      value: 0.1
    }
  }
}
layer {
  name: "relu7"
  type: "ReLU"
  bottom: "fc7"
  top: "fc7"
}
layer {
  name: "drop7"
  type: "Dropout"
  bottom: "fc7"
  top: "fc7"
  dropout_param {
    dropout_ratio: 0.5
  }
}
layer {
  name: "fc8_occlusion"
  type: "InnerProduct"
  bottom: "fc7"
  top: "fc8_occlusion"
  param {
    lr_mult: 1
    decay_mult: 1
  }
  param {
    lr_mult: 2
    decay_mult: 0
  }
  inner_product_param {
    num_output: 20
    weight_filler {
      type: "gaussian"
      std: 0.01
    }
    bias_filler {
      type: "constant"
      value: 0
    }
  }
}
layer {
  name: "prob"
  type: "Softmax"
  bottom: "fc8_occlusion"
  top: "prob"
}
I0805 08:57:53.957818 21166 net.cpp:413] Input 0 -> data
I0805 08:57:53.968111 21166 layer_factory.hpp:77] Creating layer conv1
I0805 08:57:53.968174 21166 net.cpp:106] Creating Layer conv1
I0805 08:57:53.968183 21166 net.cpp:454] conv1 <- data
I0805 08:57:53.968190 21166 net.cpp:411] conv1 -> conv1
I0805 08:57:54.223757 21166 net.cpp:150] Setting up conv1
I0805 08:57:54.223791 21166 net.cpp:157] Top shape: 10 96 55 55 (2904000)
I0805 08:57:54.223796 21166 net.cpp:165] Memory required for data: 11616000
I0805 08:57:54.223815 21166 layer_factory.hpp:77] Creating layer relu1
I0805 08:57:54.223829 21166 net.cpp:106] Creating Layer relu1
I0805 08:57:54.223834 21166 net.cpp:454] relu1 <- conv1
I0805 08:57:54.223840 21166 net.cpp:397] relu1 -> conv1 (in-place)
I0805 08:57:54.224128 21166 net.cpp:150] Setting up relu1
I0805 08:57:54.224141 21166 net.cpp:157] Top shape: 10 96 55 55 (2904000)
I0805 08:57:54.224145 21166 net.cpp:165] Memory required for data: 23232000
I0805 08:57:54.224150 21166 layer_factory.hpp:77] Creating layer norm1
I0805 08:57:54.224161 21166 net.cpp:106] Creating Layer norm1
I0805 08:57:54.224165 21166 net.cpp:454] norm1 <- conv1
I0805 08:57:54.224172 21166 net.cpp:411] norm1 -> norm1
I0805 08:57:54.224370 21166 net.cpp:150] Setting up norm1
I0805 08:57:54.224378 21166 net.cpp:157] Top shape: 10 96 55 55 (2904000)
I0805 08:57:54.224381 21166 net.cpp:165] Memory required for data: 34848000
I0805 08:57:54.224385 21166 layer_factory.hpp:77] Creating layer pool1
I0805 08:57:54.224393 21166 net.cpp:106] Creating Layer pool1
I0805 08:57:54.224397 21166 net.cpp:454] pool1 <- norm1
I0805 08:57:54.224402 21166 net.cpp:411] pool1 -> pool1
I0805 08:57:54.224438 21166 net.cpp:150] Setting up pool1
I0805 08:57:54.224444 21166 net.cpp:157] Top shape: 10 96 27 27 (699840)
I0805 08:57:54.224447 21166 net.cpp:165] Memory required for data: 37647360
I0805 08:57:54.224452 21166 layer_factory.hpp:77] Creating layer conv2
I0805 08:57:54.224464 21166 net.cpp:106] Creating Layer conv2
I0805 08:57:54.224468 21166 net.cpp:454] conv2 <- pool1
I0805 08:57:54.224474 21166 net.cpp:411] conv2 -> conv2
I0805 08:57:54.231144 21166 net.cpp:150] Setting up conv2
I0805 08:57:54.231201 21166 net.cpp:157] Top shape: 10 256 27 27 (1866240)
I0805 08:57:54.231207 21166 net.cpp:165] Memory required for data: 45112320
I0805 08:57:54.231231 21166 layer_factory.hpp:77] Creating layer relu2
I0805 08:57:54.231250 21166 net.cpp:106] Creating Layer relu2
I0805 08:57:54.231256 21166 net.cpp:454] relu2 <- conv2
I0805 08:57:54.231263 21166 net.cpp:397] relu2 -> conv2 (in-place)
I0805 08:57:54.231557 21166 net.cpp:150] Setting up relu2
I0805 08:57:54.231582 21166 net.cpp:157] Top shape: 10 256 27 27 (1866240)
I0805 08:57:54.231586 21166 net.cpp:165] Memory required for data: 52577280
I0805 08:57:54.231591 21166 layer_factory.hpp:77] Creating layer norm2
I0805 08:57:54.231604 21166 net.cpp:106] Creating Layer norm2
I0805 08:57:54.231611 21166 net.cpp:454] norm2 <- conv2
I0805 08:57:54.231619 21166 net.cpp:411] norm2 -> norm2
I0805 08:57:54.232130 21166 net.cpp:150] Setting up norm2
I0805 08:57:54.232156 21166 net.cpp:157] Top shape: 10 256 27 27 (1866240)
I0805 08:57:54.232161 21166 net.cpp:165] Memory required for data: 60042240
I0805 08:57:54.232166 21166 layer_factory.hpp:77] Creating layer pool2
I0805 08:57:54.232190 21166 net.cpp:106] Creating Layer pool2
I0805 08:57:54.232195 21166 net.cpp:454] pool2 <- norm2
I0805 08:57:54.232203 21166 net.cpp:411] pool2 -> pool2
I0805 08:57:54.232249 21166 net.cpp:150] Setting up pool2
I0805 08:57:54.232255 21166 net.cpp:157] Top shape: 10 256 13 13 (432640)
I0805 08:57:54.232259 21166 net.cpp:165] Memory required for data: 61772800
I0805 08:57:54.232261 21166 layer_factory.hpp:77] Creating layer conv3
I0805 08:57:54.232277 21166 net.cpp:106] Creating Layer conv3
I0805 08:57:54.232281 21166 net.cpp:454] conv3 <- pool2
I0805 08:57:54.232288 21166 net.cpp:411] conv3 -> conv3
I0805 08:57:54.245844 21166 net.cpp:150] Setting up conv3
I0805 08:57:54.245901 21166 net.cpp:157] Top shape: 10 384 13 13 (648960)
I0805 08:57:54.245906 21166 net.cpp:165] Memory required for data: 64368640
I0805 08:57:54.245929 21166 layer_factory.hpp:77] Creating layer relu3
I0805 08:57:54.245944 21166 net.cpp:106] Creating Layer relu3
I0805 08:57:54.245949 21166 net.cpp:454] relu3 <- conv3
I0805 08:57:54.245957 21166 net.cpp:397] relu3 -> conv3 (in-place)
I0805 08:57:54.246213 21166 net.cpp:150] Setting up relu3
I0805 08:57:54.246233 21166 net.cpp:157] Top shape: 10 384 13 13 (648960)
I0805 08:57:54.246237 21166 net.cpp:165] Memory required for data: 66964480
I0805 08:57:54.246243 21166 layer_factory.hpp:77] Creating layer conv4
I0805 08:57:54.246260 21166 net.cpp:106] Creating Layer conv4
I0805 08:57:54.246265 21166 net.cpp:454] conv4 <- conv3
I0805 08:57:54.246273 21166 net.cpp:411] conv4 -> conv4
I0805 08:57:54.263272 21166 net.cpp:150] Setting up conv4
I0805 08:57:54.263339 21166 net.cpp:157] Top shape: 10 384 13 13 (648960)
I0805 08:57:54.263345 21166 net.cpp:165] Memory required for data: 69560320
I0805 08:57:54.263355 21166 layer_factory.hpp:77] Creating layer relu4
I0805 08:57:54.263368 21166 net.cpp:106] Creating Layer relu4
I0805 08:57:54.263375 21166 net.cpp:454] relu4 <- conv4
I0805 08:57:54.263382 21166 net.cpp:397] relu4 -> conv4 (in-place)
I0805 08:57:54.264405 21166 net.cpp:150] Setting up relu4
I0805 08:57:54.264420 21166 net.cpp:157] Top shape: 10 384 13 13 (648960)
I0805 08:57:54.264422 21166 net.cpp:165] Memory required for data: 72156160
I0805 08:57:54.264427 21166 layer_factory.hpp:77] Creating layer conv5
I0805 08:57:54.264442 21166 net.cpp:106] Creating Layer conv5
I0805 08:57:54.264446 21166 net.cpp:454] conv5 <- conv4
I0805 08:57:54.264454 21166 net.cpp:411] conv5 -> conv5
I0805 08:57:54.274655 21166 net.cpp:150] Setting up conv5
I0805 08:57:54.274691 21166 net.cpp:157] Top shape: 10 256 13 13 (432640)
I0805 08:57:54.274696 21166 net.cpp:165] Memory required for data: 73886720
I0805 08:57:54.274713 21166 layer_factory.hpp:77] Creating layer relu5
I0805 08:57:54.274724 21166 net.cpp:106] Creating Layer relu5
I0805 08:57:54.274729 21166 net.cpp:454] relu5 <- conv5
I0805 08:57:54.274737 21166 net.cpp:397] relu5 -> conv5 (in-place)
I0805 08:57:54.274945 21166 net.cpp:150] Setting up relu5
I0805 08:57:54.274958 21166 net.cpp:157] Top shape: 10 256 13 13 (432640)
I0805 08:57:54.274962 21166 net.cpp:165] Memory required for data: 75617280
I0805 08:57:54.274966 21166 layer_factory.hpp:77] Creating layer pool5
I0805 08:57:54.274986 21166 net.cpp:106] Creating Layer pool5
I0805 08:57:54.274989 21166 net.cpp:454] pool5 <- conv5
I0805 08:57:54.274996 21166 net.cpp:411] pool5 -> pool5
I0805 08:57:54.275048 21166 net.cpp:150] Setting up pool5
I0805 08:57:54.275055 21166 net.cpp:157] Top shape: 10 256 6 6 (92160)
I0805 08:57:54.275059 21166 net.cpp:165] Memory required for data: 75985920
I0805 08:57:54.275063 21166 layer_factory.hpp:77] Creating layer fc6
I0805 08:57:54.275079 21166 net.cpp:106] Creating Layer fc6
I0805 08:57:54.275082 21166 net.cpp:454] fc6 <- pool5
I0805 08:57:54.275087 21166 net.cpp:411] fc6 -> fc6
I0805 08:57:54.711261 21166 net.cpp:150] Setting up fc6
I0805 08:57:54.711299 21166 net.cpp:157] Top shape: 10 4096 (40960)
I0805 08:57:54.711302 21166 net.cpp:165] Memory required for data: 76149760
I0805 08:57:54.711313 21166 layer_factory.hpp:77] Creating layer relu6
I0805 08:57:54.711334 21166 net.cpp:106] Creating Layer relu6
I0805 08:57:54.711339 21166 net.cpp:454] relu6 <- fc6
I0805 08:57:54.711345 21166 net.cpp:397] relu6 -> fc6 (in-place)
I0805 08:57:54.711750 21166 net.cpp:150] Setting up relu6
I0805 08:57:54.711761 21166 net.cpp:157] Top shape: 10 4096 (40960)
I0805 08:57:54.711765 21166 net.cpp:165] Memory required for data: 76313600
I0805 08:57:54.711767 21166 layer_factory.hpp:77] Creating layer drop6
I0805 08:57:54.711776 21166 net.cpp:106] Creating Layer drop6
I0805 08:57:54.711781 21166 net.cpp:454] drop6 <- fc6
I0805 08:57:54.711784 21166 net.cpp:397] drop6 -> fc6 (in-place)
I0805 08:57:54.711812 21166 net.cpp:150] Setting up drop6
I0805 08:57:54.711818 21166 net.cpp:157] Top shape: 10 4096 (40960)
I0805 08:57:54.711822 21166 net.cpp:165] Memory required for data: 76477440
I0805 08:57:54.711824 21166 layer_factory.hpp:77] Creating layer fc7
I0805 08:57:54.711832 21166 net.cpp:106] Creating Layer fc7
I0805 08:57:54.711834 21166 net.cpp:454] fc7 <- fc6
I0805 08:57:54.711840 21166 net.cpp:411] fc7 -> fc7
I0805 08:57:54.906652 21166 net.cpp:150] Setting up fc7
I0805 08:57:54.906702 21166 net.cpp:157] Top shape: 10 4096 (40960)
I0805 08:57:54.906705 21166 net.cpp:165] Memory required for data: 76641280
I0805 08:57:54.906716 21166 layer_factory.hpp:77] Creating layer relu7
I0805 08:57:54.906728 21166 net.cpp:106] Creating Layer relu7
I0805 08:57:54.906734 21166 net.cpp:454] relu7 <- fc7
I0805 08:57:54.906744 21166 net.cpp:397] relu7 -> fc7 (in-place)
I0805 08:57:54.907026 21166 net.cpp:150] Setting up relu7
I0805 08:57:54.907039 21166 net.cpp:157] Top shape: 10 4096 (40960)
I0805 08:57:54.907043 21166 net.cpp:165] Memory required for data: 76805120
I0805 08:57:54.907047 21166 layer_factory.hpp:77] Creating layer drop7
I0805 08:57:54.907057 21166 net.cpp:106] Creating Layer drop7
I0805 08:57:54.907060 21166 net.cpp:454] drop7 <- fc7
I0805 08:57:54.907065 21166 net.cpp:397] drop7 -> fc7 (in-place)
I0805 08:57:54.907099 21166 net.cpp:150] Setting up drop7
I0805 08:57:54.907106 21166 net.cpp:157] Top shape: 10 4096 (40960)
I0805 08:57:54.907109 21166 net.cpp:165] Memory required for data: 76968960
I0805 08:57:54.907112 21166 layer_factory.hpp:77] Creating layer fc8_occlusion
I0805 08:57:54.907124 21166 net.cpp:106] Creating Layer fc8_occlusion
I0805 08:57:54.907126 21166 net.cpp:454] fc8_occlusion <- fc7
I0805 08:57:54.907132 21166 net.cpp:411] fc8_occlusion -> fc8_occlusion
I0805 08:57:54.909077 21166 net.cpp:150] Setting up fc8_occlusion
I0805 08:57:54.909123 21166 net.cpp:157] Top shape: 10 20 (200)
I0805 08:57:54.909127 21166 net.cpp:165] Memory required for data: 76969760
I0805 08:57:54.909138 21166 layer_factory.hpp:77] Creating layer prob
I0805 08:57:54.909153 21166 net.cpp:106] Creating Layer prob
I0805 08:57:54.909159 21166 net.cpp:454] prob <- fc8_occlusion
I0805 08:57:54.909168 21166 net.cpp:411] prob -> prob
I0805 08:57:54.909767 21166 net.cpp:150] Setting up prob
I0805 08:57:54.909800 21166 net.cpp:157] Top shape: 10 20 (200)
I0805 08:57:54.909802 21166 net.cpp:165] Memory required for data: 76970560
I0805 08:57:54.909808 21166 net.cpp:228] prob does not need backward computation.
I0805 08:57:54.909814 21166 net.cpp:228] fc8_occlusion does not need backward computation.
I0805 08:57:54.909818 21166 net.cpp:228] drop7 does not need backward computation.
I0805 08:57:54.909822 21166 net.cpp:228] relu7 does not need backward computation.
…
