discarding /home/haow3/miniconda2/bin from PATH
prepending /home/haow3/miniconda2/envs/cafferc3/bin to PATH
WARNING: Logging before InitGoogleLogging() is written to STDERR
I0805 08:58:15.419220 21608 net.cpp:49] Initializing net from parameters: 
name: "AlexNetOcclusion"
input: "data"
state {
  phase: TEST
}
input_shape {
  dim: 10
  dim: 3
  dim: 227
  dim: 227
}
layer {
  name: "conv1"
  type: "Convolution"
  bottom: "data"
  top: "conv1"
  param {
    lr_mult: 0
    decay_mult: 1
  }
  param {
    lr_mult: 0
    decay_mult: 0
  }
  convolution_param {
    num_output: 96
    kernel_size: 11
    stride: 4
    weight_filler {
      type: "gaussian"
      std: 0.01
    }
    bias_filler {
      type: "constant"
      value: 0
    }
  }
}
layer {
  name: "relu1"
  type: "ReLU"
  bottom: "conv1"
  top: "conv1"
}
layer {
  name: "norm1"
  type: "LRN"
  bottom: "conv1"
  top: "norm1"
  lrn_param {
    local_size: 5
    alpha: 0.0001
    beta: 0.75
  }
}
layer {
  name: "pool1"
  type: "Pooling"
  bottom: "norm1"
  top: "pool1"
  pooling_param {
    pool: MAX
    kernel_size: 3
    stride: 2
  }
}
layer {
  name: "conv2"
  type: "Convolution"
  bottom: "pool1"
  top: "conv2"
  param {
    lr_mult: 0
    decay_mult: 1
  }
  param {
    lr_mult: 0
    decay_mult: 0
  }
  convolution_param {
    num_output: 256
    pad: 2
    kernel_size: 5
    group: 2
    weight_filler {
      type: "gaussian"
      std: 0.01
    }
    bias_filler {
      type: "constant"
      value: 0.1
    }
  }
}
layer {
  name: "relu2"
  type: "ReLU"
  bottom: "conv2"
  top: "conv2"
}
layer {
  name: "norm2"
  type: "LRN"
  bottom: "conv2"
  top: "norm2"
  lrn_param {
    local_size: 5
    alpha: 0.0001
    beta: 0.75
  }
}
layer {
  name: "pool2"
  type: "Pooling"
  bottom: "norm2"
  top: "pool2"
  pooling_param {
    pool: MAX
    kernel_size: 3
    stride: 2
  }
}
layer {
  name: "conv3"
  type: "Convolution"
  bottom: "pool2"
  top: "conv3"
  param {
    lr_mult: 0
    decay_mult: 1
  }
  param {
    lr_mult: 0
    decay_mult: 0
  }
  convolution_param {
    num_output: 384
    pad: 1
    kernel_size: 3
    weight_filler {
      type: "gaussian"
      std: 0.01
    }
    bias_filler {
      type: "constant"
      value: 0
    }
  }
}
layer {
  name: "relu3"
  type: "ReLU"
  bottom: "conv3"
  top: "conv3"
}
layer {
  name: "conv4"
  type: "Convolution"
  bottom: "conv3"
  top: "conv4"
  param {
    lr_mult: 0
    decay_mult: 1
  }
  param {
    lr_mult: 0
    decay_mult: 0
  }
  convolution_param {
    num_output: 384
    pad: 1
    kernel_size: 3
    group: 2
    weight_filler {
      type: "gaussian"
      std: 0.01
    }
    bias_filler {
      type: "constant"
      value: 0.1
    }
  }
}
layer {
  name: "relu4"
  type: "ReLU"
  bottom: "conv4"
  top: "conv4"
}
layer {
  name: "conv5"
  type: "Convolution"
  bottom: "conv4"
  top: "conv5"
  param {
    lr_mult: 0
    decay_mult: 1
  }
  param {
    lr_mult: 0
    decay_mult: 0
  }
  convolution_param {
    num_output: 256
    pad: 1
    kernel_size: 3
    group: 2
    weight_filler {
      type: "gaussian"
      std: 0.01
    }
    bias_filler {
      type: "constant"
      value: 0.1
    }
  }
}
layer {
  name: "relu5"
  type: "ReLU"
  bottom: "conv5"
  top: "conv5"
}
layer {
  name: "pool5"
  type: "Pooling"
  bottom: "conv5"
  top: "pool5"
  pooling_param {
    pool: MAX
    kernel_size: 3
    stride: 2
  }
}
layer {
  name: "fc6"
  type: "InnerProduct"
  bottom: "pool5"
  top: "fc6"
  param {
    lr_mult: 0
    decay_mult: 1
  }
  param {
    lr_mult: 0
    decay_mult: 0
  }
  inner_product_param {
    num_output: 4096
    weight_filler {
      type: "gaussian"
      std: 0.005
    }
    bias_filler {
      type: "constant"
      value: 0.1
    }
  }
}
layer {
  name: "relu6"
  type: "ReLU"
  bottom: "fc6"
  top: "fc6"
}
layer {
  name: "drop6"
  type: "Dropout"
  bottom: "fc6"
  top: "fc6"
  dropout_param {
    dropout_ratio: 0.5
  }
}
layer {
  name: "fc7"
  type: "InnerProduct"
  bottom: "fc6"
  top: "fc7"
  param {
    lr_mult: 0
    decay_mult: 1
  }
  param {
    lr_mult: 0
    decay_mult: 0
  }
  inner_product_param {
    num_output: 4096
    weight_filler {
      type: "gaussian"
      std: 0.005
    }
    bias_filler {
      type: "constant"
      value: 0.1
    }
  }
}
layer {
  name: "relu7"
  type: "ReLU"
  bottom: "fc7"
  top: "fc7"
}
layer {
  name: "drop7"
  type: "Dropout"
  bottom: "fc7"
  top: "fc7"
  dropout_param {
    dropout_ratio: 0.5
  }
}
layer {
  name: "fc8_occlusion"
  type: "InnerProduct"
  bottom: "fc7"
  top: "fc8_occlusion"
  param {
    lr_mult: 1
    decay_mult: 1
  }
  param {
    lr_mult: 2
    decay_mult: 0
  }
  inner_product_param {
    num_output: 20
    weight_filler {
      type: "gaussian"
      std: 0.01
    }
    bias_filler {
      type: "constant"
      value: 0
    }
  }
}
layer {
  name: "prob"
  type: "Softmax"
  bottom: "fc8_occlusion"
  top: "prob"
}
I0805 08:58:15.420364 21608 net.cpp:413] Input 0 -> data
I0805 08:58:15.497550 21608 layer_factory.hpp:77] Creating layer conv1
I0805 08:58:15.497735 21608 net.cpp:106] Creating Layer conv1
I0805 08:58:15.497742 21608 net.cpp:454] conv1 <- data
I0805 08:58:15.497756 21608 net.cpp:411] conv1 -> conv1
I0805 08:58:15.855731 21608 net.cpp:150] Setting up conv1
I0805 08:58:15.855872 21608 net.cpp:157] Top shape: 10 96 55 55 (2904000)
I0805 08:58:15.855880 21608 net.cpp:165] Memory required for data: 11616000
I0805 08:58:15.855928 21608 layer_factory.hpp:77] Creating layer relu1
I0805 08:58:15.855962 21608 net.cpp:106] Creating Layer relu1
I0805 08:58:15.855970 21608 net.cpp:454] relu1 <- conv1
I0805 08:58:15.855979 21608 net.cpp:397] relu1 -> conv1 (in-place)
I0805 08:58:15.856341 21608 net.cpp:150] Setting up relu1
I0805 08:58:15.856367 21608 net.cpp:157] Top shape: 10 96 55 55 (2904000)
I0805 08:58:15.856371 21608 net.cpp:165] Memory required for data: 23232000
I0805 08:58:15.856379 21608 layer_factory.hpp:77] Creating layer norm1
I0805 08:58:15.856396 21608 net.cpp:106] Creating Layer norm1
I0805 08:58:15.856400 21608 net.cpp:454] norm1 <- conv1
I0805 08:58:15.856410 21608 net.cpp:411] norm1 -> norm1
I0805 08:58:15.856616 21608 net.cpp:150] Setting up norm1
I0805 08:58:15.856627 21608 net.cpp:157] Top shape: 10 96 55 55 (2904000)
I0805 08:58:15.856631 21608 net.cpp:165] Memory required for data: 34848000
I0805 08:58:15.856634 21608 layer_factory.hpp:77] Creating layer pool1
I0805 08:58:15.856650 21608 net.cpp:106] Creating Layer pool1
I0805 08:58:15.856654 21608 net.cpp:454] pool1 <- norm1
I0805 08:58:15.856662 21608 net.cpp:411] pool1 -> pool1
I0805 08:58:15.856706 21608 net.cpp:150] Setting up pool1
I0805 08:58:15.856714 21608 net.cpp:157] Top shape: 10 96 27 27 (699840)
I0805 08:58:15.856717 21608 net.cpp:165] Memory required for data: 37647360
I0805 08:58:15.856720 21608 layer_factory.hpp:77] Creating layer conv2
I0805 08:58:15.856744 21608 net.cpp:106] Creating Layer conv2
I0805 08:58:15.856747 21608 net.cpp:454] conv2 <- pool1
I0805 08:58:15.856755 21608 net.cpp:411] conv2 -> conv2
I0805 08:58:15.865896 21608 net.cpp:150] Setting up conv2
I0805 08:58:15.865994 21608 net.cpp:157] Top shape: 10 256 27 27 (1866240)
I0805 08:58:15.865999 21608 net.cpp:165] Memory required for data: 45112320
I0805 08:58:15.866031 21608 layer_factory.hpp:77] Creating layer relu2
I0805 08:58:15.866050 21608 net.cpp:106] Creating Layer relu2
I0805 08:58:15.866056 21608 net.cpp:454] relu2 <- conv2
I0805 08:58:15.866065 21608 net.cpp:397] relu2 -> conv2 (in-place)
I0805 08:58:15.866261 21608 net.cpp:150] Setting up relu2
I0805 08:58:15.866271 21608 net.cpp:157] Top shape: 10 256 27 27 (1866240)
I0805 08:58:15.866276 21608 net.cpp:165] Memory required for data: 52577280
I0805 08:58:15.866284 21608 layer_factory.hpp:77] Creating layer norm2
I0805 08:58:15.866297 21608 net.cpp:106] Creating Layer norm2
I0805 08:58:15.866300 21608 net.cpp:454] norm2 <- conv2
I0805 08:58:15.866307 21608 net.cpp:411] norm2 -> norm2
I0805 08:58:15.867218 21608 net.cpp:150] Setting up norm2
I0805 08:58:15.867236 21608 net.cpp:157] Top shape: 10 256 27 27 (1866240)
I0805 08:58:15.867240 21608 net.cpp:165] Memory required for data: 60042240
I0805 08:58:15.867245 21608 layer_factory.hpp:77] Creating layer pool2
I0805 08:58:15.867286 21608 net.cpp:106] Creating Layer pool2
I0805 08:58:15.867291 21608 net.cpp:454] pool2 <- norm2
I0805 08:58:15.867297 21608 net.cpp:411] pool2 -> pool2
I0805 08:58:15.867344 21608 net.cpp:150] Setting up pool2
I0805 08:58:15.867352 21608 net.cpp:157] Top shape: 10 256 13 13 (432640)
I0805 08:58:15.867354 21608 net.cpp:165] Memory required for data: 61772800
I0805 08:58:15.867358 21608 layer_factory.hpp:77] Creating layer conv3
I0805 08:58:15.867380 21608 net.cpp:106] Creating Layer conv3
I0805 08:58:15.867384 21608 net.cpp:454] conv3 <- pool2
I0805 08:58:15.867390 21608 net.cpp:411] conv3 -> conv3
I0805 08:58:15.882169 21608 net.cpp:150] Setting up conv3
I0805 08:58:15.882465 21608 net.cpp:157] Top shape: 10 384 13 13 (648960)
I0805 08:58:15.882475 21608 net.cpp:165] Memory required for data: 64368640
I0805 08:58:15.882509 21608 layer_factory.hpp:77] Creating layer relu3
I0805 08:58:15.882536 21608 net.cpp:106] Creating Layer relu3
I0805 08:58:15.882544 21608 net.cpp:454] relu3 <- conv3
I0805 08:58:15.882555 21608 net.cpp:397] relu3 -> conv3 (in-place)
I0805 08:58:15.882894 21608 net.cpp:150] Setting up relu3
I0805 08:58:15.882906 21608 net.cpp:157] Top shape: 10 384 13 13 (648960)
I0805 08:58:15.882910 21608 net.cpp:165] Memory required for data: 66964480
I0805 08:58:15.882915 21608 layer_factory.hpp:77] Creating layer conv4
I0805 08:58:15.882936 21608 net.cpp:106] Creating Layer conv4
I0805 08:58:15.882941 21608 net.cpp:454] conv4 <- conv3
I0805 08:58:15.882947 21608 net.cpp:411] conv4 -> conv4
I0805 08:58:15.898895 21608 net.cpp:150] Setting up conv4
I0805 08:58:15.898988 21608 net.cpp:157] Top shape: 10 384 13 13 (648960)
I0805 08:58:15.898993 21608 net.cpp:165] Memory required for data: 69560320
I0805 08:58:15.899011 21608 layer_factory.hpp:77] Creating layer relu4
I0805 08:58:15.899029 21608 net.cpp:106] Creating Layer relu4
I0805 08:58:15.899037 21608 net.cpp:454] relu4 <- conv4
I0805 08:58:15.899050 21608 net.cpp:397] relu4 -> conv4 (in-place)
I0805 08:58:15.900015 21608 net.cpp:150] Setting up relu4
I0805 08:58:15.900048 21608 net.cpp:157] Top shape: 10 384 13 13 (648960)
I0805 08:58:15.900051 21608 net.cpp:165] Memory required for data: 72156160
I0805 08:58:15.900058 21608 layer_factory.hpp:77] Creating layer conv5
I0805 08:58:15.900079 21608 net.cpp:106] Creating Layer conv5
I0805 08:58:15.900084 21608 net.cpp:454] conv5 <- conv4
I0805 08:58:15.900094 21608 net.cpp:411] conv5 -> conv5
I0805 08:58:15.919970 21608 net.cpp:150] Setting up conv5
I0805 08:58:15.920061 21608 net.cpp:157] Top shape: 10 256 13 13 (432640)
I0805 08:58:15.920068 21608 net.cpp:165] Memory required for data: 73886720
I0805 08:58:15.920094 21608 layer_factory.hpp:77] Creating layer relu5
I0805 08:58:15.920110 21608 net.cpp:106] Creating Layer relu5
I0805 08:58:15.920117 21608 net.cpp:454] relu5 <- conv5
I0805 08:58:15.920126 21608 net.cpp:397] relu5 -> conv5 (in-place)
I0805 08:58:15.921366 21608 net.cpp:150] Setting up relu5
I0805 08:58:15.921399 21608 net.cpp:157] Top shape: 10 256 13 13 (432640)
I0805 08:58:15.921403 21608 net.cpp:165] Memory required for data: 75617280
I0805 08:58:15.921408 21608 layer_factory.hpp:77] Creating layer pool5
I0805 08:58:15.921423 21608 net.cpp:106] Creating Layer pool5
I0805 08:58:15.921428 21608 net.cpp:454] pool5 <- conv5
I0805 08:58:15.921438 21608 net.cpp:411] pool5 -> pool5
I0805 08:58:15.921505 21608 net.cpp:150] Setting up pool5
I0805 08:58:15.921514 21608 net.cpp:157] Top shape: 10 256 6 6 (92160)
I0805 08:58:15.921517 21608 net.cpp:165] Memory required for data: 75985920
I0805 08:58:15.921521 21608 layer_factory.hpp:77] Creating layer fc6
I0805 08:58:15.921546 21608 net.cpp:106] Creating Layer fc6
I0805 08:58:15.921551 21608 net.cpp:454] fc6 <- pool5
I0805 08:58:15.921557 21608 net.cpp:411] fc6 -> fc6
I0805 08:58:16.676153 21608 net.cpp:150] Setting up fc6
I0805 08:58:16.676322 21608 net.cpp:157] Top shape: 10 4096 (40960)
I0805 08:58:16.676331 21608 net.cpp:165] Memory required for data: 76149760
I0805 08:58:16.676358 21608 layer_factory.hpp:77] Creating layer relu6
I0805 08:58:16.676435 21608 net.cpp:106] Creating Layer relu6
I0805 08:58:16.676452 21608 net.cpp:454] relu6 <- fc6
I0805 08:58:16.676470 21608 net.cpp:397] relu6 -> fc6 (in-place)
I0805 08:58:16.677485 21608 net.cpp:150] Setting up relu6
I0805 08:58:16.677536 21608 net.cpp:157] Top shape: 10 4096 (40960)
I0805 08:58:16.677542 21608 net.cpp:165] Memory required for data: 76313600
I0805 08:58:16.677552 21608 layer_factory.hpp:77] Creating layer drop6
I0805 08:58:16.677578 21608 net.cpp:106] Creating Layer drop6
I0805 08:58:16.677587 21608 net.cpp:454] drop6 <- fc6
I0805 08:58:16.677606 21608 net.cpp:397] drop6 -> fc6 (in-place)
I0805 08:58:16.677680 21608 net.cpp:150] Setting up drop6
I0805 08:58:16.677690 21608 net.cpp:157] Top shape: 10 4096 (40960)
I0805 08:58:16.677696 21608 net.cpp:165] Memory required for data: 76477440
I0805 08:58:16.677702 21608 layer_factory.hpp:77] Creating layer fc7
I0805 08:58:16.677723 21608 net.cpp:106] Creating Layer fc7
I0805 08:58:16.677731 21608 net.cpp:454] fc7 <- fc6
I0805 08:58:16.677739 21608 net.cpp:411] fc7 -> fc7
I0805 08:58:17.027889 21608 net.cpp:150] Setting up fc7
I0805 08:58:17.028036 21608 net.cpp:157] Top shape: 10 4096 (40960)
I0805 08:58:17.028041 21608 net.cpp:165] Memory required for data: 76641280
I0805 08:58:17.028060 21608 layer_factory.hpp:77] Creating layer relu7
I0805 08:58:17.028082 21608 net.cpp:106] Creating Layer relu7
I0805 08:58:17.028090 21608 net.cpp:454] relu7 <- fc7
I0805 08:58:17.028110 21608 net.cpp:397] relu7 -> fc7 (in-place)
I0805 08:58:17.028375 21608 net.cpp:150] Setting up relu7
I0805 08:58:17.028388 21608 net.cpp:157] Top shape: 10 4096 (40960)
I0805 08:58:17.028393 21608 net.cpp:165] Memory required for data: 76805120
I0805 08:58:17.028396 21608 layer_factory.hpp:77] Creating layer drop7
I0805 08:58:17.028409 21608 net.cpp:106] Creating Layer drop7
I0805 08:58:17.028414 21608 net.cpp:454] drop7 <- fc7
I0805 08:58:17.028420 21608 net.cpp:397] drop7 -> fc7 (in-place)
I0805 08:58:17.028451 21608 net.cpp:150] Setting up drop7
I0805 08:58:17.028458 21608 net.cpp:157] Top shape: 10 4096 (40960)
I0805 08:58:17.028461 21608 net.cpp:165] Memory required for data: 76968960
I0805 08:58:17.028465 21608 layer_factory.hpp:77] Creating layer fc8_occlusion
I0805 08:58:17.028481 21608 net.cpp:106] Creating Layer fc8_occlusion
I0805 08:58:17.028486 21608 net.cpp:454] fc8_occlusion <- fc7
I0805 08:58:17.028492 21608 net.cpp:411] fc8_occlusion -> fc8_occlusion
I0805 08:58:17.030601 21608 net.cpp:150] Setting up fc8_occlusion
I0805 08:58:17.030649 21608 net.cpp:157] Top shape: 10 20 (200)
I0805 08:58:17.030653 21608 net.cpp:165] Memory required for data: 76969760
I0805 08:58:17.030665 21608 layer_factory.hpp:77] Creating layer prob
I0805 08:58:17.030676 21608 net.cpp:106] Creating Layer prob
I0805 08:58:17.030681 21608 net.cpp:454] prob <- fc8_occlusion
I0805 08:58:17.030689 21608 net.cpp:411] prob -> prob
I0805 08:58:17.031203 21608 net.cpp:150] Setting up prob
I0805 08:58:17.031219 21608 net.cpp:157] Top shape: 10 20 (200)
I0805 08:58:17.031222 21608 net.cpp:165] Memory required for data: 76970560
I0805 08:58:17.031229 21608 net.cpp:228] prob does not need backward computation.
I0805 08:58:17.031234 21608 net.cpp:228] fc8_occlusion does not need backward computation.
I0805 08:58:17.031237 21608 net.cpp:228] drop7 does not need backward computation.
I0805 08:58:17.031240 21608 net.cpp:228] relu7 does not need backward computation.
…
