discarding /home/haow3/miniconda2/bin from PATH
prepending /home/haow3/miniconda2/envs/cafferc3/bin to PATH
WARNING: Logging before InitGoogleLogging() is written to STDERR
I0805 08:57:38.378867 20984 net.cpp:49] Initializing net from parameters: 
name: "AlexNetOcclusion"
input: "data"
state {
  phase: TEST
}
input_shape {
  dim: 10
  dim: 3
  dim: 227
  dim: 227
}
layer {
  name: "conv1"
  type: "Convolution"
  bottom: "data"
  top: "conv1"
  param {
    lr_mult: 0
    decay_mult: 1
  }
  param {
    lr_mult: 0
    decay_mult: 0
  }
  convolution_param {
    num_output: 96
    kernel_size: 11
    stride: 4
    weight_filler {
      type: "gaussian"
      std: 0.01
    }
    bias_filler {
      type: "constant"
      value: 0
    }
  }
}
layer {
  name: "relu1"
  type: "ReLU"
  bottom: "conv1"
  top: "conv1"
}
layer {
  name: "norm1"
  type: "LRN"
  bottom: "conv1"
  top: "norm1"
  lrn_param {
    local_size: 5
    alpha: 0.0001
    beta: 0.75
  }
}
layer {
  name: "pool1"
  type: "Pooling"
  bottom: "norm1"
  top: "pool1"
  pooling_param {
    pool: MAX
    kernel_size: 3
    stride: 2
  }
}
layer {
  name: "conv2"
  type: "Convolution"
  bottom: "pool1"
  top: "conv2"
  param {
    lr_mult: 0
    decay_mult: 1
  }
  param {
    lr_mult: 0
    decay_mult: 0
  }
  convolution_param {
    num_output: 256
    pad: 2
    kernel_size: 5
    group: 2
    weight_filler {
      type: "gaussian"
      std: 0.01
    }
    bias_filler {
      type: "constant"
      value: 0.1
    }
  }
}
layer {
  name: "relu2"
  type: "ReLU"
  bottom: "conv2"
  top: "conv2"
}
layer {
  name: "norm2"
  type: "LRN"
  bottom: "conv2"
  top: "norm2"
  lrn_param {
    local_size: 5
    alpha: 0.0001
    beta: 0.75
  }
}
layer {
  name: "pool2"
  type: "Pooling"
  bottom: "norm2"
  top: "pool2"
  pooling_param {
    pool: MAX
    kernel_size: 3
    stride: 2
  }
}
layer {
  name: "conv3"
  type: "Convolution"
  bottom: "pool2"
  top: "conv3"
  param {
    lr_mult: 0
    decay_mult: 1
  }
  param {
    lr_mult: 0
    decay_mult: 0
  }
  convolution_param {
    num_output: 384
    pad: 1
    kernel_size: 3
    weight_filler {
      type: "gaussian"
      std: 0.01
    }
    bias_filler {
      type: "constant"
      value: 0
    }
  }
}
layer {
  name: "relu3"
  type: "ReLU"
  bottom: "conv3"
  top: "conv3"
}
layer {
  name: "conv4"
  type: "Convolution"
  bottom: "conv3"
  top: "conv4"
  param {
    lr_mult: 0
    decay_mult: 1
  }
  param {
    lr_mult: 0
    decay_mult: 0
  }
  convolution_param {
    num_output: 384
    pad: 1
    kernel_size: 3
    group: 2
    weight_filler {
      type: "gaussian"
      std: 0.01
    }
    bias_filler {
      type: "constant"
      value: 0.1
    }
  }
}
layer {
  name: "relu4"
  type: "ReLU"
  bottom: "conv4"
  top: "conv4"
}
layer {
  name: "conv5"
  type: "Convolution"
  bottom: "conv4"
  top: "conv5"
  param {
    lr_mult: 0
    decay_mult: 1
  }
  param {
    lr_mult: 0
    decay_mult: 0
  }
  convolution_param {
    num_output: 256
    pad: 1
    kernel_size: 3
    group: 2
    weight_filler {
      type: "gaussian"
      std: 0.01
    }
    bias_filler {
      type: "constant"
      value: 0.1
    }
  }
}
layer {
  name: "relu5"
  type: "ReLU"
  bottom: "conv5"
  top: "conv5"
}
layer {
  name: "pool5"
  type: "Pooling"
  bottom: "conv5"
  top: "pool5"
  pooling_param {
    pool: MAX
    kernel_size: 3
    stride: 2
  }
}
layer {
  name: "fc6"
  type: "InnerProduct"
  bottom: "pool5"
  top: "fc6"
  param {
    lr_mult: 0
    decay_mult: 1
  }
  param {
    lr_mult: 0
    decay_mult: 0
  }
  inner_product_param {
    num_output: 4096
    weight_filler {
      type: "gaussian"
      std: 0.005
    }
    bias_filler {
      type: "constant"
      value: 0.1
    }
  }
}
layer {
  name: "relu6"
  type: "ReLU"
  bottom: "fc6"
  top: "fc6"
}
layer {
  name: "drop6"
  type: "Dropout"
  bottom: "fc6"
  top: "fc6"
  dropout_param {
    dropout_ratio: 0.5
  }
}
layer {
  name: "fc7"
  type: "InnerProduct"
  bottom: "fc6"
  top: "fc7"
  param {
    lr_mult: 0
    decay_mult: 1
  }
  param {
    lr_mult: 0
    decay_mult: 0
  }
  inner_product_param {
    num_output: 4096
    weight_filler {
      type: "gaussian"
      std: 0.005
    }
    bias_filler {
      type: "constant"
      value: 0.1
    }
  }
}
layer {
  name: "relu7"
  type: "ReLU"
  bottom: "fc7"
  top: "fc7"
}
layer {
  name: "drop7"
  type: "Dropout"
  bottom: "fc7"
  top: "fc7"
  dropout_param {
    dropout_ratio: 0.5
  }
}
layer {
  name: "fc8_occlusion"
  type: "InnerProduct"
  bottom: "fc7"
  top: "fc8_occlusion"
  param {
    lr_mult: 1
    decay_mult: 1
  }
  param {
    lr_mult: 2
    decay_mult: 0
  }
  inner_product_param {
    num_output: 20
    weight_filler {
      type: "gaussian"
      std: 0.01
    }
    bias_filler {
      type: "constant"
      value: 0
    }
  }
}
layer {
  name: "prob"
  type: "Softmax"
  bottom: "fc8_occlusion"
  top: "prob"
}
I0805 08:57:38.379057 20984 net.cpp:413] Input 0 -> data
I0805 08:57:38.389945 20984 layer_factory.hpp:77] Creating layer conv1
I0805 08:57:38.390089 20984 net.cpp:106] Creating Layer conv1
I0805 08:57:38.390096 20984 net.cpp:454] conv1 <- data
I0805 08:57:38.390110 20984 net.cpp:411] conv1 -> conv1
I0805 08:57:38.593863 20984 net.cpp:150] Setting up conv1
I0805 08:57:38.593955 20984 net.cpp:157] Top shape: 10 96 55 55 (2904000)
I0805 08:57:38.593961 20984 net.cpp:165] Memory required for data: 11616000
I0805 08:57:38.593997 20984 layer_factory.hpp:77] Creating layer relu1
I0805 08:57:38.594020 20984 net.cpp:106] Creating Layer relu1
I0805 08:57:38.594027 20984 net.cpp:454] relu1 <- conv1
I0805 08:57:38.594034 20984 net.cpp:397] relu1 -> conv1 (in-place)
I0805 08:57:38.594321 20984 net.cpp:150] Setting up relu1
I0805 08:57:38.594333 20984 net.cpp:157] Top shape: 10 96 55 55 (2904000)
I0805 08:57:38.594336 20984 net.cpp:165] Memory required for data: 23232000
I0805 08:57:38.594341 20984 layer_factory.hpp:77] Creating layer norm1
I0805 08:57:38.594357 20984 net.cpp:106] Creating Layer norm1
I0805 08:57:38.594360 20984 net.cpp:454] norm1 <- conv1
I0805 08:57:38.594367 20984 net.cpp:411] norm1 -> norm1
I0805 08:57:38.594552 20984 net.cpp:150] Setting up norm1
I0805 08:57:38.594563 20984 net.cpp:157] Top shape: 10 96 55 55 (2904000)
I0805 08:57:38.594566 20984 net.cpp:165] Memory required for data: 34848000
I0805 08:57:38.594570 20984 layer_factory.hpp:77] Creating layer pool1
I0805 08:57:38.594583 20984 net.cpp:106] Creating Layer pool1
I0805 08:57:38.594586 20984 net.cpp:454] pool1 <- norm1
I0805 08:57:38.594593 20984 net.cpp:411] pool1 -> pool1
I0805 08:57:38.594635 20984 net.cpp:150] Setting up pool1
I0805 08:57:38.594642 20984 net.cpp:157] Top shape: 10 96 27 27 (699840)
I0805 08:57:38.594645 20984 net.cpp:165] Memory required for data: 37647360
I0805 08:57:38.594650 20984 layer_factory.hpp:77] Creating layer conv2
I0805 08:57:38.594671 20984 net.cpp:106] Creating Layer conv2
I0805 08:57:38.594676 20984 net.cpp:454] conv2 <- pool1
I0805 08:57:38.594682 20984 net.cpp:411] conv2 -> conv2
I0805 08:57:38.600463 20984 net.cpp:150] Setting up conv2
I0805 08:57:38.600499 20984 net.cpp:157] Top shape: 10 256 27 27 (1866240)
I0805 08:57:38.600503 20984 net.cpp:165] Memory required for data: 45112320
I0805 08:57:38.600518 20984 layer_factory.hpp:77] Creating layer relu2
I0805 08:57:38.600531 20984 net.cpp:106] Creating Layer relu2
I0805 08:57:38.600535 20984 net.cpp:454] relu2 <- conv2
I0805 08:57:38.600543 20984 net.cpp:397] relu2 -> conv2 (in-place)
I0805 08:57:38.600714 20984 net.cpp:150] Setting up relu2
I0805 08:57:38.600726 20984 net.cpp:157] Top shape: 10 256 27 27 (1866240)
I0805 08:57:38.600730 20984 net.cpp:165] Memory required for data: 52577280
I0805 08:57:38.600734 20984 layer_factory.hpp:77] Creating layer norm2
I0805 08:57:38.600744 20984 net.cpp:106] Creating Layer norm2
I0805 08:57:38.600749 20984 net.cpp:454] norm2 <- conv2
I0805 08:57:38.600755 20984 net.cpp:411] norm2 -> norm2
I0805 08:57:38.601063 20984 net.cpp:150] Setting up norm2
I0805 08:57:38.601075 20984 net.cpp:157] Top shape: 10 256 27 27 (1866240)
I0805 08:57:38.601079 20984 net.cpp:165] Memory required for data: 60042240
I0805 08:57:38.601083 20984 layer_factory.hpp:77] Creating layer pool2
I0805 08:57:38.601104 20984 net.cpp:106] Creating Layer pool2
I0805 08:57:38.601107 20984 net.cpp:454] pool2 <- norm2
I0805 08:57:38.601114 20984 net.cpp:411] pool2 -> pool2
I0805 08:57:38.601155 20984 net.cpp:150] Setting up pool2
I0805 08:57:38.601163 20984 net.cpp:157] Top shape: 10 256 13 13 (432640)
I0805 08:57:38.601166 20984 net.cpp:165] Memory required for data: 61772800
I0805 08:57:38.601171 20984 layer_factory.hpp:77] Creating layer conv3
I0805 08:57:38.601187 20984 net.cpp:106] Creating Layer conv3
I0805 08:57:38.601191 20984 net.cpp:454] conv3 <- pool2
I0805 08:57:38.601197 20984 net.cpp:411] conv3 -> conv3
I0805 08:57:38.615411 20984 net.cpp:150] Setting up conv3
I0805 08:57:38.615428 20984 net.cpp:157] Top shape: 10 384 13 13 (648960)
I0805 08:57:38.615433 20984 net.cpp:165] Memory required for data: 64368640
I0805 08:57:38.615443 20984 layer_factory.hpp:77] Creating layer relu3
I0805 08:57:38.615452 20984 net.cpp:106] Creating Layer relu3
I0805 08:57:38.615455 20984 net.cpp:454] relu3 <- conv3
I0805 08:57:38.615460 20984 net.cpp:397] relu3 -> conv3 (in-place)
I0805 08:57:38.616720 20984 net.cpp:150] Setting up relu3
I0805 08:57:38.616732 20984 net.cpp:157] Top shape: 10 384 13 13 (648960)
I0805 08:57:38.616735 20984 net.cpp:165] Memory required for data: 66964480
I0805 08:57:38.616739 20984 layer_factory.hpp:77] Creating layer conv4
I0805 08:57:38.616751 20984 net.cpp:106] Creating Layer conv4
I0805 08:57:38.616756 20984 net.cpp:454] conv4 <- conv3
I0805 08:57:38.616765 20984 net.cpp:411] conv4 -> conv4
I0805 08:57:38.625900 20984 net.cpp:150] Setting up conv4
I0805 08:57:38.625917 20984 net.cpp:157] Top shape: 10 384 13 13 (648960)
I0805 08:57:38.625921 20984 net.cpp:165] Memory required for data: 69560320
I0805 08:57:38.625928 20984 layer_factory.hpp:77] Creating layer relu4
I0805 08:57:38.625936 20984 net.cpp:106] Creating Layer relu4
I0805 08:57:38.625941 20984 net.cpp:454] relu4 <- conv4
I0805 08:57:38.625946 20984 net.cpp:397] relu4 -> conv4 (in-place)
I0805 08:57:38.626106 20984 net.cpp:150] Setting up relu4
I0805 08:57:38.626118 20984 net.cpp:157] Top shape: 10 384 13 13 (648960)
I0805 08:57:38.626121 20984 net.cpp:165] Memory required for data: 72156160
I0805 08:57:38.626127 20984 layer_factory.hpp:77] Creating layer conv5
I0805 08:57:38.626137 20984 net.cpp:106] Creating Layer conv5
I0805 08:57:38.626140 20984 net.cpp:454] conv5 <- conv4
I0805 08:57:38.626148 20984 net.cpp:411] conv5 -> conv5
I0805 08:57:38.633095 20984 net.cpp:150] Setting up conv5
I0805 08:57:38.633119 20984 net.cpp:157] Top shape: 10 256 13 13 (432640)
I0805 08:57:38.633123 20984 net.cpp:165] Memory required for data: 73886720
I0805 08:57:38.633138 20984 layer_factory.hpp:77] Creating layer relu5
I0805 08:57:38.633147 20984 net.cpp:106] Creating Layer relu5
I0805 08:57:38.633152 20984 net.cpp:454] relu5 <- conv5
I0805 08:57:38.633157 20984 net.cpp:397] relu5 -> conv5 (in-place)
I0805 08:57:38.633340 20984 net.cpp:150] Setting up relu5
I0805 08:57:38.633352 20984 net.cpp:157] Top shape: 10 256 13 13 (432640)
I0805 08:57:38.633354 20984 net.cpp:165] Memory required for data: 75617280
I0805 08:57:38.633358 20984 layer_factory.hpp:77] Creating layer pool5
I0805 08:57:38.633369 20984 net.cpp:106] Creating Layer pool5
I0805 08:57:38.633374 20984 net.cpp:454] pool5 <- conv5
I0805 08:57:38.633379 20984 net.cpp:411] pool5 -> pool5
I0805 08:57:38.633425 20984 net.cpp:150] Setting up pool5
I0805 08:57:38.633432 20984 net.cpp:157] Top shape: 10 256 6 6 (92160)
I0805 08:57:38.633436 20984 net.cpp:165] Memory required for data: 75985920
I0805 08:57:38.633440 20984 layer_factory.hpp:77] Creating layer fc6
I0805 08:57:38.633455 20984 net.cpp:106] Creating Layer fc6
I0805 08:57:38.633460 20984 net.cpp:454] fc6 <- pool5
I0805 08:57:38.633466 20984 net.cpp:411] fc6 -> fc6
I0805 08:57:39.060166 20984 net.cpp:150] Setting up fc6
I0805 08:57:39.060240 20984 net.cpp:157] Top shape: 10 4096 (40960)
I0805 08:57:39.060245 20984 net.cpp:165] Memory required for data: 76149760
I0805 08:57:39.060259 20984 layer_factory.hpp:77] Creating layer relu6
I0805 08:57:39.060293 20984 net.cpp:106] Creating Layer relu6
I0805 08:57:39.060299 20984 net.cpp:454] relu6 <- fc6
I0805 08:57:39.060310 20984 net.cpp:397] relu6 -> fc6 (in-place)
I0805 08:57:39.060829 20984 net.cpp:150] Setting up relu6
I0805 08:57:39.060842 20984 net.cpp:157] Top shape: 10 4096 (40960)
I0805 08:57:39.060847 20984 net.cpp:165] Memory required for data: 76313600
I0805 08:57:39.060850 20984 layer_factory.hpp:77] Creating layer drop6
I0805 08:57:39.060861 20984 net.cpp:106] Creating Layer drop6
I0805 08:57:39.060865 20984 net.cpp:454] drop6 <- fc6
I0805 08:57:39.060873 20984 net.cpp:397] drop6 -> fc6 (in-place)
I0805 08:57:39.060905 20984 net.cpp:150] Setting up drop6
I0805 08:57:39.060914 20984 net.cpp:157] Top shape: 10 4096 (40960)
I0805 08:57:39.060917 20984 net.cpp:165] Memory required for data: 76477440
I0805 08:57:39.060921 20984 layer_factory.hpp:77] Creating layer fc7
I0805 08:57:39.060931 20984 net.cpp:106] Creating Layer fc7
I0805 08:57:39.060935 20984 net.cpp:454] fc7 <- fc6
I0805 08:57:39.060945 20984 net.cpp:411] fc7 -> fc7
I0805 08:57:39.250257 20984 net.cpp:150] Setting up fc7
I0805 08:57:39.250330 20984 net.cpp:157] Top shape: 10 4096 (40960)
I0805 08:57:39.250334 20984 net.cpp:165] Memory required for data: 76641280
I0805 08:57:39.250349 20984 layer_factory.hpp:77] Creating layer relu7
I0805 08:57:39.250366 20984 net.cpp:106] Creating Layer relu7
I0805 08:57:39.250372 20984 net.cpp:454] relu7 <- fc7
I0805 08:57:39.250381 20984 net.cpp:397] relu7 -> fc7 (in-place)
I0805 08:57:39.250617 20984 net.cpp:150] Setting up relu7
I0805 08:57:39.250627 20984 net.cpp:157] Top shape: 10 4096 (40960)
I0805 08:57:39.250630 20984 net.cpp:165] Memory required for data: 76805120
I0805 08:57:39.250634 20984 layer_factory.hpp:77] Creating layer drop7
I0805 08:57:39.250645 20984 net.cpp:106] Creating Layer drop7
I0805 08:57:39.250649 20984 net.cpp:454] drop7 <- fc7
I0805 08:57:39.250654 20984 net.cpp:397] drop7 -> fc7 (in-place)
I0805 08:57:39.250682 20984 net.cpp:150] Setting up drop7
I0805 08:57:39.250689 20984 net.cpp:157] Top shape: 10 4096 (40960)
I0805 08:57:39.250694 20984 net.cpp:165] Memory required for data: 76968960
I0805 08:57:39.250696 20984 layer_factory.hpp:77] Creating layer fc8_occlusion
I0805 08:57:39.250705 20984 net.cpp:106] Creating Layer fc8_occlusion
I0805 08:57:39.250708 20984 net.cpp:454] fc8_occlusion <- fc7
I0805 08:57:39.250715 20984 net.cpp:411] fc8_occlusion -> fc8_occlusion
I0805 08:57:39.252202 20984 net.cpp:150] Setting up fc8_occlusion
I0805 08:57:39.252218 20984 net.cpp:157] Top shape: 10 20 (200)
I0805 08:57:39.252221 20984 net.cpp:165] Memory required for data: 76969760
I0805 08:57:39.252228 20984 layer_factory.hpp:77] Creating layer prob
I0805 08:57:39.252243 20984 net.cpp:106] Creating Layer prob
I0805 08:57:39.252246 20984 net.cpp:454] prob <- fc8_occlusion
I0805 08:57:39.252252 20984 net.cpp:411] prob -> prob
I0805 08:57:39.252621 20984 net.cpp:150] Setting up prob
I0805 08:57:39.252634 20984 net.cpp:157] Top shape: 10 20 (200)
I0805 08:57:39.252636 20984 net.cpp:165] Memory required for data: 76970560
I0805 08:57:39.252641 20984 net.cpp:228] prob does not need backward computation.
I0805 08:57:39.252645 20984 net.cpp:228] fc8_occlusion does not need backward computation.
I0805 08:57:39.252648 20984 net.cpp:228] drop7 does not need backward computation.
I0805 08:57:39.252651 20984 net.cpp:228] relu7 does not need backward computation.
…
