discarding /home/haow3/miniconda2/bin from PATH
prepending /home/haow3/miniconda2/envs/cafferc3/bin to PATH
WARNING: Logging before InitGoogleLogging() is written to STDERR
I0805 08:58:24.591290  1040 net.cpp:49] Initializing net from parameters: 
name: "AlexNetOcclusion"
input: "data"
state {
  phase: TEST
}
input_shape {
  dim: 10
  dim: 3
  dim: 227
  dim: 227
}
layer {
  name: "conv1"
  type: "Convolution"
  bottom: "data"
  top: "conv1"
  param {
    lr_mult: 0
    decay_mult: 1
  }
  param {
    lr_mult: 0
    decay_mult: 0
  }
  convolution_param {
    num_output: 96
    kernel_size: 11
    stride: 4
    weight_filler {
      type: "gaussian"
      std: 0.01
    }
    bias_filler {
      type: "constant"
      value: 0
    }
  }
}
layer {
  name: "relu1"
  type: "ReLU"
  bottom: "conv1"
  top: "conv1"
}
layer {
  name: "norm1"
  type: "LRN"
  bottom: "conv1"
  top: "norm1"
  lrn_param {
    local_size: 5
    alpha: 0.0001
    beta: 0.75
  }
}
layer {
  name: "pool1"
  type: "Pooling"
  bottom: "norm1"
  top: "pool1"
  pooling_param {
    pool: MAX
    kernel_size: 3
    stride: 2
  }
}
layer {
  name: "conv2"
  type: "Convolution"
  bottom: "pool1"
  top: "conv2"
  param {
    lr_mult: 0
    decay_mult: 1
  }
  param {
    lr_mult: 0
    decay_mult: 0
  }
  convolution_param {
    num_output: 256
    pad: 2
    kernel_size: 5
    group: 2
    weight_filler {
      type: "gaussian"
      std: 0.01
    }
    bias_filler {
      type: "constant"
      value: 0.1
    }
  }
}
layer {
  name: "relu2"
  type: "ReLU"
  bottom: "conv2"
  top: "conv2"
}
layer {
  name: "norm2"
  type: "LRN"
  bottom: "conv2"
  top: "norm2"
  lrn_param {
    local_size: 5
    alpha: 0.0001
    beta: 0.75
  }
}
layer {
  name: "pool2"
  type: "Pooling"
  bottom: "norm2"
  top: "pool2"
  pooling_param {
    pool: MAX
    kernel_size: 3
    stride: 2
  }
}
layer {
  name: "conv3"
  type: "Convolution"
  bottom: "pool2"
  top: "conv3"
  param {
    lr_mult: 0
    decay_mult: 1
  }
  param {
    lr_mult: 0
    decay_mult: 0
  }
  convolution_param {
    num_output: 384
    pad: 1
    kernel_size: 3
    weight_filler {
      type: "gaussian"
      std: 0.01
    }
    bias_filler {
      type: "constant"
      value: 0
    }
  }
}
layer {
  name: "relu3"
  type: "ReLU"
  bottom: "conv3"
  top: "conv3"
}
layer {
  name: "conv4"
  type: "Convolution"
  bottom: "conv3"
  top: "conv4"
  param {
    lr_mult: 0
    decay_mult: 1
  }
  param {
    lr_mult: 0
    decay_mult: 0
  }
  convolution_param {
    num_output: 384
    pad: 1
    kernel_size: 3
    group: 2
    weight_filler {
      type: "gaussian"
      std: 0.01
    }
    bias_filler {
      type: "constant"
      value: 0.1
    }
  }
}
layer {
  name: "relu4"
  type: "ReLU"
  bottom: "conv4"
  top: "conv4"
}
layer {
  name: "conv5"
  type: "Convolution"
  bottom: "conv4"
  top: "conv5"
  param {
    lr_mult: 0
    decay_mult: 1
  }
  param {
    lr_mult: 0
    decay_mult: 0
  }
  convolution_param {
    num_output: 256
    pad: 1
    kernel_size: 3
    group: 2
    weight_filler {
      type: "gaussian"
      std: 0.01
    }
    bias_filler {
      type: "constant"
      value: 0.1
    }
  }
}
layer {
  name: "relu5"
  type: "ReLU"
  bottom: "conv5"
  top: "conv5"
}
layer {
  name: "pool5"
  type: "Pooling"
  bottom: "conv5"
  top: "pool5"
  pooling_param {
    pool: MAX
    kernel_size: 3
    stride: 2
  }
}
layer {
  name: "fc6"
  type: "InnerProduct"
  bottom: "pool5"
  top: "fc6"
  param {
    lr_mult: 0
    decay_mult: 1
  }
  param {
    lr_mult: 0
    decay_mult: 0
  }
  inner_product_param {
    num_output: 4096
    weight_filler {
      type: "gaussian"
      std: 0.005
    }
    bias_filler {
      type: "constant"
      value: 0.1
    }
  }
}
layer {
  name: "relu6"
  type: "ReLU"
  bottom: "fc6"
  top: "fc6"
}
layer {
  name: "drop6"
  type: "Dropout"
  bottom: "fc6"
  top: "fc6"
  dropout_param {
    dropout_ratio: 0.5
  }
}
layer {
  name: "fc7"
  type: "InnerProduct"
  bottom: "fc6"
  top: "fc7"
  param {
    lr_mult: 0
    decay_mult: 1
  }
  param {
    lr_mult: 0
    decay_mult: 0
  }
  inner_product_param {
    num_output: 4096
    weight_filler {
      type: "gaussian"
      std: 0.005
    }
    bias_filler {
      type: "constant"
      value: 0.1
    }
  }
}
layer {
  name: "relu7"
  type: "ReLU"
  bottom: "fc7"
  top: "fc7"
}
layer {
  name: "drop7"
  type: "Dropout"
  bottom: "fc7"
  top: "fc7"
  dropout_param {
    dropout_ratio: 0.5
  }
}
layer {
  name: "fc8_occlusion"
  type: "InnerProduct"
  bottom: "fc7"
  top: "fc8_occlusion"
  param {
    lr_mult: 1
    decay_mult: 1
  }
  param {
    lr_mult: 2
    decay_mult: 0
  }
  inner_product_param {
    num_output: 20
    weight_filler {
      type: "gaussian"
      std: 0.01
    }
    bias_filler {
      type: "constant"
      value: 0
    }
  }
}
layer {
  name: "prob"
  type: "Softmax"
  bottom: "fc8_occlusion"
  top: "prob"
}
I0805 08:58:24.591483  1040 net.cpp:413] Input 0 -> data
I0805 08:58:24.609866  1040 layer_factory.hpp:77] Creating layer conv1
I0805 08:58:24.609963  1040 net.cpp:106] Creating Layer conv1
I0805 08:58:24.609977  1040 net.cpp:454] conv1 <- data
I0805 08:58:24.609997  1040 net.cpp:411] conv1 -> conv1
I0805 08:58:24.965771  1040 net.cpp:150] Setting up conv1
I0805 08:58:24.965879  1040 net.cpp:157] Top shape: 10 96 55 55 (2904000)
I0805 08:58:24.965889  1040 net.cpp:165] Memory required for data: 11616000
I0805 08:58:24.965932  1040 layer_factory.hpp:77] Creating layer relu1
I0805 08:58:24.965962  1040 net.cpp:106] Creating Layer relu1
I0805 08:58:24.965975  1040 net.cpp:454] relu1 <- conv1
I0805 08:58:24.965987  1040 net.cpp:397] relu1 -> conv1 (in-place)
I0805 08:58:24.966601  1040 net.cpp:150] Setting up relu1
I0805 08:58:24.966639  1040 net.cpp:157] Top shape: 10 96 55 55 (2904000)
I0805 08:58:24.966644  1040 net.cpp:165] Memory required for data: 23232000
I0805 08:58:24.966650  1040 layer_factory.hpp:77] Creating layer norm1
I0805 08:58:24.966672  1040 net.cpp:106] Creating Layer norm1
I0805 08:58:24.966678  1040 net.cpp:454] norm1 <- conv1
I0805 08:58:24.966687  1040 net.cpp:411] norm1 -> norm1
I0805 08:58:24.967905  1040 net.cpp:150] Setting up norm1
I0805 08:58:24.967960  1040 net.cpp:157] Top shape: 10 96 55 55 (2904000)
I0805 08:58:24.967964  1040 net.cpp:165] Memory required for data: 34848000
I0805 08:58:24.967972  1040 layer_factory.hpp:77] Creating layer pool1
I0805 08:58:24.967993  1040 net.cpp:106] Creating Layer pool1
I0805 08:58:24.967998  1040 net.cpp:454] pool1 <- norm1
I0805 08:58:24.968009  1040 net.cpp:411] pool1 -> pool1
I0805 08:58:24.968068  1040 net.cpp:150] Setting up pool1
I0805 08:58:24.968077  1040 net.cpp:157] Top shape: 10 96 27 27 (699840)
I0805 08:58:24.968081  1040 net.cpp:165] Memory required for data: 37647360
I0805 08:58:24.968086  1040 layer_factory.hpp:77] Creating layer conv2
I0805 08:58:24.968149  1040 net.cpp:106] Creating Layer conv2
I0805 08:58:24.968160  1040 net.cpp:454] conv2 <- pool1
I0805 08:58:24.968181  1040 net.cpp:411] conv2 -> conv2
I0805 08:58:24.991926  1040 net.cpp:150] Setting up conv2
I0805 08:58:24.991986  1040 net.cpp:157] Top shape: 10 256 27 27 (1866240)
I0805 08:58:24.991997  1040 net.cpp:165] Memory required for data: 45112320
I0805 08:58:24.992017  1040 layer_factory.hpp:77] Creating layer relu2
I0805 08:58:24.992032  1040 net.cpp:106] Creating Layer relu2
I0805 08:58:24.992036  1040 net.cpp:454] relu2 <- conv2
I0805 08:58:24.992044  1040 net.cpp:397] relu2 -> conv2 (in-place)
I0805 08:58:24.994168  1040 net.cpp:150] Setting up relu2
I0805 08:58:24.994191  1040 net.cpp:157] Top shape: 10 256 27 27 (1866240)
I0805 08:58:24.994196  1040 net.cpp:165] Memory required for data: 52577280
I0805 08:58:24.994201  1040 layer_factory.hpp:77] Creating layer norm2
I0805 08:58:24.994215  1040 net.cpp:106] Creating Layer norm2
I0805 08:58:24.994220  1040 net.cpp:454] norm2 <- conv2
I0805 08:58:24.994227  1040 net.cpp:411] norm2 -> norm2
I0805 08:58:24.997103  1040 net.cpp:150] Setting up norm2
I0805 08:58:24.997123  1040 net.cpp:157] Top shape: 10 256 27 27 (1866240)
I0805 08:58:24.997126  1040 net.cpp:165] Memory required for data: 60042240
I0805 08:58:24.997131  1040 layer_factory.hpp:77] Creating layer pool2
I0805 08:58:24.997154  1040 net.cpp:106] Creating Layer pool2
I0805 08:58:24.997159  1040 net.cpp:454] pool2 <- norm2
I0805 08:58:24.997166  1040 net.cpp:411] pool2 -> pool2
I0805 08:58:24.997220  1040 net.cpp:150] Setting up pool2
I0805 08:58:24.997231  1040 net.cpp:157] Top shape: 10 256 13 13 (432640)
I0805 08:58:24.997233  1040 net.cpp:165] Memory required for data: 61772800
I0805 08:58:24.997237  1040 layer_factory.hpp:77] Creating layer conv3
I0805 08:58:24.997257  1040 net.cpp:106] Creating Layer conv3
I0805 08:58:24.997262  1040 net.cpp:454] conv3 <- pool2
I0805 08:58:24.997272  1040 net.cpp:411] conv3 -> conv3
I0805 08:58:25.015337  1040 net.cpp:150] Setting up conv3
I0805 08:58:25.015383  1040 net.cpp:157] Top shape: 10 384 13 13 (648960)
I0805 08:58:25.015388  1040 net.cpp:165] Memory required for data: 64368640
I0805 08:58:25.015405  1040 layer_factory.hpp:77] Creating layer relu3
I0805 08:58:25.015422  1040 net.cpp:106] Creating Layer relu3
I0805 08:58:25.015431  1040 net.cpp:454] relu3 <- conv3
I0805 08:58:25.015441  1040 net.cpp:397] relu3 -> conv3 (in-place)
I0805 08:58:25.017164  1040 net.cpp:150] Setting up relu3
I0805 08:58:25.017182  1040 net.cpp:157] Top shape: 10 384 13 13 (648960)
I0805 08:58:25.017187  1040 net.cpp:165] Memory required for data: 66964480
I0805 08:58:25.017192  1040 layer_factory.hpp:77] Creating layer conv4
I0805 08:58:25.017210  1040 net.cpp:106] Creating Layer conv4
I0805 08:58:25.017215  1040 net.cpp:454] conv4 <- conv3
I0805 08:58:25.017225  1040 net.cpp:411] conv4 -> conv4
I0805 08:58:25.030319  1040 net.cpp:150] Setting up conv4
I0805 08:58:25.030375  1040 net.cpp:157] Top shape: 10 384 13 13 (648960)
I0805 08:58:25.030380  1040 net.cpp:165] Memory required for data: 69560320
I0805 08:58:25.030392  1040 layer_factory.hpp:77] Creating layer relu4
I0805 08:58:25.030410  1040 net.cpp:106] Creating Layer relu4
I0805 08:58:25.030416  1040 net.cpp:454] relu4 <- conv4
I0805 08:58:25.030426  1040 net.cpp:397] relu4 -> conv4 (in-place)
I0805 08:58:25.030640  1040 net.cpp:150] Setting up relu4
I0805 08:58:25.030652  1040 net.cpp:157] Top shape: 10 384 13 13 (648960)
I0805 08:58:25.030655  1040 net.cpp:165] Memory required for data: 72156160
I0805 08:58:25.030660  1040 layer_factory.hpp:77] Creating layer conv5
I0805 08:58:25.030679  1040 net.cpp:106] Creating Layer conv5
I0805 08:58:25.030684  1040 net.cpp:454] conv5 <- conv4
I0805 08:58:25.030694  1040 net.cpp:411] conv5 -> conv5
I0805 08:58:25.041378  1040 net.cpp:150] Setting up conv5
I0805 08:58:25.041429  1040 net.cpp:157] Top shape: 10 256 13 13 (432640)
I0805 08:58:25.041435  1040 net.cpp:165] Memory required for data: 73886720
I0805 08:58:25.041455  1040 layer_factory.hpp:77] Creating layer relu5
I0805 08:58:25.041473  1040 net.cpp:106] Creating Layer relu5
I0805 08:58:25.041481  1040 net.cpp:454] relu5 <- conv5
I0805 08:58:25.041487  1040 net.cpp:397] relu5 -> conv5 (in-place)
I0805 08:58:25.041735  1040 net.cpp:150] Setting up relu5
I0805 08:58:25.041748  1040 net.cpp:157] Top shape: 10 256 13 13 (432640)
I0805 08:58:25.041751  1040 net.cpp:165] Memory required for data: 75617280
I0805 08:58:25.041756  1040 layer_factory.hpp:77] Creating layer pool5
I0805 08:58:25.041765  1040 net.cpp:106] Creating Layer pool5
I0805 08:58:25.041770  1040 net.cpp:454] pool5 <- conv5
I0805 08:58:25.041779  1040 net.cpp:411] pool5 -> pool5
I0805 08:58:25.041841  1040 net.cpp:150] Setting up pool5
I0805 08:58:25.041851  1040 net.cpp:157] Top shape: 10 256 6 6 (92160)
I0805 08:58:25.041854  1040 net.cpp:165] Memory required for data: 75985920
I0805 08:58:25.041858  1040 layer_factory.hpp:77] Creating layer fc6
I0805 08:58:25.041874  1040 net.cpp:106] Creating Layer fc6
I0805 08:58:25.041879  1040 net.cpp:454] fc6 <- pool5
I0805 08:58:25.041888  1040 net.cpp:411] fc6 -> fc6
I0805 08:58:25.594816  1040 net.cpp:150] Setting up fc6
I0805 08:58:25.594890  1040 net.cpp:157] Top shape: 10 4096 (40960)
I0805 08:58:25.594897  1040 net.cpp:165] Memory required for data: 76149760
I0805 08:58:25.594912  1040 layer_factory.hpp:77] Creating layer relu6
I0805 08:58:25.594947  1040 net.cpp:106] Creating Layer relu6
I0805 08:58:25.594954  1040 net.cpp:454] relu6 <- fc6
I0805 08:58:25.594965  1040 net.cpp:397] relu6 -> fc6 (in-place)
I0805 08:58:25.595602  1040 net.cpp:150] Setting up relu6
I0805 08:58:25.595620  1040 net.cpp:157] Top shape: 10 4096 (40960)
I0805 08:58:25.595625  1040 net.cpp:165] Memory required for data: 76313600
I0805 08:58:25.595630  1040 layer_factory.hpp:77] Creating layer drop6
I0805 08:58:25.595643  1040 net.cpp:106] Creating Layer drop6
I0805 08:58:25.595648  1040 net.cpp:454] drop6 <- fc6
I0805 08:58:25.595654  1040 net.cpp:397] drop6 -> fc6 (in-place)
I0805 08:58:25.595693  1040 net.cpp:150] Setting up drop6
I0805 08:58:25.595702  1040 net.cpp:157] Top shape: 10 4096 (40960)
I0805 08:58:25.595706  1040 net.cpp:165] Memory required for data: 76477440
I0805 08:58:25.595710  1040 layer_factory.hpp:77] Creating layer fc7
I0805 08:58:25.595724  1040 net.cpp:106] Creating Layer fc7
I0805 08:58:25.595729  1040 net.cpp:454] fc7 <- fc6
I0805 08:58:25.595736  1040 net.cpp:411] fc7 -> fc7
I0805 08:58:25.826038  1040 net.cpp:150] Setting up fc7
I0805 08:58:25.826112  1040 net.cpp:157] Top shape: 10 4096 (40960)
I0805 08:58:25.826117  1040 net.cpp:165] Memory required for data: 76641280
I0805 08:58:25.826136  1040 layer_factory.hpp:77] Creating layer relu7
I0805 08:58:25.826159  1040 net.cpp:106] Creating Layer relu7
I0805 08:58:25.826165  1040 net.cpp:454] relu7 <- fc7
I0805 08:58:25.826179  1040 net.cpp:397] relu7 -> fc7 (in-place)
I0805 08:58:25.826540  1040 net.cpp:150] Setting up relu7
I0805 08:58:25.826555  1040 net.cpp:157] Top shape: 10 4096 (40960)
I0805 08:58:25.826560  1040 net.cpp:165] Memory required for data: 76805120
I0805 08:58:25.826565  1040 layer_factory.hpp:77] Creating layer drop7
I0805 08:58:25.826578  1040 net.cpp:106] Creating Layer drop7
I0805 08:58:25.826583  1040 net.cpp:454] drop7 <- fc7
I0805 08:58:25.826589  1040 net.cpp:397] drop7 -> fc7 (in-place)
I0805 08:58:25.826633  1040 net.cpp:150] Setting up drop7
I0805 08:58:25.826642  1040 net.cpp:157] Top shape: 10 4096 (40960)
I0805 08:58:25.826645  1040 net.cpp:165] Memory required for data: 76968960
I0805 08:58:25.826649  1040 layer_factory.hpp:77] Creating layer fc8_occlusion
I0805 08:58:25.826664  1040 net.cpp:106] Creating Layer fc8_occlusion
I0805 08:58:25.826669  1040 net.cpp:454] fc8_occlusion <- fc7
I0805 08:58:25.826676  1040 net.cpp:411] fc8_occlusion -> fc8_occlusion
I0805 08:58:25.828805  1040 net.cpp:150] Setting up fc8_occlusion
I0805 08:58:25.828824  1040 net.cpp:157] Top shape: 10 20 (200)
I0805 08:58:25.828829  1040 net.cpp:165] Memory required for data: 76969760
I0805 08:58:25.828837  1040 layer_factory.hpp:77] Creating layer prob
I0805 08:58:25.828848  1040 net.cpp:106] Creating Layer prob
I0805 08:58:25.828853  1040 net.cpp:454] prob <- fc8_occlusion
I0805 08:58:25.828863  1040 net.cpp:411] prob -> prob
I0805 08:58:25.829319  1040 net.cpp:150] Setting up prob
I0805 08:58:25.829339  1040 net.cpp:157] Top shape: 10 20 (200)
I0805 08:58:25.829344  1040 net.cpp:165] Memory required for data: 76970560
I0805 08:58:25.829349  1040 net.cpp:228] prob does not need backward computation.
I0805 08:58:25.829355  1040 net.cpp:228] fc8_occlusion does not need backward computation.
I0805 08:58:25.829360  1040 net.cpp:228] drop7 does not need backward computation.
I0805 08:58:25.829363  1040 net.cpp:228] relu7 does not need backward computation.
…
