discarding /home/haow3/miniconda2/bin from PATH
prepending /home/haow3/miniconda2/envs/cafferc3/bin to PATH
WARNING: Logging before InitGoogleLogging() is written to STDERR
I0805 08:58:01.481312 21337 net.cpp:49] Initializing net from parameters: 
name: "AlexNetOcclusion"
input: "data"
state {
  phase: TEST
}
input_shape {
  dim: 10
  dim: 3
  dim: 227
  dim: 227
}
layer {
  name: "conv1"
  type: "Convolution"
  bottom: "data"
  top: "conv1"
  param {
    lr_mult: 0
    decay_mult: 1
  }
  param {
    lr_mult: 0
    decay_mult: 0
  }
  convolution_param {
    num_output: 96
    kernel_size: 11
    stride: 4
    weight_filler {
      type: "gaussian"
      std: 0.01
    }
    bias_filler {
      type: "constant"
      value: 0
    }
  }
}
layer {
  name: "relu1"
  type: "ReLU"
  bottom: "conv1"
  top: "conv1"
}
layer {
  name: "norm1"
  type: "LRN"
  bottom: "conv1"
  top: "norm1"
  lrn_param {
    local_size: 5
    alpha: 0.0001
    beta: 0.75
  }
}
layer {
  name: "pool1"
  type: "Pooling"
  bottom: "norm1"
  top: "pool1"
  pooling_param {
    pool: MAX
    kernel_size: 3
    stride: 2
  }
}
layer {
  name: "conv2"
  type: "Convolution"
  bottom: "pool1"
  top: "conv2"
  param {
    lr_mult: 0
    decay_mult: 1
  }
  param {
    lr_mult: 0
    decay_mult: 0
  }
  convolution_param {
    num_output: 256
    pad: 2
    kernel_size: 5
    group: 2
    weight_filler {
      type: "gaussian"
      std: 0.01
    }
    bias_filler {
      type: "constant"
      value: 0.1
    }
  }
}
layer {
  name: "relu2"
  type: "ReLU"
  bottom: "conv2"
  top: "conv2"
}
layer {
  name: "norm2"
  type: "LRN"
  bottom: "conv2"
  top: "norm2"
  lrn_param {
    local_size: 5
    alpha: 0.0001
    beta: 0.75
  }
}
layer {
  name: "pool2"
  type: "Pooling"
  bottom: "norm2"
  top: "pool2"
  pooling_param {
    pool: MAX
    kernel_size: 3
    stride: 2
  }
}
layer {
  name: "conv3"
  type: "Convolution"
  bottom: "pool2"
  top: "conv3"
  param {
    lr_mult: 0
    decay_mult: 1
  }
  param {
    lr_mult: 0
    decay_mult: 0
  }
  convolution_param {
    num_output: 384
    pad: 1
    kernel_size: 3
    weight_filler {
      type: "gaussian"
      std: 0.01
    }
    bias_filler {
      type: "constant"
      value: 0
    }
  }
}
layer {
  name: "relu3"
  type: "ReLU"
  bottom: "conv3"
  top: "conv3"
}
layer {
  name: "conv4"
  type: "Convolution"
  bottom: "conv3"
  top: "conv4"
  param {
    lr_mult: 0
    decay_mult: 1
  }
  param {
    lr_mult: 0
    decay_mult: 0
  }
  convolution_param {
    num_output: 384
    pad: 1
    kernel_size: 3
    group: 2
    weight_filler {
      type: "gaussian"
      std: 0.01
    }
    bias_filler {
      type: "constant"
      value: 0.1
    }
  }
}
layer {
  name: "relu4"
  type: "ReLU"
  bottom: "conv4"
  top: "conv4"
}
layer {
  name: "conv5"
  type: "Convolution"
  bottom: "conv4"
  top: "conv5"
  param {
    lr_mult: 0
    decay_mult: 1
  }
  param {
    lr_mult: 0
    decay_mult: 0
  }
  convolution_param {
    num_output: 256
    pad: 1
    kernel_size: 3
    group: 2
    weight_filler {
      type: "gaussian"
      std: 0.01
    }
    bias_filler {
      type: "constant"
      value: 0.1
    }
  }
}
layer {
  name: "relu5"
  type: "ReLU"
  bottom: "conv5"
  top: "conv5"
}
layer {
  name: "pool5"
  type: "Pooling"
  bottom: "conv5"
  top: "pool5"
  pooling_param {
    pool: MAX
    kernel_size: 3
    stride: 2
  }
}
layer {
  name: "fc6"
  type: "InnerProduct"
  bottom: "pool5"
  top: "fc6"
  param {
    lr_mult: 0
    decay_mult: 1
  }
  param {
    lr_mult: 0
    decay_mult: 0
  }
  inner_product_param {
    num_output: 4096
    weight_filler {
      type: "gaussian"
      std: 0.005
    }
    bias_filler {
      type: "constant"
      value: 0.1
    }
  }
}
layer {
  name: "relu6"
  type: "ReLU"
  bottom: "fc6"
  top: "fc6"
}
layer {
  name: "drop6"
  type: "Dropout"
  bottom: "fc6"
  top: "fc6"
  dropout_param {
    dropout_ratio: 0.5
  }
}
layer {
  name: "fc7"
  type: "InnerProduct"
  bottom: "fc6"
  top: "fc7"
  param {
    lr_mult: 0
    decay_mult: 1
  }
  param {
    lr_mult: 0
    decay_mult: 0
  }
  inner_product_param {
    num_output: 4096
    weight_filler {
      type: "gaussian"
      std: 0.005
    }
    bias_filler {
      type: "constant"
      value: 0.1
    }
  }
}
layer {
  name: "relu7"
  type: "ReLU"
  bottom: "fc7"
  top: "fc7"
}
layer {
  name: "drop7"
  type: "Dropout"
  bottom: "fc7"
  top: "fc7"
  dropout_param {
    dropout_ratio: 0.5
  }
}
layer {
  name: "fc8_occlusion"
  type: "InnerProduct"
  bottom: "fc7"
  top: "fc8_occlusion"
  param {
    lr_mult: 1
    decay_mult: 1
  }
  param {
    lr_mult: 2
    decay_mult: 0
  }
  inner_product_param {
    num_output: 20
    weight_filler {
      type: "gaussian"
      std: 0.01
    }
    bias_filler {
      type: "constant"
      value: 0
    }
  }
}
layer {
  name: "prob"
  type: "Softmax"
  bottom: "fc8_occlusion"
  top: "prob"
}
I0805 08:58:01.481573 21337 net.cpp:413] Input 0 -> data
I0805 08:58:01.520283 21337 layer_factory.hpp:77] Creating layer conv1
I0805 08:58:01.520423 21337 net.cpp:106] Creating Layer conv1
I0805 08:58:01.520437 21337 net.cpp:454] conv1 <- data
I0805 08:58:01.520453 21337 net.cpp:411] conv1 -> conv1
I0805 08:58:01.798305 21337 net.cpp:150] Setting up conv1
I0805 08:58:01.798363 21337 net.cpp:157] Top shape: 10 96 55 55 (2904000)
I0805 08:58:01.798368 21337 net.cpp:165] Memory required for data: 11616000
I0805 08:58:01.798393 21337 layer_factory.hpp:77] Creating layer relu1
I0805 08:58:01.798410 21337 net.cpp:106] Creating Layer relu1
I0805 08:58:01.798415 21337 net.cpp:454] relu1 <- conv1
I0805 08:58:01.798423 21337 net.cpp:397] relu1 -> conv1 (in-place)
I0805 08:58:01.798732 21337 net.cpp:150] Setting up relu1
I0805 08:58:01.798743 21337 net.cpp:157] Top shape: 10 96 55 55 (2904000)
I0805 08:58:01.798748 21337 net.cpp:165] Memory required for data: 23232000
I0805 08:58:01.798751 21337 layer_factory.hpp:77] Creating layer norm1
I0805 08:58:01.798764 21337 net.cpp:106] Creating Layer norm1
I0805 08:58:01.798768 21337 net.cpp:454] norm1 <- conv1
I0805 08:58:01.798774 21337 net.cpp:411] norm1 -> norm1
I0805 08:58:01.798970 21337 net.cpp:150] Setting up norm1
I0805 08:58:01.798980 21337 net.cpp:157] Top shape: 10 96 55 55 (2904000)
I0805 08:58:01.798984 21337 net.cpp:165] Memory required for data: 34848000
I0805 08:58:01.798987 21337 layer_factory.hpp:77] Creating layer pool1
I0805 08:58:01.798997 21337 net.cpp:106] Creating Layer pool1
I0805 08:58:01.799001 21337 net.cpp:454] pool1 <- norm1
I0805 08:58:01.799007 21337 net.cpp:411] pool1 -> pool1
I0805 08:58:01.799052 21337 net.cpp:150] Setting up pool1
I0805 08:58:01.799060 21337 net.cpp:157] Top shape: 10 96 27 27 (699840)
I0805 08:58:01.799063 21337 net.cpp:165] Memory required for data: 37647360
I0805 08:58:01.799067 21337 layer_factory.hpp:77] Creating layer conv2
I0805 08:58:01.799084 21337 net.cpp:106] Creating Layer conv2
I0805 08:58:01.799088 21337 net.cpp:454] conv2 <- pool1
I0805 08:58:01.799095 21337 net.cpp:411] conv2 -> conv2
I0805 08:58:01.806006 21337 net.cpp:150] Setting up conv2
I0805 08:58:01.806068 21337 net.cpp:157] Top shape: 10 256 27 27 (1866240)
I0805 08:58:01.806073 21337 net.cpp:165] Memory required for data: 45112320
I0805 08:58:01.806097 21337 layer_factory.hpp:77] Creating layer relu2
I0805 08:58:01.806113 21337 net.cpp:106] Creating Layer relu2
I0805 08:58:01.806118 21337 net.cpp:454] relu2 <- conv2
I0805 08:58:01.806126 21337 net.cpp:397] relu2 -> conv2 (in-place)
I0805 08:58:01.806354 21337 net.cpp:150] Setting up relu2
I0805 08:58:01.806365 21337 net.cpp:157] Top shape: 10 256 27 27 (1866240)
I0805 08:58:01.806368 21337 net.cpp:165] Memory required for data: 52577280
I0805 08:58:01.806372 21337 layer_factory.hpp:77] Creating layer norm2
I0805 08:58:01.806385 21337 net.cpp:106] Creating Layer norm2
I0805 08:58:01.806390 21337 net.cpp:454] norm2 <- conv2
I0805 08:58:01.806396 21337 net.cpp:411] norm2 -> norm2
I0805 08:58:01.806833 21337 net.cpp:150] Setting up norm2
I0805 08:58:01.806851 21337 net.cpp:157] Top shape: 10 256 27 27 (1866240)
I0805 08:58:01.806855 21337 net.cpp:165] Memory required for data: 60042240
I0805 08:58:01.806859 21337 layer_factory.hpp:77] Creating layer pool2
I0805 08:58:01.806901 21337 net.cpp:106] Creating Layer pool2
I0805 08:58:01.806905 21337 net.cpp:454] pool2 <- norm2
I0805 08:58:01.806912 21337 net.cpp:411] pool2 -> pool2
I0805 08:58:01.806958 21337 net.cpp:150] Setting up pool2
I0805 08:58:01.806967 21337 net.cpp:157] Top shape: 10 256 13 13 (432640)
I0805 08:58:01.806970 21337 net.cpp:165] Memory required for data: 61772800
I0805 08:58:01.806973 21337 layer_factory.hpp:77] Creating layer conv3
I0805 08:58:01.806998 21337 net.cpp:106] Creating Layer conv3
I0805 08:58:01.807003 21337 net.cpp:454] conv3 <- pool2
I0805 08:58:01.807009 21337 net.cpp:411] conv3 -> conv3
I0805 08:58:01.820397 21337 net.cpp:150] Setting up conv3
I0805 08:58:01.820513 21337 net.cpp:157] Top shape: 10 384 13 13 (648960)
I0805 08:58:01.820516 21337 net.cpp:165] Memory required for data: 64368640
I0805 08:58:01.820555 21337 layer_factory.hpp:77] Creating layer relu3
I0805 08:58:01.820582 21337 net.cpp:106] Creating Layer relu3
I0805 08:58:01.820590 21337 net.cpp:454] relu3 <- conv3
I0805 08:58:01.820600 21337 net.cpp:397] relu3 -> conv3 (in-place)
I0805 08:58:01.820788 21337 net.cpp:150] Setting up relu3
I0805 08:58:01.820798 21337 net.cpp:157] Top shape: 10 384 13 13 (648960)
I0805 08:58:01.820801 21337 net.cpp:165] Memory required for data: 66964480
I0805 08:58:01.820806 21337 layer_factory.hpp:77] Creating layer conv4
I0805 08:58:01.820832 21337 net.cpp:106] Creating Layer conv4
I0805 08:58:01.820837 21337 net.cpp:454] conv4 <- conv3
I0805 08:58:01.820842 21337 net.cpp:411] conv4 -> conv4
I0805 08:58:01.836817 21337 net.cpp:150] Setting up conv4
I0805 08:58:01.836932 21337 net.cpp:157] Top shape: 10 384 13 13 (648960)
I0805 08:58:01.836937 21337 net.cpp:165] Memory required for data: 69560320
I0805 08:58:01.836958 21337 layer_factory.hpp:77] Creating layer relu4
I0805 08:58:01.836985 21337 net.cpp:106] Creating Layer relu4
I0805 08:58:01.836993 21337 net.cpp:454] relu4 <- conv4
I0805 08:58:01.837008 21337 net.cpp:397] relu4 -> conv4 (in-place)
I0805 08:58:01.837779 21337 net.cpp:150] Setting up relu4
I0805 08:58:01.837790 21337 net.cpp:157] Top shape: 10 384 13 13 (648960)
I0805 08:58:01.837793 21337 net.cpp:165] Memory required for data: 72156160
I0805 08:58:01.837797 21337 layer_factory.hpp:77] Creating layer conv5
I0805 08:58:01.837822 21337 net.cpp:106] Creating Layer conv5
I0805 08:58:01.837826 21337 net.cpp:454] conv5 <- conv4
I0805 08:58:01.837832 21337 net.cpp:411] conv5 -> conv5
I0805 08:58:01.854408 21337 net.cpp:150] Setting up conv5
I0805 08:58:01.854445 21337 net.cpp:157] Top shape: 10 256 13 13 (432640)
I0805 08:58:01.854449 21337 net.cpp:165] Memory required for data: 73886720
I0805 08:58:01.854465 21337 layer_factory.hpp:77] Creating layer relu5
I0805 08:58:01.854478 21337 net.cpp:106] Creating Layer relu5
I0805 08:58:01.854483 21337 net.cpp:454] relu5 <- conv5
I0805 08:58:01.854490 21337 net.cpp:397] relu5 -> conv5 (in-place)
I0805 08:58:01.856647 21337 net.cpp:150] Setting up relu5
I0805 08:58:01.856657 21337 net.cpp:157] Top shape: 10 256 13 13 (432640)
I0805 08:58:01.856660 21337 net.cpp:165] Memory required for data: 75617280
I0805 08:58:01.856664 21337 layer_factory.hpp:77] Creating layer pool5
I0805 08:58:01.856675 21337 net.cpp:106] Creating Layer pool5
I0805 08:58:01.856679 21337 net.cpp:454] pool5 <- conv5
I0805 08:58:01.856686 21337 net.cpp:411] pool5 -> pool5
I0805 08:58:01.856736 21337 net.cpp:150] Setting up pool5
I0805 08:58:01.856744 21337 net.cpp:157] Top shape: 10 256 6 6 (92160)
I0805 08:58:01.856747 21337 net.cpp:165] Memory required for data: 75985920
I0805 08:58:01.856750 21337 layer_factory.hpp:77] Creating layer fc6
I0805 08:58:01.856770 21337 net.cpp:106] Creating Layer fc6
I0805 08:58:01.856773 21337 net.cpp:454] fc6 <- pool5
I0805 08:58:01.856781 21337 net.cpp:411] fc6 -> fc6
I0805 08:58:02.328519 21337 net.cpp:150] Setting up fc6
I0805 08:58:02.328600 21337 net.cpp:157] Top shape: 10 4096 (40960)
I0805 08:58:02.328618 21337 net.cpp:165] Memory required for data: 76149760
I0805 08:58:02.328639 21337 layer_factory.hpp:77] Creating layer relu6
I0805 08:58:02.328696 21337 net.cpp:106] Creating Layer relu6
I0805 08:58:02.328706 21337 net.cpp:454] relu6 <- fc6
I0805 08:58:02.328722 21337 net.cpp:397] relu6 -> fc6 (in-place)
I0805 08:58:02.329426 21337 net.cpp:150] Setting up relu6
I0805 08:58:02.329440 21337 net.cpp:157] Top shape: 10 4096 (40960)
I0805 08:58:02.329444 21337 net.cpp:165] Memory required for data: 76313600
I0805 08:58:02.329448 21337 layer_factory.hpp:77] Creating layer drop6
I0805 08:58:02.329459 21337 net.cpp:106] Creating Layer drop6
I0805 08:58:02.329463 21337 net.cpp:454] drop6 <- fc6
I0805 08:58:02.329469 21337 net.cpp:397] drop6 -> fc6 (in-place)
I0805 08:58:02.329501 21337 net.cpp:150] Setting up drop6
I0805 08:58:02.329509 21337 net.cpp:157] Top shape: 10 4096 (40960)
I0805 08:58:02.329511 21337 net.cpp:165] Memory required for data: 76477440
I0805 08:58:02.329515 21337 layer_factory.hpp:77] Creating layer fc7
I0805 08:58:02.329525 21337 net.cpp:106] Creating Layer fc7
I0805 08:58:02.329530 21337 net.cpp:454] fc7 <- fc6
I0805 08:58:02.329536 21337 net.cpp:411] fc7 -> fc7
I0805 08:58:02.540627 21337 net.cpp:150] Setting up fc7
I0805 08:58:02.540767 21337 net.cpp:157] Top shape: 10 4096 (40960)
I0805 08:58:02.540771 21337 net.cpp:165] Memory required for data: 76641280
I0805 08:58:02.540791 21337 layer_factory.hpp:77] Creating layer relu7
I0805 08:58:02.540817 21337 net.cpp:106] Creating Layer relu7
I0805 08:58:02.540825 21337 net.cpp:454] relu7 <- fc7
I0805 08:58:02.540840 21337 net.cpp:397] relu7 -> fc7 (in-place)
I0805 08:58:02.541146 21337 net.cpp:150] Setting up relu7
I0805 08:58:02.541157 21337 net.cpp:157] Top shape: 10 4096 (40960)
I0805 08:58:02.541160 21337 net.cpp:165] Memory required for data: 76805120
I0805 08:58:02.541164 21337 layer_factory.hpp:77] Creating layer drop7
I0805 08:58:02.541180 21337 net.cpp:106] Creating Layer drop7
I0805 08:58:02.541184 21337 net.cpp:454] drop7 <- fc7
I0805 08:58:02.541190 21337 net.cpp:397] drop7 -> fc7 (in-place)
I0805 08:58:02.541224 21337 net.cpp:150] Setting up drop7
I0805 08:58:02.541229 21337 net.cpp:157] Top shape: 10 4096 (40960)
I0805 08:58:02.541232 21337 net.cpp:165] Memory required for data: 76968960
I0805 08:58:02.541236 21337 layer_factory.hpp:77] Creating layer fc8_occlusion
I0805 08:58:02.541250 21337 net.cpp:106] Creating Layer fc8_occlusion
I0805 08:58:02.541254 21337 net.cpp:454] fc8_occlusion <- fc7
I0805 08:58:02.541261 21337 net.cpp:411] fc8_occlusion -> fc8_occlusion
I0805 08:58:02.543206 21337 net.cpp:150] Setting up fc8_occlusion
I0805 08:58:02.543220 21337 net.cpp:157] Top shape: 10 20 (200)
I0805 08:58:02.543225 21337 net.cpp:165] Memory required for data: 76969760
I0805 08:58:02.543231 21337 layer_factory.hpp:77] Creating layer prob
I0805 08:58:02.543241 21337 net.cpp:106] Creating Layer prob
I0805 08:58:02.543246 21337 net.cpp:454] prob <- fc8_occlusion
I0805 08:58:02.543251 21337 net.cpp:411] prob -> prob
I0805 08:58:02.543627 21337 net.cpp:150] Setting up prob
I0805 08:58:02.543639 21337 net.cpp:157] Top shape: 10 20 (200)
I0805 08:58:02.543643 21337 net.cpp:165] Memory required for data: 76970560
I0805 08:58:02.543648 21337 net.cpp:228] prob does not need backward computation.
I0805 08:58:02.543653 21337 net.cpp:228] fc8_occlusion does not need backward computation.
I0805 08:58:02.543655 21337 net.cpp:228] drop7 does not need backward computation.
I0805 08:58:02.543659 21337 net.cpp:228] relu7 does not need backward computation.
…
