discarding /home/haow3/miniconda2/bin from PATH
prepending /home/haow3/miniconda2/envs/cafferc3/bin to PATH
WARNING: Logging before InitGoogleLogging() is written to STDERR
I0805 08:57:28.297684 32587 net.cpp:49] Initializing net from parameters: 
name: "AlexNetOcclusion"
input: "data"
state {
  phase: TEST
}
input_shape {
  dim: 10
  dim: 3
  dim: 227
  dim: 227
}
layer {
  name: "conv1"
  type: "Convolution"
  bottom: "data"
  top: "conv1"
  param {
    lr_mult: 0
    decay_mult: 1
  }
  param {
    lr_mult: 0
    decay_mult: 0
  }
  convolution_param {
    num_output: 96
    kernel_size: 11
    stride: 4
    weight_filler {
      type: "gaussian"
      std: 0.01
    }
    bias_filler {
      type: "constant"
      value: 0
    }
  }
}
layer {
  name: "relu1"
  type: "ReLU"
  bottom: "conv1"
  top: "conv1"
}
layer {
  name: "norm1"
  type: "LRN"
  bottom: "conv1"
  top: "norm1"
  lrn_param {
    local_size: 5
    alpha: 0.0001
    beta: 0.75
  }
}
layer {
  name: "pool1"
  type: "Pooling"
  bottom: "norm1"
  top: "pool1"
  pooling_param {
    pool: MAX
    kernel_size: 3
    stride: 2
  }
}
layer {
  name: "conv2"
  type: "Convolution"
  bottom: "pool1"
  top: "conv2"
  param {
    lr_mult: 0
    decay_mult: 1
  }
  param {
    lr_mult: 0
    decay_mult: 0
  }
  convolution_param {
    num_output: 256
    pad: 2
    kernel_size: 5
    group: 2
    weight_filler {
      type: "gaussian"
      std: 0.01
    }
    bias_filler {
      type: "constant"
      value: 0.1
    }
  }
}
layer {
  name: "relu2"
  type: "ReLU"
  bottom: "conv2"
  top: "conv2"
}
layer {
  name: "norm2"
  type: "LRN"
  bottom: "conv2"
  top: "norm2"
  lrn_param {
    local_size: 5
    alpha: 0.0001
    beta: 0.75
  }
}
layer {
  name: "pool2"
  type: "Pooling"
  bottom: "norm2"
  top: "pool2"
  pooling_param {
    pool: MAX
    kernel_size: 3
    stride: 2
  }
}
layer {
  name: "conv3"
  type: "Convolution"
  bottom: "pool2"
  top: "conv3"
  param {
    lr_mult: 0
    decay_mult: 1
  }
  param {
    lr_mult: 0
    decay_mult: 0
  }
  convolution_param {
    num_output: 384
    pad: 1
    kernel_size: 3
    weight_filler {
      type: "gaussian"
      std: 0.01
    }
    bias_filler {
      type: "constant"
      value: 0
    }
  }
}
layer {
  name: "relu3"
  type: "ReLU"
  bottom: "conv3"
  top: "conv3"
}
layer {
  name: "conv4"
  type: "Convolution"
  bottom: "conv3"
  top: "conv4"
  param {
    lr_mult: 0
    decay_mult: 1
  }
  param {
    lr_mult: 0
    decay_mult: 0
  }
  convolution_param {
    num_output: 384
    pad: 1
    kernel_size: 3
    group: 2
    weight_filler {
      type: "gaussian"
      std: 0.01
    }
    bias_filler {
      type: "constant"
      value: 0.1
    }
  }
}
layer {
  name: "relu4"
  type: "ReLU"
  bottom: "conv4"
  top: "conv4"
}
layer {
  name: "conv5"
  type: "Convolution"
  bottom: "conv4"
  top: "conv5"
  param {
    lr_mult: 0
    decay_mult: 1
  }
  param {
    lr_mult: 0
    decay_mult: 0
  }
  convolution_param {
    num_output: 256
    pad: 1
    kernel_size: 3
    group: 2
    weight_filler {
      type: "gaussian"
      std: 0.01
    }
    bias_filler {
      type: "constant"
      value: 0.1
    }
  }
}
layer {
  name: "relu5"
  type: "ReLU"
  bottom: "conv5"
  top: "conv5"
}
layer {
  name: "pool5"
  type: "Pooling"
  bottom: "conv5"
  top: "pool5"
  pooling_param {
    pool: MAX
    kernel_size: 3
    stride: 2
  }
}
layer {
  name: "fc6"
  type: "InnerProduct"
  bottom: "pool5"
  top: "fc6"
  param {
    lr_mult: 0
    decay_mult: 1
  }
  param {
    lr_mult: 0
    decay_mult: 0
  }
  inner_product_param {
    num_output: 4096
    weight_filler {
      type: "gaussian"
      std: 0.005
    }
    bias_filler {
      type: "constant"
      value: 0.1
    }
  }
}
layer {
  name: "relu6"
  type: "ReLU"
  bottom: "fc6"
  top: "fc6"
}
layer {
  name: "drop6"
  type: "Dropout"
  bottom: "fc6"
  top: "fc6"
  dropout_param {
    dropout_ratio: 0.5
  }
}
layer {
  name: "fc7"
  type: "InnerProduct"
  bottom: "fc6"
  top: "fc7"
  param {
    lr_mult: 0
    decay_mult: 1
  }
  param {
    lr_mult: 0
    decay_mult: 0
  }
  inner_product_param {
    num_output: 4096
    weight_filler {
      type: "gaussian"
      std: 0.005
    }
    bias_filler {
      type: "constant"
      value: 0.1
    }
  }
}
layer {
  name: "relu7"
  type: "ReLU"
  bottom: "fc7"
  top: "fc7"
}
layer {
  name: "drop7"
  type: "Dropout"
  bottom: "fc7"
  top: "fc7"
  dropout_param {
    dropout_ratio: 0.5
  }
}
layer {
  name: "fc8_occlusion"
  type: "InnerProduct"
  bottom: "fc7"
  top: "fc8_occlusion"
  param {
    lr_mult: 1
    decay_mult: 1
  }
  param {
    lr_mult: 2
    decay_mult: 0
  }
  inner_product_param {
    num_output: 20
    weight_filler {
      type: "gaussian"
      std: 0.01
    }
    bias_filler {
      type: "constant"
      value: 0
    }
  }
}
layer {
  name: "prob"
  type: "Softmax"
  bottom: "fc8_occlusion"
  top: "prob"
}
I0805 08:57:28.297852 32587 net.cpp:413] Input 0 -> data
I0805 08:57:28.309758 32587 layer_factory.hpp:77] Creating layer conv1
I0805 08:57:28.309799 32587 net.cpp:106] Creating Layer conv1
I0805 08:57:28.309805 32587 net.cpp:454] conv1 <- data
I0805 08:57:28.309815 32587 net.cpp:411] conv1 -> conv1
I0805 08:57:28.565693 32587 net.cpp:150] Setting up conv1
I0805 08:57:28.565722 32587 net.cpp:157] Top shape: 10 96 55 55 (2904000)
I0805 08:57:28.565728 32587 net.cpp:165] Memory required for data: 11616000
I0805 08:57:28.565747 32587 layer_factory.hpp:77] Creating layer relu1
I0805 08:57:28.565762 32587 net.cpp:106] Creating Layer relu1
I0805 08:57:28.565767 32587 net.cpp:454] relu1 <- conv1
I0805 08:57:28.565773 32587 net.cpp:397] relu1 -> conv1 (in-place)
I0805 08:57:28.566083 32587 net.cpp:150] Setting up relu1
I0805 08:57:28.566097 32587 net.cpp:157] Top shape: 10 96 55 55 (2904000)
I0805 08:57:28.566102 32587 net.cpp:165] Memory required for data: 23232000
I0805 08:57:28.566107 32587 layer_factory.hpp:77] Creating layer norm1
I0805 08:57:28.566119 32587 net.cpp:106] Creating Layer norm1
I0805 08:57:28.566124 32587 net.cpp:454] norm1 <- conv1
I0805 08:57:28.566130 32587 net.cpp:411] norm1 -> norm1
I0805 08:57:28.566331 32587 net.cpp:150] Setting up norm1
I0805 08:57:28.566342 32587 net.cpp:157] Top shape: 10 96 55 55 (2904000)
I0805 08:57:28.566346 32587 net.cpp:165] Memory required for data: 34848000
I0805 08:57:28.566351 32587 layer_factory.hpp:77] Creating layer pool1
I0805 08:57:28.566360 32587 net.cpp:106] Creating Layer pool1
I0805 08:57:28.566365 32587 net.cpp:454] pool1 <- norm1
I0805 08:57:28.566370 32587 net.cpp:411] pool1 -> pool1
I0805 08:57:28.566411 32587 net.cpp:150] Setting up pool1
I0805 08:57:28.566418 32587 net.cpp:157] Top shape: 10 96 27 27 (699840)
I0805 08:57:28.566426 32587 net.cpp:165] Memory required for data: 37647360
I0805 08:57:28.566431 32587 layer_factory.hpp:77] Creating layer conv2
I0805 08:57:28.566445 32587 net.cpp:106] Creating Layer conv2
I0805 08:57:28.566450 32587 net.cpp:454] conv2 <- pool1
I0805 08:57:28.566457 32587 net.cpp:411] conv2 -> conv2
I0805 08:57:28.573168 32587 net.cpp:150] Setting up conv2
I0805 08:57:28.573186 32587 net.cpp:157] Top shape: 10 256 27 27 (1866240)
I0805 08:57:28.573191 32587 net.cpp:165] Memory required for data: 45112320
I0805 08:57:28.573204 32587 layer_factory.hpp:77] Creating layer relu2
I0805 08:57:28.573211 32587 net.cpp:106] Creating Layer relu2
I0805 08:57:28.573215 32587 net.cpp:454] relu2 <- conv2
I0805 08:57:28.573222 32587 net.cpp:397] relu2 -> conv2 (in-place)
I0805 08:57:28.573428 32587 net.cpp:150] Setting up relu2
I0805 08:57:28.573446 32587 net.cpp:157] Top shape: 10 256 27 27 (1866240)
I0805 08:57:28.573452 32587 net.cpp:165] Memory required for data: 52577280
I0805 08:57:28.573459 32587 layer_factory.hpp:77] Creating layer norm2
I0805 08:57:28.573470 32587 net.cpp:106] Creating Layer norm2
I0805 08:57:28.573477 32587 net.cpp:454] norm2 <- conv2
I0805 08:57:28.573487 32587 net.cpp:411] norm2 -> norm2
I0805 08:57:28.573825 32587 net.cpp:150] Setting up norm2
I0805 08:57:28.573840 32587 net.cpp:157] Top shape: 10 256 27 27 (1866240)
I0805 08:57:28.573844 32587 net.cpp:165] Memory required for data: 60042240
I0805 08:57:28.573849 32587 layer_factory.hpp:77] Creating layer pool2
I0805 08:57:28.573863 32587 net.cpp:106] Creating Layer pool2
I0805 08:57:28.573868 32587 net.cpp:454] pool2 <- norm2
I0805 08:57:28.573874 32587 net.cpp:411] pool2 -> pool2
I0805 08:57:28.573915 32587 net.cpp:150] Setting up pool2
I0805 08:57:28.573922 32587 net.cpp:157] Top shape: 10 256 13 13 (432640)
I0805 08:57:28.573926 32587 net.cpp:165] Memory required for data: 61772800
I0805 08:57:28.573930 32587 layer_factory.hpp:77] Creating layer conv3
I0805 08:57:28.573942 32587 net.cpp:106] Creating Layer conv3
I0805 08:57:28.573946 32587 net.cpp:454] conv3 <- pool2
I0805 08:57:28.573953 32587 net.cpp:411] conv3 -> conv3
I0805 08:57:28.588268 32587 net.cpp:150] Setting up conv3
I0805 08:57:28.588286 32587 net.cpp:157] Top shape: 10 384 13 13 (648960)
I0805 08:57:28.588290 32587 net.cpp:165] Memory required for data: 64368640
I0805 08:57:28.588302 32587 layer_factory.hpp:77] Creating layer relu3
I0805 08:57:28.588311 32587 net.cpp:106] Creating Layer relu3
I0805 08:57:28.588316 32587 net.cpp:454] relu3 <- conv3
I0805 08:57:28.588322 32587 net.cpp:397] relu3 -> conv3 (in-place)
I0805 08:57:28.588536 32587 net.cpp:150] Setting up relu3
I0805 08:57:28.588547 32587 net.cpp:157] Top shape: 10 384 13 13 (648960)
I0805 08:57:28.588551 32587 net.cpp:165] Memory required for data: 66964480
I0805 08:57:28.588557 32587 layer_factory.hpp:77] Creating layer conv4
I0805 08:57:28.588569 32587 net.cpp:106] Creating Layer conv4
I0805 08:57:28.588574 32587 net.cpp:454] conv4 <- conv3
I0805 08:57:28.588582 32587 net.cpp:411] conv4 -> conv4
I0805 08:57:28.599629 32587 net.cpp:150] Setting up conv4
I0805 08:57:28.599647 32587 net.cpp:157] Top shape: 10 384 13 13 (648960)
I0805 08:57:28.599653 32587 net.cpp:165] Memory required for data: 69560320
I0805 08:57:28.599660 32587 layer_factory.hpp:77] Creating layer relu4
I0805 08:57:28.599673 32587 net.cpp:106] Creating Layer relu4
I0805 08:57:28.599678 32587 net.cpp:454] relu4 <- conv4
I0805 08:57:28.599684 32587 net.cpp:397] relu4 -> conv4 (in-place)
I0805 08:57:28.599881 32587 net.cpp:150] Setting up relu4
I0805 08:57:28.599891 32587 net.cpp:157] Top shape: 10 384 13 13 (648960)
I0805 08:57:28.599896 32587 net.cpp:165] Memory required for data: 72156160
I0805 08:57:28.599900 32587 layer_factory.hpp:77] Creating layer conv5
I0805 08:57:28.599915 32587 net.cpp:106] Creating Layer conv5
I0805 08:57:28.599920 32587 net.cpp:454] conv5 <- conv4
I0805 08:57:28.599930 32587 net.cpp:411] conv5 -> conv5
I0805 08:57:28.608326 32587 net.cpp:150] Setting up conv5
I0805 08:57:28.608366 32587 net.cpp:157] Top shape: 10 256 13 13 (432640)
I0805 08:57:28.608371 32587 net.cpp:165] Memory required for data: 73886720
I0805 08:57:28.608388 32587 layer_factory.hpp:77] Creating layer relu5
I0805 08:57:28.608400 32587 net.cpp:106] Creating Layer relu5
I0805 08:57:28.608407 32587 net.cpp:454] relu5 <- conv5
I0805 08:57:28.608417 32587 net.cpp:397] relu5 -> conv5 (in-place)
I0805 08:57:28.608651 32587 net.cpp:150] Setting up relu5
I0805 08:57:28.608665 32587 net.cpp:157] Top shape: 10 256 13 13 (432640)
I0805 08:57:28.608669 32587 net.cpp:165] Memory required for data: 75617280
I0805 08:57:28.608675 32587 layer_factory.hpp:77] Creating layer pool5
I0805 08:57:28.608683 32587 net.cpp:106] Creating Layer pool5
I0805 08:57:28.608687 32587 net.cpp:454] pool5 <- conv5
I0805 08:57:28.608696 32587 net.cpp:411] pool5 -> pool5
I0805 08:57:28.608752 32587 net.cpp:150] Setting up pool5
I0805 08:57:28.608760 32587 net.cpp:157] Top shape: 10 256 6 6 (92160)
I0805 08:57:28.608764 32587 net.cpp:165] Memory required for data: 75985920
I0805 08:57:28.608768 32587 layer_factory.hpp:77] Creating layer fc6
I0805 08:57:28.608785 32587 net.cpp:106] Creating Layer fc6
I0805 08:57:28.608789 32587 net.cpp:454] fc6 <- pool5
I0805 08:57:28.608798 32587 net.cpp:411] fc6 -> fc6
I0805 08:57:29.119372 32587 net.cpp:150] Setting up fc6
I0805 08:57:29.119415 32587 net.cpp:157] Top shape: 10 4096 (40960)
I0805 08:57:29.119426 32587 net.cpp:165] Memory required for data: 76149760
I0805 08:57:29.119437 32587 layer_factory.hpp:77] Creating layer relu6
I0805 08:57:29.119465 32587 net.cpp:106] Creating Layer relu6
I0805 08:57:29.119472 32587 net.cpp:454] relu6 <- fc6
I0805 08:57:29.119480 32587 net.cpp:397] relu6 -> fc6 (in-place)
I0805 08:57:29.120003 32587 net.cpp:150] Setting up relu6
I0805 08:57:29.120019 32587 net.cpp:157] Top shape: 10 4096 (40960)
I0805 08:57:29.120024 32587 net.cpp:165] Memory required for data: 76313600
I0805 08:57:29.120029 32587 layer_factory.hpp:77] Creating layer drop6
I0805 08:57:29.120038 32587 net.cpp:106] Creating Layer drop6
I0805 08:57:29.120043 32587 net.cpp:454] drop6 <- fc6
I0805 08:57:29.120049 32587 net.cpp:397] drop6 -> fc6 (in-place)
I0805 08:57:29.120085 32587 net.cpp:150] Setting up drop6
I0805 08:57:29.120092 32587 net.cpp:157] Top shape: 10 4096 (40960)
I0805 08:57:29.120095 32587 net.cpp:165] Memory required for data: 76477440
I0805 08:57:29.120100 32587 layer_factory.hpp:77] Creating layer fc7
I0805 08:57:29.120111 32587 net.cpp:106] Creating Layer fc7
I0805 08:57:29.120116 32587 net.cpp:454] fc7 <- fc6
I0805 08:57:29.120122 32587 net.cpp:411] fc7 -> fc7
I0805 08:57:29.347498 32587 net.cpp:150] Setting up fc7
I0805 08:57:29.347527 32587 net.cpp:157] Top shape: 10 4096 (40960)
I0805 08:57:29.347532 32587 net.cpp:165] Memory required for data: 76641280
I0805 08:57:29.347542 32587 layer_factory.hpp:77] Creating layer relu7
I0805 08:57:29.347551 32587 net.cpp:106] Creating Layer relu7
I0805 08:57:29.347558 32587 net.cpp:454] relu7 <- fc7
I0805 08:57:29.347564 32587 net.cpp:397] relu7 -> fc7 (in-place)
I0805 08:57:29.347820 32587 net.cpp:150] Setting up relu7
I0805 08:57:29.347833 32587 net.cpp:157] Top shape: 10 4096 (40960)
I0805 08:57:29.347837 32587 net.cpp:165] Memory required for data: 76805120
I0805 08:57:29.347842 32587 layer_factory.hpp:77] Creating layer drop7
I0805 08:57:29.347851 32587 net.cpp:106] Creating Layer drop7
I0805 08:57:29.347856 32587 net.cpp:454] drop7 <- fc7
I0805 08:57:29.347862 32587 net.cpp:397] drop7 -> fc7 (in-place)
I0805 08:57:29.347894 32587 net.cpp:150] Setting up drop7
I0805 08:57:29.347901 32587 net.cpp:157] Top shape: 10 4096 (40960)
I0805 08:57:29.347904 32587 net.cpp:165] Memory required for data: 76968960
I0805 08:57:29.347908 32587 layer_factory.hpp:77] Creating layer fc8_occlusion
I0805 08:57:29.347920 32587 net.cpp:106] Creating Layer fc8_occlusion
I0805 08:57:29.347924 32587 net.cpp:454] fc8_occlusion <- fc7
I0805 08:57:29.347931 32587 net.cpp:411] fc8_occlusion -> fc8_occlusion
I0805 08:57:29.349706 32587 net.cpp:150] Setting up fc8_occlusion
I0805 08:57:29.349721 32587 net.cpp:157] Top shape: 10 20 (200)
I0805 08:57:29.349725 32587 net.cpp:165] Memory required for data: 76969760
I0805 08:57:29.349733 32587 layer_factory.hpp:77] Creating layer prob
I0805 08:57:29.349742 32587 net.cpp:106] Creating Layer prob
I0805 08:57:29.349746 32587 net.cpp:454] prob <- fc8_occlusion
I0805 08:57:29.349753 32587 net.cpp:411] prob -> prob
I0805 08:57:29.350152 32587 net.cpp:150] Setting up prob
I0805 08:57:29.350168 32587 net.cpp:157] Top shape: 10 20 (200)
I0805 08:57:29.350173 32587 net.cpp:165] Memory required for data: 76970560
I0805 08:57:29.350178 32587 net.cpp:228] prob does not need backward computation.
I0805 08:57:29.350183 32587 net.cpp:228] fc8_occlusion does not need backward computation.
I0805 08:57:29.350186 32587 net.cpp:228] drop7 does not need backward computation.
I0805 08:57:29.350189 32587 net.cpp:228] relu7 does not need backward computation.
…
