discarding /home/haow3/miniconda2/bin from PATH
prepending /home/haow3/miniconda2/envs/cafferc3/bin to PATH
WARNING: Logging before InitGoogleLogging() is written to STDERR
I0805 08:58:12.279566 21437 net.cpp:49] Initializing net from parameters: 
name: "AlexNetOcclusion"
input: "data"
state {
  phase: TEST
}
input_shape {
  dim: 10
  dim: 3
  dim: 227
  dim: 227
}
layer {
  name: "conv1"
  type: "Convolution"
  bottom: "data"
  top: "conv1"
  param {
    lr_mult: 0
    decay_mult: 1
  }
  param {
    lr_mult: 0
    decay_mult: 0
  }
  convolution_param {
    num_output: 96
    kernel_size: 11
    stride: 4
    weight_filler {
      type: "gaussian"
      std: 0.01
    }
    bias_filler {
      type: "constant"
      value: 0
    }
  }
}
layer {
  name: "relu1"
  type: "ReLU"
  bottom: "conv1"
  top: "conv1"
}
layer {
  name: "norm1"
  type: "LRN"
  bottom: "conv1"
  top: "norm1"
  lrn_param {
    local_size: 5
    alpha: 0.0001
    beta: 0.75
  }
}
layer {
  name: "pool1"
  type: "Pooling"
  bottom: "norm1"
  top: "pool1"
  pooling_param {
    pool: MAX
    kernel_size: 3
    stride: 2
  }
}
layer {
  name: "conv2"
  type: "Convolution"
  bottom: "pool1"
  top: "conv2"
  param {
    lr_mult: 0
    decay_mult: 1
  }
  param {
    lr_mult: 0
    decay_mult: 0
  }
  convolution_param {
    num_output: 256
    pad: 2
    kernel_size: 5
    group: 2
    weight_filler {
      type: "gaussian"
      std: 0.01
    }
    bias_filler {
      type: "constant"
      value: 0.1
    }
  }
}
layer {
  name: "relu2"
  type: "ReLU"
  bottom: "conv2"
  top: "conv2"
}
layer {
  name: "norm2"
  type: "LRN"
  bottom: "conv2"
  top: "norm2"
  lrn_param {
    local_size: 5
    alpha: 0.0001
    beta: 0.75
  }
}
layer {
  name: "pool2"
  type: "Pooling"
  bottom: "norm2"
  top: "pool2"
  pooling_param {
    pool: MAX
    kernel_size: 3
    stride: 2
  }
}
layer {
  name: "conv3"
  type: "Convolution"
  bottom: "pool2"
  top: "conv3"
  param {
    lr_mult: 0
    decay_mult: 1
  }
  param {
    lr_mult: 0
    decay_mult: 0
  }
  convolution_param {
    num_output: 384
    pad: 1
    kernel_size: 3
    weight_filler {
      type: "gaussian"
      std: 0.01
    }
    bias_filler {
      type: "constant"
      value: 0
    }
  }
}
layer {
  name: "relu3"
  type: "ReLU"
  bottom: "conv3"
  top: "conv3"
}
layer {
  name: "conv4"
  type: "Convolution"
  bottom: "conv3"
  top: "conv4"
  param {
    lr_mult: 0
    decay_mult: 1
  }
  param {
    lr_mult: 0
    decay_mult: 0
  }
  convolution_param {
    num_output: 384
    pad: 1
    kernel_size: 3
    group: 2
    weight_filler {
      type: "gaussian"
      std: 0.01
    }
    bias_filler {
      type: "constant"
      value: 0.1
    }
  }
}
layer {
  name: "relu4"
  type: "ReLU"
  bottom: "conv4"
  top: "conv4"
}
layer {
  name: "conv5"
  type: "Convolution"
  bottom: "conv4"
  top: "conv5"
  param {
    lr_mult: 0
    decay_mult: 1
  }
  param {
    lr_mult: 0
    decay_mult: 0
  }
  convolution_param {
    num_output: 256
    pad: 1
    kernel_size: 3
    group: 2
    weight_filler {
      type: "gaussian"
      std: 0.01
    }
    bias_filler {
      type: "constant"
      value: 0.1
    }
  }
}
layer {
  name: "relu5"
  type: "ReLU"
  bottom: "conv5"
  top: "conv5"
}
layer {
  name: "pool5"
  type: "Pooling"
  bottom: "conv5"
  top: "pool5"
  pooling_param {
    pool: MAX
    kernel_size: 3
    stride: 2
  }
}
layer {
  name: "fc6"
  type: "InnerProduct"
  bottom: "pool5"
  top: "fc6"
  param {
    lr_mult: 0
    decay_mult: 1
  }
  param {
    lr_mult: 0
    decay_mult: 0
  }
  inner_product_param {
    num_output: 4096
    weight_filler {
      type: "gaussian"
      std: 0.005
    }
    bias_filler {
      type: "constant"
      value: 0.1
    }
  }
}
layer {
  name: "relu6"
  type: "ReLU"
  bottom: "fc6"
  top: "fc6"
}
layer {
  name: "drop6"
  type: "Dropout"
  bottom: "fc6"
  top: "fc6"
  dropout_param {
    dropout_ratio: 0.5
  }
}
layer {
  name: "fc7"
  type: "InnerProduct"
  bottom: "fc6"
  top: "fc7"
  param {
    lr_mult: 0
    decay_mult: 1
  }
  param {
    lr_mult: 0
    decay_mult: 0
  }
  inner_product_param {
    num_output: 4096
    weight_filler {
      type: "gaussian"
      std: 0.005
    }
    bias_filler {
      type: "constant"
      value: 0.1
    }
  }
}
layer {
  name: "relu7"
  type: "ReLU"
  bottom: "fc7"
  top: "fc7"
}
layer {
  name: "drop7"
  type: "Dropout"
  bottom: "fc7"
  top: "fc7"
  dropout_param {
    dropout_ratio: 0.5
  }
}
layer {
  name: "fc8_occlusion"
  type: "InnerProduct"
  bottom: "fc7"
  top: "fc8_occlusion"
  param {
    lr_mult: 1
    decay_mult: 1
  }
  param {
    lr_mult: 2
    decay_mult: 0
  }
  inner_product_param {
    num_output: 20
    weight_filler {
      type: "gaussian"
      std: 0.01
    }
    bias_filler {
      type: "constant"
      value: 0
    }
  }
}
layer {
  name: "prob"
  type: "Softmax"
  bottom: "fc8_occlusion"
  top: "prob"
}
I0805 08:58:12.279721 21437 net.cpp:413] Input 0 -> data
I0805 08:58:12.289760 21437 layer_factory.hpp:77] Creating layer conv1
I0805 08:58:12.289829 21437 net.cpp:106] Creating Layer conv1
I0805 08:58:12.289834 21437 net.cpp:454] conv1 <- data
I0805 08:58:12.289845 21437 net.cpp:411] conv1 -> conv1
I0805 08:58:12.545761 21437 net.cpp:150] Setting up conv1
I0805 08:58:12.545805 21437 net.cpp:157] Top shape: 10 96 55 55 (2904000)
I0805 08:58:12.545810 21437 net.cpp:165] Memory required for data: 11616000
I0805 08:58:12.545835 21437 layer_factory.hpp:77] Creating layer relu1
I0805 08:58:12.545852 21437 net.cpp:106] Creating Layer relu1
I0805 08:58:12.545858 21437 net.cpp:454] relu1 <- conv1
I0805 08:58:12.545864 21437 net.cpp:397] relu1 -> conv1 (in-place)
I0805 08:58:12.547318 21437 net.cpp:150] Setting up relu1
I0805 08:58:12.547333 21437 net.cpp:157] Top shape: 10 96 55 55 (2904000)
I0805 08:58:12.547336 21437 net.cpp:165] Memory required for data: 23232000
I0805 08:58:12.547340 21437 layer_factory.hpp:77] Creating layer norm1
I0805 08:58:12.547353 21437 net.cpp:106] Creating Layer norm1
I0805 08:58:12.547358 21437 net.cpp:454] norm1 <- conv1
I0805 08:58:12.547364 21437 net.cpp:411] norm1 -> norm1
I0805 08:58:12.550390 21437 net.cpp:150] Setting up norm1
I0805 08:58:12.550402 21437 net.cpp:157] Top shape: 10 96 55 55 (2904000)
I0805 08:58:12.550406 21437 net.cpp:165] Memory required for data: 34848000
I0805 08:58:12.550410 21437 layer_factory.hpp:77] Creating layer pool1
I0805 08:58:12.550420 21437 net.cpp:106] Creating Layer pool1
I0805 08:58:12.550422 21437 net.cpp:454] pool1 <- norm1
I0805 08:58:12.550428 21437 net.cpp:411] pool1 -> pool1
I0805 08:58:12.550467 21437 net.cpp:150] Setting up pool1
I0805 08:58:12.550473 21437 net.cpp:157] Top shape: 10 96 27 27 (699840)
I0805 08:58:12.550477 21437 net.cpp:165] Memory required for data: 37647360
I0805 08:58:12.550480 21437 layer_factory.hpp:77] Creating layer conv2
I0805 08:58:12.550495 21437 net.cpp:106] Creating Layer conv2
I0805 08:58:12.550498 21437 net.cpp:454] conv2 <- pool1
I0805 08:58:12.550505 21437 net.cpp:411] conv2 -> conv2
I0805 08:58:12.565824 21437 net.cpp:150] Setting up conv2
I0805 08:58:12.565841 21437 net.cpp:157] Top shape: 10 256 27 27 (1866240)
I0805 08:58:12.565845 21437 net.cpp:165] Memory required for data: 45112320
I0805 08:58:12.565856 21437 layer_factory.hpp:77] Creating layer relu2
I0805 08:58:12.565865 21437 net.cpp:106] Creating Layer relu2
I0805 08:58:12.565868 21437 net.cpp:454] relu2 <- conv2
I0805 08:58:12.565874 21437 net.cpp:397] relu2 -> conv2 (in-place)
I0805 08:58:12.566057 21437 net.cpp:150] Setting up relu2
I0805 08:58:12.566068 21437 net.cpp:157] Top shape: 10 256 27 27 (1866240)
I0805 08:58:12.566071 21437 net.cpp:165] Memory required for data: 52577280
I0805 08:58:12.566076 21437 layer_factory.hpp:77] Creating layer norm2
I0805 08:58:12.566084 21437 net.cpp:106] Creating Layer norm2
I0805 08:58:12.566088 21437 net.cpp:454] norm2 <- conv2
I0805 08:58:12.566094 21437 net.cpp:411] norm2 -> norm2
I0805 08:58:12.566577 21437 net.cpp:150] Setting up norm2
I0805 08:58:12.566591 21437 net.cpp:157] Top shape: 10 256 27 27 (1866240)
I0805 08:58:12.566594 21437 net.cpp:165] Memory required for data: 60042240
I0805 08:58:12.566598 21437 layer_factory.hpp:77] Creating layer pool2
I0805 08:58:12.566612 21437 net.cpp:106] Creating Layer pool2
I0805 08:58:12.566617 21437 net.cpp:454] pool2 <- norm2
I0805 08:58:12.566623 21437 net.cpp:411] pool2 -> pool2
I0805 08:58:12.566660 21437 net.cpp:150] Setting up pool2
I0805 08:58:12.566666 21437 net.cpp:157] Top shape: 10 256 13 13 (432640)
I0805 08:58:12.566670 21437 net.cpp:165] Memory required for data: 61772800
I0805 08:58:12.566673 21437 layer_factory.hpp:77] Creating layer conv3
I0805 08:58:12.566686 21437 net.cpp:106] Creating Layer conv3
I0805 08:58:12.566689 21437 net.cpp:454] conv3 <- pool2
I0805 08:58:12.566696 21437 net.cpp:411] conv3 -> conv3
I0805 08:58:12.579818 21437 net.cpp:150] Setting up conv3
I0805 08:58:12.579834 21437 net.cpp:157] Top shape: 10 384 13 13 (648960)
I0805 08:58:12.579838 21437 net.cpp:165] Memory required for data: 64368640
I0805 08:58:12.579849 21437 layer_factory.hpp:77] Creating layer relu3
I0805 08:58:12.579855 21437 net.cpp:106] Creating Layer relu3
I0805 08:58:12.579859 21437 net.cpp:454] relu3 <- conv3
I0805 08:58:12.579864 21437 net.cpp:397] relu3 -> conv3 (in-place)
I0805 08:58:12.580965 21437 net.cpp:150] Setting up relu3
I0805 08:58:12.580976 21437 net.cpp:157] Top shape: 10 384 13 13 (648960)
I0805 08:58:12.580979 21437 net.cpp:165] Memory required for data: 66964480
I0805 08:58:12.580982 21437 layer_factory.hpp:77] Creating layer conv4
I0805 08:58:12.580993 21437 net.cpp:106] Creating Layer conv4
I0805 08:58:12.580997 21437 net.cpp:454] conv4 <- conv3
I0805 08:58:12.581004 21437 net.cpp:411] conv4 -> conv4
I0805 08:58:12.595104 21437 net.cpp:150] Setting up conv4
I0805 08:58:12.595129 21437 net.cpp:157] Top shape: 10 384 13 13 (648960)
I0805 08:58:12.595134 21437 net.cpp:165] Memory required for data: 69560320
I0805 08:58:12.595141 21437 layer_factory.hpp:77] Creating layer relu4
I0805 08:58:12.595161 21437 net.cpp:106] Creating Layer relu4
I0805 08:58:12.595165 21437 net.cpp:454] relu4 <- conv4
I0805 08:58:12.595171 21437 net.cpp:397] relu4 -> conv4 (in-place)
I0805 08:58:12.595391 21437 net.cpp:150] Setting up relu4
I0805 08:58:12.595402 21437 net.cpp:157] Top shape: 10 384 13 13 (648960)
I0805 08:58:12.595405 21437 net.cpp:165] Memory required for data: 72156160
I0805 08:58:12.595409 21437 layer_factory.hpp:77] Creating layer conv5
I0805 08:58:12.595422 21437 net.cpp:106] Creating Layer conv5
I0805 08:58:12.595425 21437 net.cpp:454] conv5 <- conv4
I0805 08:58:12.595432 21437 net.cpp:411] conv5 -> conv5
I0805 08:58:12.602926 21437 net.cpp:150] Setting up conv5
I0805 08:58:12.602965 21437 net.cpp:157] Top shape: 10 256 13 13 (432640)
I0805 08:58:12.602969 21437 net.cpp:165] Memory required for data: 73886720
I0805 08:58:12.602988 21437 layer_factory.hpp:77] Creating layer relu5
I0805 08:58:12.603000 21437 net.cpp:106] Creating Layer relu5
I0805 08:58:12.603005 21437 net.cpp:454] relu5 <- conv5
I0805 08:58:12.603013 21437 net.cpp:397] relu5 -> conv5 (in-place)
I0805 08:58:12.603190 21437 net.cpp:150] Setting up relu5
I0805 08:58:12.603205 21437 net.cpp:157] Top shape: 10 256 13 13 (432640)
I0805 08:58:12.603209 21437 net.cpp:165] Memory required for data: 75617280
I0805 08:58:12.603212 21437 layer_factory.hpp:77] Creating layer pool5
I0805 08:58:12.603221 21437 net.cpp:106] Creating Layer pool5
I0805 08:58:12.603225 21437 net.cpp:454] pool5 <- conv5
I0805 08:58:12.603232 21437 net.cpp:411] pool5 -> pool5
I0805 08:58:12.603279 21437 net.cpp:150] Setting up pool5
I0805 08:58:12.603286 21437 net.cpp:157] Top shape: 10 256 6 6 (92160)
I0805 08:58:12.603289 21437 net.cpp:165] Memory required for data: 75985920
I0805 08:58:12.603293 21437 layer_factory.hpp:77] Creating layer fc6
I0805 08:58:12.603310 21437 net.cpp:106] Creating Layer fc6
I0805 08:58:12.603313 21437 net.cpp:454] fc6 <- pool5
I0805 08:58:12.603320 21437 net.cpp:411] fc6 -> fc6
I0805 08:58:13.075526 21437 net.cpp:150] Setting up fc6
I0805 08:58:13.075567 21437 net.cpp:157] Top shape: 10 4096 (40960)
I0805 08:58:13.075572 21437 net.cpp:165] Memory required for data: 76149760
I0805 08:58:13.075582 21437 layer_factory.hpp:77] Creating layer relu6
I0805 08:58:13.075609 21437 net.cpp:106] Creating Layer relu6
I0805 08:58:13.075615 21437 net.cpp:454] relu6 <- fc6
I0805 08:58:13.075623 21437 net.cpp:397] relu6 -> fc6 (in-place)
I0805 08:58:13.076094 21437 net.cpp:150] Setting up relu6
I0805 08:58:13.076125 21437 net.cpp:157] Top shape: 10 4096 (40960)
I0805 08:58:13.076131 21437 net.cpp:165] Memory required for data: 76313600
I0805 08:58:13.076138 21437 layer_factory.hpp:77] Creating layer drop6
I0805 08:58:13.076150 21437 net.cpp:106] Creating Layer drop6
I0805 08:58:13.076156 21437 net.cpp:454] drop6 <- fc6
I0805 08:58:13.076165 21437 net.cpp:397] drop6 -> fc6 (in-place)
I0805 08:58:13.076212 21437 net.cpp:150] Setting up drop6
I0805 08:58:13.076223 21437 net.cpp:157] Top shape: 10 4096 (40960)
I0805 08:58:13.076230 21437 net.cpp:165] Memory required for data: 76477440
I0805 08:58:13.076234 21437 layer_factory.hpp:77] Creating layer fc7
I0805 08:58:13.076247 21437 net.cpp:106] Creating Layer fc7
I0805 08:58:13.076253 21437 net.cpp:454] fc7 <- fc6
I0805 08:58:13.076262 21437 net.cpp:411] fc7 -> fc7
I0805 08:58:13.319638 21437 net.cpp:150] Setting up fc7
I0805 08:58:13.319684 21437 net.cpp:157] Top shape: 10 4096 (40960)
I0805 08:58:13.319689 21437 net.cpp:165] Memory required for data: 76641280
I0805 08:58:13.319700 21437 layer_factory.hpp:77] Creating layer relu7
I0805 08:58:13.319725 21437 net.cpp:106] Creating Layer relu7
I0805 08:58:13.319730 21437 net.cpp:454] relu7 <- fc7
I0805 08:58:13.319738 21437 net.cpp:397] relu7 -> fc7 (in-place)
I0805 08:58:13.321338 21437 net.cpp:150] Setting up relu7
I0805 08:58:13.321379 21437 net.cpp:157] Top shape: 10 4096 (40960)
I0805 08:58:13.321384 21437 net.cpp:165] Memory required for data: 76805120
I0805 08:58:13.321391 21437 layer_factory.hpp:77] Creating layer drop7
I0805 08:58:13.321405 21437 net.cpp:106] Creating Layer drop7
I0805 08:58:13.321411 21437 net.cpp:454] drop7 <- fc7
I0805 08:58:13.321420 21437 net.cpp:397] drop7 -> fc7 (in-place)
I0805 08:58:13.321472 21437 net.cpp:150] Setting up drop7
I0805 08:58:13.321480 21437 net.cpp:157] Top shape: 10 4096 (40960)
I0805 08:58:13.321483 21437 net.cpp:165] Memory required for data: 76968960
I0805 08:58:13.321487 21437 layer_factory.hpp:77] Creating layer fc8_occlusion
I0805 08:58:13.321497 21437 net.cpp:106] Creating Layer fc8_occlusion
I0805 08:58:13.321501 21437 net.cpp:454] fc8_occlusion <- fc7
I0805 08:58:13.321507 21437 net.cpp:411] fc8_occlusion -> fc8_occlusion
I0805 08:58:13.325229 21437 net.cpp:150] Setting up fc8_occlusion
I0805 08:58:13.325268 21437 net.cpp:157] Top shape: 10 20 (200)
I0805 08:58:13.325273 21437 net.cpp:165] Memory required for data: 76969760
I0805 08:58:13.325284 21437 layer_factory.hpp:77] Creating layer prob
I0805 08:58:13.325299 21437 net.cpp:106] Creating Layer prob
I0805 08:58:13.325305 21437 net.cpp:454] prob <- fc8_occlusion
I0805 08:58:13.325314 21437 net.cpp:411] prob -> prob
I0805 08:58:13.331780 21437 net.cpp:150] Setting up prob
I0805 08:58:13.331830 21437 net.cpp:157] Top shape: 10 20 (200)
I0805 08:58:13.331835 21437 net.cpp:165] Memory required for data: 76970560
I0805 08:58:13.331843 21437 net.cpp:228] prob does not need backward computation.
I0805 08:58:13.331850 21437 net.cpp:228] fc8_occlusion does not need backward computation.
I0805 08:58:13.331853 21437 net.cpp:228] drop7 does not need backward computation.
I0805 08:58:13.331856 21437 net.cpp:228] relu7 does not need backward computation.
…
