discarding /home/haow3/miniconda2/bin from PATH
prepending /home/haow3/miniconda2/envs/cafferc3/bin to PATH
WARNING: Logging before InitGoogleLogging() is written to STDERR
I0805 08:57:29.521332 20813 net.cpp:49] Initializing net from parameters: 
name: "AlexNetOcclusion"
input: "data"
state {
  phase: TEST
}
input_shape {
  dim: 10
  dim: 3
  dim: 227
  dim: 227
}
layer {
  name: "conv1"
  type: "Convolution"
  bottom: "data"
  top: "conv1"
  param {
    lr_mult: 0
    decay_mult: 1
  }
  param {
    lr_mult: 0
    decay_mult: 0
  }
  convolution_param {
    num_output: 96
    kernel_size: 11
    stride: 4
    weight_filler {
      type: "gaussian"
      std: 0.01
    }
    bias_filler {
      type: "constant"
      value: 0
    }
  }
}
layer {
  name: "relu1"
  type: "ReLU"
  bottom: "conv1"
  top: "conv1"
}
layer {
  name: "norm1"
  type: "LRN"
  bottom: "conv1"
  top: "norm1"
  lrn_param {
    local_size: 5
    alpha: 0.0001
    beta: 0.75
  }
}
layer {
  name: "pool1"
  type: "Pooling"
  bottom: "norm1"
  top: "pool1"
  pooling_param {
    pool: MAX
    kernel_size: 3
    stride: 2
  }
}
layer {
  name: "conv2"
  type: "Convolution"
  bottom: "pool1"
  top: "conv2"
  param {
    lr_mult: 0
    decay_mult: 1
  }
  param {
    lr_mult: 0
    decay_mult: 0
  }
  convolution_param {
    num_output: 256
    pad: 2
    kernel_size: 5
    group: 2
    weight_filler {
      type: "gaussian"
      std: 0.01
    }
    bias_filler {
      type: "constant"
      value: 0.1
    }
  }
}
layer {
  name: "relu2"
  type: "ReLU"
  bottom: "conv2"
  top: "conv2"
}
layer {
  name: "norm2"
  type: "LRN"
  bottom: "conv2"
  top: "norm2"
  lrn_param {
    local_size: 5
    alpha: 0.0001
    beta: 0.75
  }
}
layer {
  name: "pool2"
  type: "Pooling"
  bottom: "norm2"
  top: "pool2"
  pooling_param {
    pool: MAX
    kernel_size: 3
    stride: 2
  }
}
layer {
  name: "conv3"
  type: "Convolution"
  bottom: "pool2"
  top: "conv3"
  param {
    lr_mult: 0
    decay_mult: 1
  }
  param {
    lr_mult: 0
    decay_mult: 0
  }
  convolution_param {
    num_output: 384
    pad: 1
    kernel_size: 3
    weight_filler {
      type: "gaussian"
      std: 0.01
    }
    bias_filler {
      type: "constant"
      value: 0
    }
  }
}
layer {
  name: "relu3"
  type: "ReLU"
  bottom: "conv3"
  top: "conv3"
}
layer {
  name: "conv4"
  type: "Convolution"
  bottom: "conv3"
  top: "conv4"
  param {
    lr_mult: 0
    decay_mult: 1
  }
  param {
    lr_mult: 0
    decay_mult: 0
  }
  convolution_param {
    num_output: 384
    pad: 1
    kernel_size: 3
    group: 2
    weight_filler {
      type: "gaussian"
      std: 0.01
    }
    bias_filler {
      type: "constant"
      value: 0.1
    }
  }
}
layer {
  name: "relu4"
  type: "ReLU"
  bottom: "conv4"
  top: "conv4"
}
layer {
  name: "conv5"
  type: "Convolution"
  bottom: "conv4"
  top: "conv5"
  param {
    lr_mult: 0
    decay_mult: 1
  }
  param {
    lr_mult: 0
    decay_mult: 0
  }
  convolution_param {
    num_output: 256
    pad: 1
    kernel_size: 3
    group: 2
    weight_filler {
      type: "gaussian"
      std: 0.01
    }
    bias_filler {
      type: "constant"
      value: 0.1
    }
  }
}
layer {
  name: "relu5"
  type: "ReLU"
  bottom: "conv5"
  top: "conv5"
}
layer {
  name: "pool5"
  type: "Pooling"
  bottom: "conv5"
  top: "pool5"
  pooling_param {
    pool: MAX
    kernel_size: 3
    stride: 2
  }
}
layer {
  name: "fc6"
  type: "InnerProduct"
  bottom: "pool5"
  top: "fc6"
  param {
    lr_mult: 0
    decay_mult: 1
  }
  param {
    lr_mult: 0
    decay_mult: 0
  }
  inner_product_param {
    num_output: 4096
    weight_filler {
      type: "gaussian"
      std: 0.005
    }
    bias_filler {
      type: "constant"
      value: 0.1
    }
  }
}
layer {
  name: "relu6"
  type: "ReLU"
  bottom: "fc6"
  top: "fc6"
}
layer {
  name: "drop6"
  type: "Dropout"
  bottom: "fc6"
  top: "fc6"
  dropout_param {
    dropout_ratio: 0.5
  }
}
layer {
  name: "fc7"
  type: "InnerProduct"
  bottom: "fc6"
  top: "fc7"
  param {
    lr_mult: 0
    decay_mult: 1
  }
  param {
    lr_mult: 0
    decay_mult: 0
  }
  inner_product_param {
    num_output: 4096
    weight_filler {
      type: "gaussian"
      std: 0.005
    }
    bias_filler {
      type: "constant"
      value: 0.1
    }
  }
}
layer {
  name: "relu7"
  type: "ReLU"
  bottom: "fc7"
  top: "fc7"
}
layer {
  name: "drop7"
  type: "Dropout"
  bottom: "fc7"
  top: "fc7"
  dropout_param {
    dropout_ratio: 0.5
  }
}
layer {
  name: "fc8_occlusion"
  type: "InnerProduct"
  bottom: "fc7"
  top: "fc8_occlusion"
  param {
    lr_mult: 1
    decay_mult: 1
  }
  param {
    lr_mult: 2
    decay_mult: 0
  }
  inner_product_param {
    num_output: 20
    weight_filler {
      type: "gaussian"
      std: 0.01
    }
    bias_filler {
      type: "constant"
      value: 0
    }
  }
}
layer {
  name: "prob"
  type: "Softmax"
  bottom: "fc8_occlusion"
  top: "prob"
}
I0805 08:57:29.521440 20813 net.cpp:413] Input 0 -> data
I0805 08:57:29.529364 20813 layer_factory.hpp:77] Creating layer conv1
I0805 08:57:29.529392 20813 net.cpp:106] Creating Layer conv1
I0805 08:57:29.529397 20813 net.cpp:454] conv1 <- data
I0805 08:57:29.529402 20813 net.cpp:411] conv1 -> conv1
I0805 08:57:29.710059 20813 net.cpp:150] Setting up conv1
I0805 08:57:29.710096 20813 net.cpp:157] Top shape: 10 96 55 55 (2904000)
I0805 08:57:29.710100 20813 net.cpp:165] Memory required for data: 11616000
I0805 08:57:29.710117 20813 layer_factory.hpp:77] Creating layer relu1
I0805 08:57:29.710130 20813 net.cpp:106] Creating Layer relu1
I0805 08:57:29.710137 20813 net.cpp:454] relu1 <- conv1
I0805 08:57:29.710142 20813 net.cpp:397] relu1 -> conv1 (in-place)
I0805 08:57:29.710379 20813 net.cpp:150] Setting up relu1
I0805 08:57:29.710391 20813 net.cpp:157] Top shape: 10 96 55 55 (2904000)
I0805 08:57:29.710393 20813 net.cpp:165] Memory required for data: 23232000
I0805 08:57:29.710397 20813 layer_factory.hpp:77] Creating layer norm1
I0805 08:57:29.710407 20813 net.cpp:106] Creating Layer norm1
I0805 08:57:29.710410 20813 net.cpp:454] norm1 <- conv1
I0805 08:57:29.710414 20813 net.cpp:411] norm1 -> norm1
I0805 08:57:29.710563 20813 net.cpp:150] Setting up norm1
I0805 08:57:29.710572 20813 net.cpp:157] Top shape: 10 96 55 55 (2904000)
I0805 08:57:29.710575 20813 net.cpp:165] Memory required for data: 34848000
I0805 08:57:29.710578 20813 layer_factory.hpp:77] Creating layer pool1
I0805 08:57:29.710587 20813 net.cpp:106] Creating Layer pool1
I0805 08:57:29.710589 20813 net.cpp:454] pool1 <- norm1
I0805 08:57:29.710593 20813 net.cpp:411] pool1 -> pool1
I0805 08:57:29.710623 20813 net.cpp:150] Setting up pool1
I0805 08:57:29.710629 20813 net.cpp:157] Top shape: 10 96 27 27 (699840)
I0805 08:57:29.710631 20813 net.cpp:165] Memory required for data: 37647360
I0805 08:57:29.710634 20813 layer_factory.hpp:77] Creating layer conv2
I0805 08:57:29.710646 20813 net.cpp:106] Creating Layer conv2
I0805 08:57:29.710649 20813 net.cpp:454] conv2 <- pool1
I0805 08:57:29.710654 20813 net.cpp:411] conv2 -> conv2
I0805 08:57:29.715623 20813 net.cpp:150] Setting up conv2
I0805 08:57:29.715637 20813 net.cpp:157] Top shape: 10 256 27 27 (1866240)
I0805 08:57:29.715641 20813 net.cpp:165] Memory required for data: 45112320
I0805 08:57:29.715649 20813 layer_factory.hpp:77] Creating layer relu2
I0805 08:57:29.715656 20813 net.cpp:106] Creating Layer relu2
I0805 08:57:29.715658 20813 net.cpp:454] relu2 <- conv2
I0805 08:57:29.715663 20813 net.cpp:397] relu2 -> conv2 (in-place)
I0805 08:57:29.715801 20813 net.cpp:150] Setting up relu2
I0805 08:57:29.715809 20813 net.cpp:157] Top shape: 10 256 27 27 (1866240)
I0805 08:57:29.715812 20813 net.cpp:165] Memory required for data: 52577280
I0805 08:57:29.715816 20813 layer_factory.hpp:77] Creating layer norm2
I0805 08:57:29.715821 20813 net.cpp:106] Creating Layer norm2
I0805 08:57:29.715824 20813 net.cpp:454] norm2 <- conv2
I0805 08:57:29.715829 20813 net.cpp:411] norm2 -> norm2
I0805 08:57:29.716075 20813 net.cpp:150] Setting up norm2
I0805 08:57:29.716087 20813 net.cpp:157] Top shape: 10 256 27 27 (1866240)
I0805 08:57:29.716090 20813 net.cpp:165] Memory required for data: 60042240
I0805 08:57:29.716094 20813 layer_factory.hpp:77] Creating layer pool2
I0805 08:57:29.716106 20813 net.cpp:106] Creating Layer pool2
I0805 08:57:29.716110 20813 net.cpp:454] pool2 <- norm2
I0805 08:57:29.716115 20813 net.cpp:411] pool2 -> pool2
I0805 08:57:29.716148 20813 net.cpp:150] Setting up pool2
I0805 08:57:29.716156 20813 net.cpp:157] Top shape: 10 256 13 13 (432640)
I0805 08:57:29.716157 20813 net.cpp:165] Memory required for data: 61772800
I0805 08:57:29.716161 20813 layer_factory.hpp:77] Creating layer conv3
I0805 08:57:29.716171 20813 net.cpp:106] Creating Layer conv3
I0805 08:57:29.716173 20813 net.cpp:454] conv3 <- pool2
I0805 08:57:29.716178 20813 net.cpp:411] conv3 -> conv3
I0805 08:57:29.726234 20813 net.cpp:150] Setting up conv3
I0805 08:57:29.726248 20813 net.cpp:157] Top shape: 10 384 13 13 (648960)
I0805 08:57:29.726251 20813 net.cpp:165] Memory required for data: 64368640
I0805 08:57:29.726260 20813 layer_factory.hpp:77] Creating layer relu3
I0805 08:57:29.726266 20813 net.cpp:106] Creating Layer relu3
I0805 08:57:29.726269 20813 net.cpp:454] relu3 <- conv3
I0805 08:57:29.726274 20813 net.cpp:397] relu3 -> conv3 (in-place)
I0805 08:57:29.726408 20813 net.cpp:150] Setting up relu3
I0805 08:57:29.726416 20813 net.cpp:157] Top shape: 10 384 13 13 (648960)
I0805 08:57:29.726418 20813 net.cpp:165] Memory required for data: 66964480
I0805 08:57:29.726423 20813 layer_factory.hpp:77] Creating layer conv4
I0805 08:57:29.726431 20813 net.cpp:106] Creating Layer conv4
I0805 08:57:29.726434 20813 net.cpp:454] conv4 <- conv3
I0805 08:57:29.726439 20813 net.cpp:411] conv4 -> conv4
I0805 08:57:29.734652 20813 net.cpp:150] Setting up conv4
I0805 08:57:29.734666 20813 net.cpp:157] Top shape: 10 384 13 13 (648960)
I0805 08:57:29.734669 20813 net.cpp:165] Memory required for data: 69560320
I0805 08:57:29.734675 20813 layer_factory.hpp:77] Creating layer relu4
I0805 08:57:29.734681 20813 net.cpp:106] Creating Layer relu4
I0805 08:57:29.734685 20813 net.cpp:454] relu4 <- conv4
I0805 08:57:29.734689 20813 net.cpp:397] relu4 -> conv4 (in-place)
I0805 08:57:29.734822 20813 net.cpp:150] Setting up relu4
I0805 08:57:29.734829 20813 net.cpp:157] Top shape: 10 384 13 13 (648960)
I0805 08:57:29.734833 20813 net.cpp:165] Memory required for data: 72156160
I0805 08:57:29.734835 20813 layer_factory.hpp:77] Creating layer conv5
I0805 08:57:29.734844 20813 net.cpp:106] Creating Layer conv5
I0805 08:57:29.734848 20813 net.cpp:454] conv5 <- conv4
I0805 08:57:29.734853 20813 net.cpp:411] conv5 -> conv5
I0805 08:57:29.740927 20813 net.cpp:150] Setting up conv5
I0805 08:57:29.740941 20813 net.cpp:157] Top shape: 10 256 13 13 (432640)
I0805 08:57:29.740944 20813 net.cpp:165] Memory required for data: 73886720
I0805 08:57:29.740953 20813 layer_factory.hpp:77] Creating layer relu5
I0805 08:57:29.740959 20813 net.cpp:106] Creating Layer relu5
I0805 08:57:29.740962 20813 net.cpp:454] relu5 <- conv5
I0805 08:57:29.740967 20813 net.cpp:397] relu5 -> conv5 (in-place)
I0805 08:57:29.741106 20813 net.cpp:150] Setting up relu5
I0805 08:57:29.741113 20813 net.cpp:157] Top shape: 10 256 13 13 (432640)
I0805 08:57:29.741117 20813 net.cpp:165] Memory required for data: 75617280
I0805 08:57:29.741119 20813 layer_factory.hpp:77] Creating layer pool5
I0805 08:57:29.741125 20813 net.cpp:106] Creating Layer pool5
I0805 08:57:29.741128 20813 net.cpp:454] pool5 <- conv5
I0805 08:57:29.741137 20813 net.cpp:411] pool5 -> pool5
I0805 08:57:29.741171 20813 net.cpp:150] Setting up pool5
I0805 08:57:29.741176 20813 net.cpp:157] Top shape: 10 256 6 6 (92160)
I0805 08:57:29.741179 20813 net.cpp:165] Memory required for data: 75985920
I0805 08:57:29.741183 20813 layer_factory.hpp:77] Creating layer fc6
I0805 08:57:29.741191 20813 net.cpp:106] Creating Layer fc6
I0805 08:57:29.741194 20813 net.cpp:454] fc6 <- pool5
I0805 08:57:29.741200 20813 net.cpp:411] fc6 -> fc6
I0805 08:57:30.139155 20813 net.cpp:150] Setting up fc6
I0805 08:57:30.139192 20813 net.cpp:157] Top shape: 10 4096 (40960)
I0805 08:57:30.139196 20813 net.cpp:165] Memory required for data: 76149760
I0805 08:57:30.139206 20813 layer_factory.hpp:77] Creating layer relu6
I0805 08:57:30.139226 20813 net.cpp:106] Creating Layer relu6
I0805 08:57:30.139231 20813 net.cpp:454] relu6 <- fc6
I0805 08:57:30.139238 20813 net.cpp:397] relu6 -> fc6 (in-place)
I0805 08:57:30.139638 20813 net.cpp:150] Setting up relu6
I0805 08:57:30.139650 20813 net.cpp:157] Top shape: 10 4096 (40960)
I0805 08:57:30.139654 20813 net.cpp:165] Memory required for data: 76313600
I0805 08:57:30.139658 20813 layer_factory.hpp:77] Creating layer drop6
I0805 08:57:30.139667 20813 net.cpp:106] Creating Layer drop6
I0805 08:57:30.139670 20813 net.cpp:454] drop6 <- fc6
I0805 08:57:30.139675 20813 net.cpp:397] drop6 -> fc6 (in-place)
I0805 08:57:30.139703 20813 net.cpp:150] Setting up drop6
I0805 08:57:30.139708 20813 net.cpp:157] Top shape: 10 4096 (40960)
I0805 08:57:30.139711 20813 net.cpp:165] Memory required for data: 76477440
I0805 08:57:30.139714 20813 layer_factory.hpp:77] Creating layer fc7
I0805 08:57:30.139722 20813 net.cpp:106] Creating Layer fc7
I0805 08:57:30.139725 20813 net.cpp:454] fc7 <- fc6
I0805 08:57:30.139730 20813 net.cpp:411] fc7 -> fc7
I0805 08:57:30.328992 20813 net.cpp:150] Setting up fc7
I0805 08:57:30.329030 20813 net.cpp:157] Top shape: 10 4096 (40960)
I0805 08:57:30.329035 20813 net.cpp:165] Memory required for data: 76641280
I0805 08:57:30.329043 20813 layer_factory.hpp:77] Creating layer relu7
I0805 08:57:30.329054 20813 net.cpp:106] Creating Layer relu7
I0805 08:57:30.329059 20813 net.cpp:454] relu7 <- fc7
I0805 08:57:30.329066 20813 net.cpp:397] relu7 -> fc7 (in-place)
I0805 08:57:30.329284 20813 net.cpp:150] Setting up relu7
I0805 08:57:30.329294 20813 net.cpp:157] Top shape: 10 4096 (40960)
I0805 08:57:30.329298 20813 net.cpp:165] Memory required for data: 76805120
I0805 08:57:30.329301 20813 layer_factory.hpp:77] Creating layer drop7
I0805 08:57:30.329308 20813 net.cpp:106] Creating Layer drop7
I0805 08:57:30.329313 20813 net.cpp:454] drop7 <- fc7
I0805 08:57:30.329318 20813 net.cpp:397] drop7 -> fc7 (in-place)
I0805 08:57:30.329342 20813 net.cpp:150] Setting up drop7
I0805 08:57:30.329349 20813 net.cpp:157] Top shape: 10 4096 (40960)
I0805 08:57:30.329351 20813 net.cpp:165] Memory required for data: 76968960
I0805 08:57:30.329355 20813 layer_factory.hpp:77] Creating layer fc8_occlusion
I0805 08:57:30.329362 20813 net.cpp:106] Creating Layer fc8_occlusion
I0805 08:57:30.329366 20813 net.cpp:454] fc8_occlusion <- fc7
I0805 08:57:30.329371 20813 net.cpp:411] fc8_occlusion -> fc8_occlusion
I0805 08:57:30.330922 20813 net.cpp:150] Setting up fc8_occlusion
I0805 08:57:30.330950 20813 net.cpp:157] Top shape: 10 20 (200)
I0805 08:57:30.330953 20813 net.cpp:165] Memory required for data: 76969760
I0805 08:57:30.330960 20813 layer_factory.hpp:77] Creating layer prob
I0805 08:57:30.330968 20813 net.cpp:106] Creating Layer prob
I0805 08:57:30.330972 20813 net.cpp:454] prob <- fc8_occlusion
I0805 08:57:30.330978 20813 net.cpp:411] prob -> prob
I0805 08:57:30.331321 20813 net.cpp:150] Setting up prob
I0805 08:57:30.331332 20813 net.cpp:157] Top shape: 10 20 (200)
I0805 08:57:30.331336 20813 net.cpp:165] Memory required for data: 76970560
I0805 08:57:30.331339 20813 net.cpp:228] prob does not need backward computation.
I0805 08:57:30.331342 20813 net.cpp:228] fc8_occlusion does not need backward computation.
I0805 08:57:30.331346 20813 net.cpp:228] drop7 does not need backward computation.
I0805 08:57:30.331348 20813 net.cpp:228] relu7 does not need backward computation.
…
