discarding /home/haow3/miniconda2/bin from PATH
prepending /home/haow3/miniconda2/envs/cafferc3/bin to PATH
WARNING: Logging before InitGoogleLogging() is written to STDERR
I0805 08:57:28.297683 32619 net.cpp:49] Initializing net from parameters: 
name: "AlexNetOcclusion"
input: "data"
state {
  phase: TEST
}
input_shape {
  dim: 10
  dim: 3
  dim: 227
  dim: 227
}
layer {
  name: "conv1"
  type: "Convolution"
  bottom: "data"
  top: "conv1"
  param {
    lr_mult: 0
    decay_mult: 1
  }
  param {
    lr_mult: 0
    decay_mult: 0
  }
  convolution_param {
    num_output: 96
    kernel_size: 11
    stride: 4
    weight_filler {
      type: "gaussian"
      std: 0.01
    }
    bias_filler {
      type: "constant"
      value: 0
    }
  }
}
layer {
  name: "relu1"
  type: "ReLU"
  bottom: "conv1"
  top: "conv1"
}
layer {
  name: "norm1"
  type: "LRN"
  bottom: "conv1"
  top: "norm1"
  lrn_param {
    local_size: 5
    alpha: 0.0001
    beta: 0.75
  }
}
layer {
  name: "pool1"
  type: "Pooling"
  bottom: "norm1"
  top: "pool1"
  pooling_param {
    pool: MAX
    kernel_size: 3
    stride: 2
  }
}
layer {
  name: "conv2"
  type: "Convolution"
  bottom: "pool1"
  top: "conv2"
  param {
    lr_mult: 0
    decay_mult: 1
  }
  param {
    lr_mult: 0
    decay_mult: 0
  }
  convolution_param {
    num_output: 256
    pad: 2
    kernel_size: 5
    group: 2
    weight_filler {
      type: "gaussian"
      std: 0.01
    }
    bias_filler {
      type: "constant"
      value: 0.1
    }
  }
}
layer {
  name: "relu2"
  type: "ReLU"
  bottom: "conv2"
  top: "conv2"
}
layer {
  name: "norm2"
  type: "LRN"
  bottom: "conv2"
  top: "norm2"
  lrn_param {
    local_size: 5
    alpha: 0.0001
    beta: 0.75
  }
}
layer {
  name: "pool2"
  type: "Pooling"
  bottom: "norm2"
  top: "pool2"
  pooling_param {
    pool: MAX
    kernel_size: 3
    stride: 2
  }
}
layer {
  name: "conv3"
  type: "Convolution"
  bottom: "pool2"
  top: "conv3"
  param {
    lr_mult: 0
    decay_mult: 1
  }
  param {
    lr_mult: 0
    decay_mult: 0
  }
  convolution_param {
    num_output: 384
    pad: 1
    kernel_size: 3
    weight_filler {
      type: "gaussian"
      std: 0.01
    }
    bias_filler {
      type: "constant"
      value: 0
    }
  }
}
layer {
  name: "relu3"
  type: "ReLU"
  bottom: "conv3"
  top: "conv3"
}
layer {
  name: "conv4"
  type: "Convolution"
  bottom: "conv3"
  top: "conv4"
  param {
    lr_mult: 0
    decay_mult: 1
  }
  param {
    lr_mult: 0
    decay_mult: 0
  }
  convolution_param {
    num_output: 384
    pad: 1
    kernel_size: 3
    group: 2
    weight_filler {
      type: "gaussian"
      std: 0.01
    }
    bias_filler {
      type: "constant"
      value: 0.1
    }
  }
}
layer {
  name: "relu4"
  type: "ReLU"
  bottom: "conv4"
  top: "conv4"
}
layer {
  name: "conv5"
  type: "Convolution"
  bottom: "conv4"
  top: "conv5"
  param {
    lr_mult: 0
    decay_mult: 1
  }
  param {
    lr_mult: 0
    decay_mult: 0
  }
  convolution_param {
    num_output: 256
    pad: 1
    kernel_size: 3
    group: 2
    weight_filler {
      type: "gaussian"
      std: 0.01
    }
    bias_filler {
      type: "constant"
      value: 0.1
    }
  }
}
layer {
  name: "relu5"
  type: "ReLU"
  bottom: "conv5"
  top: "conv5"
}
layer {
  name: "pool5"
  type: "Pooling"
  bottom: "conv5"
  top: "pool5"
  pooling_param {
    pool: MAX
    kernel_size: 3
    stride: 2
  }
}
layer {
  name: "fc6"
  type: "InnerProduct"
  bottom: "pool5"
  top: "fc6"
  param {
    lr_mult: 0
    decay_mult: 1
  }
  param {
    lr_mult: 0
    decay_mult: 0
  }
  inner_product_param {
    num_output: 4096
    weight_filler {
      type: "gaussian"
      std: 0.005
    }
    bias_filler {
      type: "constant"
      value: 0.1
    }
  }
}
layer {
  name: "relu6"
  type: "ReLU"
  bottom: "fc6"
  top: "fc6"
}
layer {
  name: "drop6"
  type: "Dropout"
  bottom: "fc6"
  top: "fc6"
  dropout_param {
    dropout_ratio: 0.5
  }
}
layer {
  name: "fc7"
  type: "InnerProduct"
  bottom: "fc6"
  top: "fc7"
  param {
    lr_mult: 0
    decay_mult: 1
  }
  param {
    lr_mult: 0
    decay_mult: 0
  }
  inner_product_param {
    num_output: 4096
    weight_filler {
      type: "gaussian"
      std: 0.005
    }
    bias_filler {
      type: "constant"
      value: 0.1
    }
  }
}
layer {
  name: "relu7"
  type: "ReLU"
  bottom: "fc7"
  top: "fc7"
}
layer {
  name: "drop7"
  type: "Dropout"
  bottom: "fc7"
  top: "fc7"
  dropout_param {
    dropout_ratio: 0.5
  }
}
layer {
  name: "fc8_occlusion"
  type: "InnerProduct"
  bottom: "fc7"
  top: "fc8_occlusion"
  param {
    lr_mult: 1
    decay_mult: 1
  }
  param {
    lr_mult: 2
    decay_mult: 0
  }
  inner_product_param {
    num_output: 20
    weight_filler {
      type: "gaussian"
      std: 0.01
    }
    bias_filler {
      type: "constant"
      value: 0
    }
  }
}
layer {
  name: "prob"
  type: "Softmax"
  bottom: "fc8_occlusion"
  top: "prob"
}
I0805 08:57:28.297852 32619 net.cpp:413] Input 0 -> data
I0805 08:57:28.309579 32619 layer_factory.hpp:77] Creating layer conv1
I0805 08:57:28.309623 32619 net.cpp:106] Creating Layer conv1
I0805 08:57:28.309629 32619 net.cpp:454] conv1 <- data
I0805 08:57:28.309639 32619 net.cpp:411] conv1 -> conv1
I0805 08:57:28.556495 32619 net.cpp:150] Setting up conv1
I0805 08:57:28.556545 32619 net.cpp:157] Top shape: 10 96 55 55 (2904000)
I0805 08:57:28.556550 32619 net.cpp:165] Memory required for data: 11616000
I0805 08:57:28.556572 32619 layer_factory.hpp:77] Creating layer relu1
I0805 08:57:28.556587 32619 net.cpp:106] Creating Layer relu1
I0805 08:57:28.556593 32619 net.cpp:454] relu1 <- conv1
I0805 08:57:28.556601 32619 net.cpp:397] relu1 -> conv1 (in-place)
I0805 08:57:28.556988 32619 net.cpp:150] Setting up relu1
I0805 08:57:28.557003 32619 net.cpp:157] Top shape: 10 96 55 55 (2904000)
I0805 08:57:28.557008 32619 net.cpp:165] Memory required for data: 23232000
I0805 08:57:28.557013 32619 layer_factory.hpp:77] Creating layer norm1
I0805 08:57:28.557025 32619 net.cpp:106] Creating Layer norm1
I0805 08:57:28.557029 32619 net.cpp:454] norm1 <- conv1
I0805 08:57:28.557036 32619 net.cpp:411] norm1 -> norm1
I0805 08:57:28.557241 32619 net.cpp:150] Setting up norm1
I0805 08:57:28.557255 32619 net.cpp:157] Top shape: 10 96 55 55 (2904000)
I0805 08:57:28.557258 32619 net.cpp:165] Memory required for data: 34848000
I0805 08:57:28.557263 32619 layer_factory.hpp:77] Creating layer pool1
I0805 08:57:28.557272 32619 net.cpp:106] Creating Layer pool1
I0805 08:57:28.557277 32619 net.cpp:454] pool1 <- norm1
I0805 08:57:28.557283 32619 net.cpp:411] pool1 -> pool1
I0805 08:57:28.557327 32619 net.cpp:150] Setting up pool1
I0805 08:57:28.557334 32619 net.cpp:157] Top shape: 10 96 27 27 (699840)
I0805 08:57:28.557338 32619 net.cpp:165] Memory required for data: 37647360
I0805 08:57:28.557343 32619 layer_factory.hpp:77] Creating layer conv2
I0805 08:57:28.557358 32619 net.cpp:106] Creating Layer conv2
I0805 08:57:28.557363 32619 net.cpp:454] conv2 <- pool1
I0805 08:57:28.557369 32619 net.cpp:411] conv2 -> conv2
I0805 08:57:28.564062 32619 net.cpp:150] Setting up conv2
I0805 08:57:28.564090 32619 net.cpp:157] Top shape: 10 256 27 27 (1866240)
I0805 08:57:28.564095 32619 net.cpp:165] Memory required for data: 45112320
I0805 08:57:28.564107 32619 layer_factory.hpp:77] Creating layer relu2
I0805 08:57:28.564117 32619 net.cpp:106] Creating Layer relu2
I0805 08:57:28.564122 32619 net.cpp:454] relu2 <- conv2
I0805 08:57:28.564128 32619 net.cpp:397] relu2 -> conv2 (in-place)
I0805 08:57:28.564324 32619 net.cpp:150] Setting up relu2
I0805 08:57:28.564337 32619 net.cpp:157] Top shape: 10 256 27 27 (1866240)
I0805 08:57:28.564342 32619 net.cpp:165] Memory required for data: 52577280
I0805 08:57:28.564345 32619 layer_factory.hpp:77] Creating layer norm2
I0805 08:57:28.564354 32619 net.cpp:106] Creating Layer norm2
I0805 08:57:28.564358 32619 net.cpp:454] norm2 <- conv2
I0805 08:57:28.564365 32619 net.cpp:411] norm2 -> norm2
I0805 08:57:28.564836 32619 net.cpp:150] Setting up norm2
I0805 08:57:28.564851 32619 net.cpp:157] Top shape: 10 256 27 27 (1866240)
I0805 08:57:28.564856 32619 net.cpp:165] Memory required for data: 60042240
I0805 08:57:28.564860 32619 layer_factory.hpp:77] Creating layer pool2
I0805 08:57:28.564878 32619 net.cpp:106] Creating Layer pool2
I0805 08:57:28.564883 32619 net.cpp:454] pool2 <- norm2
I0805 08:57:28.564889 32619 net.cpp:411] pool2 -> pool2
I0805 08:57:28.564932 32619 net.cpp:150] Setting up pool2
I0805 08:57:28.564940 32619 net.cpp:157] Top shape: 10 256 13 13 (432640)
I0805 08:57:28.564944 32619 net.cpp:165] Memory required for data: 61772800
I0805 08:57:28.564949 32619 layer_factory.hpp:77] Creating layer conv3
I0805 08:57:28.564963 32619 net.cpp:106] Creating Layer conv3
I0805 08:57:28.564967 32619 net.cpp:454] conv3 <- pool2
I0805 08:57:28.564975 32619 net.cpp:411] conv3 -> conv3
I0805 08:57:28.578378 32619 net.cpp:150] Setting up conv3
I0805 08:57:28.578402 32619 net.cpp:157] Top shape: 10 384 13 13 (648960)
I0805 08:57:28.578407 32619 net.cpp:165] Memory required for data: 64368640
I0805 08:57:28.578419 32619 layer_factory.hpp:77] Creating layer relu3
I0805 08:57:28.578429 32619 net.cpp:106] Creating Layer relu3
I0805 08:57:28.578433 32619 net.cpp:454] relu3 <- conv3
I0805 08:57:28.578445 32619 net.cpp:397] relu3 -> conv3 (in-place)
I0805 08:57:28.578649 32619 net.cpp:150] Setting up relu3
I0805 08:57:28.578660 32619 net.cpp:157] Top shape: 10 384 13 13 (648960)
I0805 08:57:28.578665 32619 net.cpp:165] Memory required for data: 66964480
I0805 08:57:28.578670 32619 layer_factory.hpp:77] Creating layer conv4
I0805 08:57:28.578683 32619 net.cpp:106] Creating Layer conv4
I0805 08:57:28.578688 32619 net.cpp:454] conv4 <- conv3
I0805 08:57:28.578697 32619 net.cpp:411] conv4 -> conv4
I0805 08:57:28.589787 32619 net.cpp:150] Setting up conv4
I0805 08:57:28.589807 32619 net.cpp:157] Top shape: 10 384 13 13 (648960)
I0805 08:57:28.589812 32619 net.cpp:165] Memory required for data: 69560320
I0805 08:57:28.589820 32619 layer_factory.hpp:77] Creating layer relu4
I0805 08:57:28.589828 32619 net.cpp:106] Creating Layer relu4
I0805 08:57:28.589833 32619 net.cpp:454] relu4 <- conv4
I0805 08:57:28.589839 32619 net.cpp:397] relu4 -> conv4 (in-place)
I0805 08:57:28.590034 32619 net.cpp:150] Setting up relu4
I0805 08:57:28.590044 32619 net.cpp:157] Top shape: 10 384 13 13 (648960)
I0805 08:57:28.590049 32619 net.cpp:165] Memory required for data: 72156160
I0805 08:57:28.590052 32619 layer_factory.hpp:77] Creating layer conv5
I0805 08:57:28.590065 32619 net.cpp:106] Creating Layer conv5
I0805 08:57:28.590070 32619 net.cpp:454] conv5 <- conv4
I0805 08:57:28.590080 32619 net.cpp:411] conv5 -> conv5
I0805 08:57:28.598321 32619 net.cpp:150] Setting up conv5
I0805 08:57:28.598340 32619 net.cpp:157] Top shape: 10 256 13 13 (432640)
I0805 08:57:28.598345 32619 net.cpp:165] Memory required for data: 73886720
I0805 08:57:28.598357 32619 layer_factory.hpp:77] Creating layer relu5
I0805 08:57:28.598367 32619 net.cpp:106] Creating Layer relu5
I0805 08:57:28.598372 32619 net.cpp:454] relu5 <- conv5
I0805 08:57:28.598378 32619 net.cpp:397] relu5 -> conv5 (in-place)
I0805 08:57:28.598595 32619 net.cpp:150] Setting up relu5
I0805 08:57:28.598606 32619 net.cpp:157] Top shape: 10 256 13 13 (432640)
I0805 08:57:28.598611 32619 net.cpp:165] Memory required for data: 75617280
I0805 08:57:28.598615 32619 layer_factory.hpp:77] Creating layer pool5
I0805 08:57:28.598623 32619 net.cpp:106] Creating Layer pool5
I0805 08:57:28.598628 32619 net.cpp:454] pool5 <- conv5
I0805 08:57:28.598636 32619 net.cpp:411] pool5 -> pool5
I0805 08:57:28.598691 32619 net.cpp:150] Setting up pool5
I0805 08:57:28.598698 32619 net.cpp:157] Top shape: 10 256 6 6 (92160)
I0805 08:57:28.598703 32619 net.cpp:165] Memory required for data: 75985920
I0805 08:57:28.598707 32619 layer_factory.hpp:77] Creating layer fc6
I0805 08:57:28.598722 32619 net.cpp:106] Creating Layer fc6
I0805 08:57:28.598727 32619 net.cpp:454] fc6 <- pool5
I0805 08:57:28.598736 32619 net.cpp:411] fc6 -> fc6
I0805 08:57:29.108417 32619 net.cpp:150] Setting up fc6
I0805 08:57:29.108465 32619 net.cpp:157] Top shape: 10 4096 (40960)
I0805 08:57:29.108470 32619 net.cpp:165] Memory required for data: 76149760
I0805 08:57:29.108482 32619 layer_factory.hpp:77] Creating layer relu6
I0805 08:57:29.108508 32619 net.cpp:106] Creating Layer relu6
I0805 08:57:29.108515 32619 net.cpp:454] relu6 <- fc6
I0805 08:57:29.108522 32619 net.cpp:397] relu6 -> fc6 (in-place)
I0805 08:57:29.109025 32619 net.cpp:150] Setting up relu6
I0805 08:57:29.109042 32619 net.cpp:157] Top shape: 10 4096 (40960)
I0805 08:57:29.109046 32619 net.cpp:165] Memory required for data: 76313600
I0805 08:57:29.109051 32619 layer_factory.hpp:77] Creating layer drop6
I0805 08:57:29.109061 32619 net.cpp:106] Creating Layer drop6
I0805 08:57:29.109064 32619 net.cpp:454] drop6 <- fc6
I0805 08:57:29.109071 32619 net.cpp:397] drop6 -> fc6 (in-place)
I0805 08:57:29.109107 32619 net.cpp:150] Setting up drop6
I0805 08:57:29.109115 32619 net.cpp:157] Top shape: 10 4096 (40960)
I0805 08:57:29.109119 32619 net.cpp:165] Memory required for data: 76477440
I0805 08:57:29.109123 32619 layer_factory.hpp:77] Creating layer fc7
I0805 08:57:29.109135 32619 net.cpp:106] Creating Layer fc7
I0805 08:57:29.109139 32619 net.cpp:454] fc7 <- fc6
I0805 08:57:29.109145 32619 net.cpp:411] fc7 -> fc7
I0805 08:57:29.336000 32619 net.cpp:150] Setting up fc7
I0805 08:57:29.336043 32619 net.cpp:157] Top shape: 10 4096 (40960)
I0805 08:57:29.336050 32619 net.cpp:165] Memory required for data: 76641280
I0805 08:57:29.336061 32619 layer_factory.hpp:77] Creating layer relu7
I0805 08:57:29.336073 32619 net.cpp:106] Creating Layer relu7
I0805 08:57:29.336079 32619 net.cpp:454] relu7 <- fc7
I0805 08:57:29.336087 32619 net.cpp:397] relu7 -> fc7 (in-place)
I0805 08:57:29.336354 32619 net.cpp:150] Setting up relu7
I0805 08:57:29.336364 32619 net.cpp:157] Top shape: 10 4096 (40960)
I0805 08:57:29.336369 32619 net.cpp:165] Memory required for data: 76805120
I0805 08:57:29.336374 32619 layer_factory.hpp:77] Creating layer drop7
I0805 08:57:29.336382 32619 net.cpp:106] Creating Layer drop7
I0805 08:57:29.336386 32619 net.cpp:454] drop7 <- fc7
I0805 08:57:29.336395 32619 net.cpp:397] drop7 -> fc7 (in-place)
I0805 08:57:29.336427 32619 net.cpp:150] Setting up drop7
I0805 08:57:29.336436 32619 net.cpp:157] Top shape: 10 4096 (40960)
I0805 08:57:29.336439 32619 net.cpp:165] Memory required for data: 76968960
I0805 08:57:29.336447 32619 layer_factory.hpp:77] Creating layer fc8_occlusion
I0805 08:57:29.336459 32619 net.cpp:106] Creating Layer fc8_occlusion
I0805 08:57:29.336463 32619 net.cpp:454] fc8_occlusion <- fc7
I0805 08:57:29.336472 32619 net.cpp:411] fc8_occlusion -> fc8_occlusion
I0805 08:57:29.338292 32619 net.cpp:150] Setting up fc8_occlusion
I0805 08:57:29.338309 32619 net.cpp:157] Top shape: 10 20 (200)
I0805 08:57:29.338313 32619 net.cpp:165] Memory required for data: 76969760
I0805 08:57:29.338321 32619 layer_factory.hpp:77] Creating layer prob
I0805 08:57:29.338330 32619 net.cpp:106] Creating Layer prob
I0805 08:57:29.338335 32619 net.cpp:454] prob <- fc8_occlusion
I0805 08:57:29.338342 32619 net.cpp:411] prob -> prob
I0805 08:57:29.338744 32619 net.cpp:150] Setting up prob
I0805 08:57:29.338759 32619 net.cpp:157] Top shape: 10 20 (200)
I0805 08:57:29.338764 32619 net.cpp:165] Memory required for data: 76970560
I0805 08:57:29.338769 32619 net.cpp:228] prob does not need backward computation.
I0805 08:57:29.338774 32619 net.cpp:228] fc8_occlusion does not need backward computation.
I0805 08:57:29.338778 32619 net.cpp:228] drop7 does not need backward computation.
I0805 08:57:29.338783 32619 net.cpp:228] relu7 does not need backward computation.
…
