discarding /home/haow3/miniconda2/bin from PATH
prepending /home/haow3/miniconda2/envs/cafferc3/bin to PATH
WARNING: Logging before InitGoogleLogging() is written to STDERR
I0805 08:57:35.332850 20905 net.cpp:49] Initializing net from parameters: 
name: "AlexNetOcclusion"
input: "data"
state {
  phase: TEST
}
input_shape {
  dim: 10
  dim: 3
  dim: 227
  dim: 227
}
layer {
  name: "conv1"
  type: "Convolution"
  bottom: "data"
  top: "conv1"
  param {
    lr_mult: 0
    decay_mult: 1
  }
  param {
    lr_mult: 0
    decay_mult: 0
  }
  convolution_param {
    num_output: 96
    kernel_size: 11
    stride: 4
    weight_filler {
      type: "gaussian"
      std: 0.01
    }
    bias_filler {
      type: "constant"
      value: 0
    }
  }
}
layer {
  name: "relu1"
  type: "ReLU"
  bottom: "conv1"
  top: "conv1"
}
layer {
  name: "norm1"
  type: "LRN"
  bottom: "conv1"
  top: "norm1"
  lrn_param {
    local_size: 5
    alpha: 0.0001
    beta: 0.75
  }
}
layer {
  name: "pool1"
  type: "Pooling"
  bottom: "norm1"
  top: "pool1"
  pooling_param {
    pool: MAX
    kernel_size: 3
    stride: 2
  }
}
layer {
  name: "conv2"
  type: "Convolution"
  bottom: "pool1"
  top: "conv2"
  param {
    lr_mult: 0
    decay_mult: 1
  }
  param {
    lr_mult: 0
    decay_mult: 0
  }
  convolution_param {
    num_output: 256
    pad: 2
    kernel_size: 5
    group: 2
    weight_filler {
      type: "gaussian"
      std: 0.01
    }
    bias_filler {
      type: "constant"
      value: 0.1
    }
  }
}
layer {
  name: "relu2"
  type: "ReLU"
  bottom: "conv2"
  top: "conv2"
}
layer {
  name: "norm2"
  type: "LRN"
  bottom: "conv2"
  top: "norm2"
  lrn_param {
    local_size: 5
    alpha: 0.0001
    beta: 0.75
  }
}
layer {
  name: "pool2"
  type: "Pooling"
  bottom: "norm2"
  top: "pool2"
  pooling_param {
    pool: MAX
    kernel_size: 3
    stride: 2
  }
}
layer {
  name: "conv3"
  type: "Convolution"
  bottom: "pool2"
  top: "conv3"
  param {
    lr_mult: 0
    decay_mult: 1
  }
  param {
    lr_mult: 0
    decay_mult: 0
  }
  convolution_param {
    num_output: 384
    pad: 1
    kernel_size: 3
    weight_filler {
      type: "gaussian"
      std: 0.01
    }
    bias_filler {
      type: "constant"
      value: 0
    }
  }
}
layer {
  name: "relu3"
  type: "ReLU"
  bottom: "conv3"
  top: "conv3"
}
layer {
  name: "conv4"
  type: "Convolution"
  bottom: "conv3"
  top: "conv4"
  param {
    lr_mult: 0
    decay_mult: 1
  }
  param {
    lr_mult: 0
    decay_mult: 0
  }
  convolution_param {
    num_output: 384
    pad: 1
    kernel_size: 3
    group: 2
    weight_filler {
      type: "gaussian"
      std: 0.01
    }
    bias_filler {
      type: "constant"
      value: 0.1
    }
  }
}
layer {
  name: "relu4"
  type: "ReLU"
  bottom: "conv4"
  top: "conv4"
}
layer {
  name: "conv5"
  type: "Convolution"
  bottom: "conv4"
  top: "conv5"
  param {
    lr_mult: 0
    decay_mult: 1
  }
  param {
    lr_mult: 0
    decay_mult: 0
  }
  convolution_param {
    num_output: 256
    pad: 1
    kernel_size: 3
    group: 2
    weight_filler {
      type: "gaussian"
      std: 0.01
    }
    bias_filler {
      type: "constant"
      value: 0.1
    }
  }
}
layer {
  name: "relu5"
  type: "ReLU"
  bottom: "conv5"
  top: "conv5"
}
layer {
  name: "pool5"
  type: "Pooling"
  bottom: "conv5"
  top: "pool5"
  pooling_param {
    pool: MAX
    kernel_size: 3
    stride: 2
  }
}
layer {
  name: "fc6"
  type: "InnerProduct"
  bottom: "pool5"
  top: "fc6"
  param {
    lr_mult: 0
    decay_mult: 1
  }
  param {
    lr_mult: 0
    decay_mult: 0
  }
  inner_product_param {
    num_output: 4096
    weight_filler {
      type: "gaussian"
      std: 0.005
    }
    bias_filler {
      type: "constant"
      value: 0.1
    }
  }
}
layer {
  name: "relu6"
  type: "ReLU"
  bottom: "fc6"
  top: "fc6"
}
layer {
  name: "drop6"
  type: "Dropout"
  bottom: "fc6"
  top: "fc6"
  dropout_param {
    dropout_ratio: 0.5
  }
}
layer {
  name: "fc7"
  type: "InnerProduct"
  bottom: "fc6"
  top: "fc7"
  param {
    lr_mult: 0
    decay_mult: 1
  }
  param {
    lr_mult: 0
    decay_mult: 0
  }
  inner_product_param {
    num_output: 4096
    weight_filler {
      type: "gaussian"
      std: 0.005
    }
    bias_filler {
      type: "constant"
      value: 0.1
    }
  }
}
layer {
  name: "relu7"
  type: "ReLU"
  bottom: "fc7"
  top: "fc7"
}
layer {
  name: "drop7"
  type: "Dropout"
  bottom: "fc7"
  top: "fc7"
  dropout_param {
    dropout_ratio: 0.5
  }
}
layer {
  name: "fc8_occlusion"
  type: "InnerProduct"
  bottom: "fc7"
  top: "fc8_occlusion"
  param {
    lr_mult: 1
    decay_mult: 1
  }
  param {
    lr_mult: 2
    decay_mult: 0
  }
  inner_product_param {
    num_output: 20
    weight_filler {
      type: "gaussian"
      std: 0.01
    }
    bias_filler {
      type: "constant"
      value: 0
    }
  }
}
layer {
  name: "prob"
  type: "Softmax"
  bottom: "fc8_occlusion"
  top: "prob"
}
I0805 08:57:35.332968 20905 net.cpp:413] Input 0 -> data
I0805 08:57:35.342181 20905 layer_factory.hpp:77] Creating layer conv1
I0805 08:57:35.342221 20905 net.cpp:106] Creating Layer conv1
I0805 08:57:35.342226 20905 net.cpp:454] conv1 <- data
I0805 08:57:35.342233 20905 net.cpp:411] conv1 -> conv1
I0805 08:57:35.552876 20905 net.cpp:150] Setting up conv1
I0805 08:57:35.552933 20905 net.cpp:157] Top shape: 10 96 55 55 (2904000)
I0805 08:57:35.552938 20905 net.cpp:165] Memory required for data: 11616000
I0805 08:57:35.552960 20905 layer_factory.hpp:77] Creating layer relu1
I0805 08:57:35.552976 20905 net.cpp:106] Creating Layer relu1
I0805 08:57:35.552981 20905 net.cpp:454] relu1 <- conv1
I0805 08:57:35.552988 20905 net.cpp:397] relu1 -> conv1 (in-place)
I0805 08:57:35.553355 20905 net.cpp:150] Setting up relu1
I0805 08:57:35.553366 20905 net.cpp:157] Top shape: 10 96 55 55 (2904000)
I0805 08:57:35.553370 20905 net.cpp:165] Memory required for data: 23232000
I0805 08:57:35.553375 20905 layer_factory.hpp:77] Creating layer norm1
I0805 08:57:35.553385 20905 net.cpp:106] Creating Layer norm1
I0805 08:57:35.553390 20905 net.cpp:454] norm1 <- conv1
I0805 08:57:35.553395 20905 net.cpp:411] norm1 -> norm1
I0805 08:57:35.554641 20905 net.cpp:150] Setting up norm1
I0805 08:57:35.554651 20905 net.cpp:157] Top shape: 10 96 55 55 (2904000)
I0805 08:57:35.554654 20905 net.cpp:165] Memory required for data: 34848000
I0805 08:57:35.554658 20905 layer_factory.hpp:77] Creating layer pool1
I0805 08:57:35.554666 20905 net.cpp:106] Creating Layer pool1
I0805 08:57:35.554669 20905 net.cpp:454] pool1 <- norm1
I0805 08:57:35.554674 20905 net.cpp:411] pool1 -> pool1
I0805 08:57:35.554708 20905 net.cpp:150] Setting up pool1
I0805 08:57:35.554714 20905 net.cpp:157] Top shape: 10 96 27 27 (699840)
I0805 08:57:35.554718 20905 net.cpp:165] Memory required for data: 37647360
I0805 08:57:35.554720 20905 layer_factory.hpp:77] Creating layer conv2
I0805 08:57:35.554733 20905 net.cpp:106] Creating Layer conv2
I0805 08:57:35.554738 20905 net.cpp:454] conv2 <- pool1
I0805 08:57:35.554743 20905 net.cpp:411] conv2 -> conv2
I0805 08:57:35.562793 20905 net.cpp:150] Setting up conv2
I0805 08:57:35.562808 20905 net.cpp:157] Top shape: 10 256 27 27 (1866240)
I0805 08:57:35.562813 20905 net.cpp:165] Memory required for data: 45112320
I0805 08:57:35.562822 20905 layer_factory.hpp:77] Creating layer relu2
I0805 08:57:35.562829 20905 net.cpp:106] Creating Layer relu2
I0805 08:57:35.562832 20905 net.cpp:454] relu2 <- conv2
I0805 08:57:35.562839 20905 net.cpp:397] relu2 -> conv2 (in-place)
I0805 08:57:35.563225 20905 net.cpp:150] Setting up relu2
I0805 08:57:35.563235 20905 net.cpp:157] Top shape: 10 256 27 27 (1866240)
I0805 08:57:35.563237 20905 net.cpp:165] Memory required for data: 52577280
I0805 08:57:35.563241 20905 layer_factory.hpp:77] Creating layer norm2
I0805 08:57:35.563248 20905 net.cpp:106] Creating Layer norm2
I0805 08:57:35.563251 20905 net.cpp:454] norm2 <- conv2
I0805 08:57:35.563257 20905 net.cpp:411] norm2 -> norm2
I0805 08:57:35.563547 20905 net.cpp:150] Setting up norm2
I0805 08:57:35.563558 20905 net.cpp:157] Top shape: 10 256 27 27 (1866240)
I0805 08:57:35.563562 20905 net.cpp:165] Memory required for data: 60042240
I0805 08:57:35.563566 20905 layer_factory.hpp:77] Creating layer pool2
I0805 08:57:35.563580 20905 net.cpp:106] Creating Layer pool2
I0805 08:57:35.563583 20905 net.cpp:454] pool2 <- norm2
I0805 08:57:35.563590 20905 net.cpp:411] pool2 -> pool2
I0805 08:57:35.563623 20905 net.cpp:150] Setting up pool2
I0805 08:57:35.563629 20905 net.cpp:157] Top shape: 10 256 13 13 (432640)
I0805 08:57:35.563632 20905 net.cpp:165] Memory required for data: 61772800
I0805 08:57:35.563635 20905 layer_factory.hpp:77] Creating layer conv3
I0805 08:57:35.563647 20905 net.cpp:106] Creating Layer conv3
I0805 08:57:35.563650 20905 net.cpp:454] conv3 <- pool2
I0805 08:57:35.563657 20905 net.cpp:411] conv3 -> conv3
I0805 08:57:35.574949 20905 net.cpp:150] Setting up conv3
I0805 08:57:35.574966 20905 net.cpp:157] Top shape: 10 384 13 13 (648960)
I0805 08:57:35.574970 20905 net.cpp:165] Memory required for data: 64368640
I0805 08:57:35.574980 20905 layer_factory.hpp:77] Creating layer relu3
I0805 08:57:35.574987 20905 net.cpp:106] Creating Layer relu3
I0805 08:57:35.574991 20905 net.cpp:454] relu3 <- conv3
I0805 08:57:35.574996 20905 net.cpp:397] relu3 -> conv3 (in-place)
I0805 08:57:35.575147 20905 net.cpp:150] Setting up relu3
I0805 08:57:35.575155 20905 net.cpp:157] Top shape: 10 384 13 13 (648960)
I0805 08:57:35.575158 20905 net.cpp:165] Memory required for data: 66964480
I0805 08:57:35.575162 20905 layer_factory.hpp:77] Creating layer conv4
I0805 08:57:35.575172 20905 net.cpp:106] Creating Layer conv4
I0805 08:57:35.575176 20905 net.cpp:454] conv4 <- conv3
I0805 08:57:35.575182 20905 net.cpp:411] conv4 -> conv4
I0805 08:57:35.584072 20905 net.cpp:150] Setting up conv4
I0805 08:57:35.584089 20905 net.cpp:157] Top shape: 10 384 13 13 (648960)
I0805 08:57:35.584094 20905 net.cpp:165] Memory required for data: 69560320
I0805 08:57:35.584100 20905 layer_factory.hpp:77] Creating layer relu4
I0805 08:57:35.584107 20905 net.cpp:106] Creating Layer relu4
I0805 08:57:35.584111 20905 net.cpp:454] relu4 <- conv4
I0805 08:57:35.584116 20905 net.cpp:397] relu4 -> conv4 (in-place)
I0805 08:57:35.584280 20905 net.cpp:150] Setting up relu4
I0805 08:57:35.584287 20905 net.cpp:157] Top shape: 10 384 13 13 (648960)
I0805 08:57:35.584290 20905 net.cpp:165] Memory required for data: 72156160
I0805 08:57:35.584295 20905 layer_factory.hpp:77] Creating layer conv5
I0805 08:57:35.584305 20905 net.cpp:106] Creating Layer conv5
I0805 08:57:35.584308 20905 net.cpp:454] conv5 <- conv4
I0805 08:57:35.584314 20905 net.cpp:411] conv5 -> conv5
I0805 08:57:35.591158 20905 net.cpp:150] Setting up conv5
I0805 08:57:35.591187 20905 net.cpp:157] Top shape: 10 256 13 13 (432640)
I0805 08:57:35.591190 20905 net.cpp:165] Memory required for data: 73886720
I0805 08:57:35.591217 20905 layer_factory.hpp:77] Creating layer relu5
I0805 08:57:35.591228 20905 net.cpp:106] Creating Layer relu5
I0805 08:57:35.591231 20905 net.cpp:454] relu5 <- conv5
I0805 08:57:35.591238 20905 net.cpp:397] relu5 -> conv5 (in-place)
I0805 08:57:35.591403 20905 net.cpp:150] Setting up relu5
I0805 08:57:35.591411 20905 net.cpp:157] Top shape: 10 256 13 13 (432640)
I0805 08:57:35.591414 20905 net.cpp:165] Memory required for data: 75617280
I0805 08:57:35.591418 20905 layer_factory.hpp:77] Creating layer pool5
I0805 08:57:35.591425 20905 net.cpp:106] Creating Layer pool5
I0805 08:57:35.591429 20905 net.cpp:454] pool5 <- conv5
I0805 08:57:35.591435 20905 net.cpp:411] pool5 -> pool5
I0805 08:57:35.591478 20905 net.cpp:150] Setting up pool5
I0805 08:57:35.591485 20905 net.cpp:157] Top shape: 10 256 6 6 (92160)
I0805 08:57:35.591487 20905 net.cpp:165] Memory required for data: 75985920
I0805 08:57:35.591490 20905 layer_factory.hpp:77] Creating layer fc6
I0805 08:57:35.591506 20905 net.cpp:106] Creating Layer fc6
I0805 08:57:35.591509 20905 net.cpp:454] fc6 <- pool5
I0805 08:57:35.591516 20905 net.cpp:411] fc6 -> fc6
I0805 08:57:36.013391 20905 net.cpp:150] Setting up fc6
I0805 08:57:36.013432 20905 net.cpp:157] Top shape: 10 4096 (40960)
I0805 08:57:36.013435 20905 net.cpp:165] Memory required for data: 76149760
I0805 08:57:36.013445 20905 layer_factory.hpp:77] Creating layer relu6
I0805 08:57:36.013471 20905 net.cpp:106] Creating Layer relu6
I0805 08:57:36.013476 20905 net.cpp:454] relu6 <- fc6
I0805 08:57:36.013484 20905 net.cpp:397] relu6 -> fc6 (in-place)
I0805 08:57:36.013978 20905 net.cpp:150] Setting up relu6
I0805 08:57:36.013991 20905 net.cpp:157] Top shape: 10 4096 (40960)
I0805 08:57:36.013994 20905 net.cpp:165] Memory required for data: 76313600
I0805 08:57:36.013998 20905 layer_factory.hpp:77] Creating layer drop6
I0805 08:57:36.014008 20905 net.cpp:106] Creating Layer drop6
I0805 08:57:36.014011 20905 net.cpp:454] drop6 <- fc6
I0805 08:57:36.014017 20905 net.cpp:397] drop6 -> fc6 (in-place)
I0805 08:57:36.014046 20905 net.cpp:150] Setting up drop6
I0805 08:57:36.014052 20905 net.cpp:157] Top shape: 10 4096 (40960)
I0805 08:57:36.014055 20905 net.cpp:165] Memory required for data: 76477440
I0805 08:57:36.014058 20905 layer_factory.hpp:77] Creating layer fc7
I0805 08:57:36.014068 20905 net.cpp:106] Creating Layer fc7
I0805 08:57:36.014071 20905 net.cpp:454] fc7 <- fc6
I0805 08:57:36.014077 20905 net.cpp:411] fc7 -> fc7
I0805 08:57:36.202322 20905 net.cpp:150] Setting up fc7
I0805 08:57:36.202363 20905 net.cpp:157] Top shape: 10 4096 (40960)
I0805 08:57:36.202368 20905 net.cpp:165] Memory required for data: 76641280
I0805 08:57:36.202378 20905 layer_factory.hpp:77] Creating layer relu7
I0805 08:57:36.202389 20905 net.cpp:106] Creating Layer relu7
I0805 08:57:36.202394 20905 net.cpp:454] relu7 <- fc7
I0805 08:57:36.202401 20905 net.cpp:397] relu7 -> fc7 (in-place)
I0805 08:57:36.202618 20905 net.cpp:150] Setting up relu7
I0805 08:57:36.202627 20905 net.cpp:157] Top shape: 10 4096 (40960)
I0805 08:57:36.202630 20905 net.cpp:165] Memory required for data: 76805120
I0805 08:57:36.202635 20905 layer_factory.hpp:77] Creating layer drop7
I0805 08:57:36.202643 20905 net.cpp:106] Creating Layer drop7
I0805 08:57:36.202647 20905 net.cpp:454] drop7 <- fc7
I0805 08:57:36.202652 20905 net.cpp:397] drop7 -> fc7 (in-place)
I0805 08:57:36.202677 20905 net.cpp:150] Setting up drop7
I0805 08:57:36.202683 20905 net.cpp:157] Top shape: 10 4096 (40960)
I0805 08:57:36.202687 20905 net.cpp:165] Memory required for data: 76968960
I0805 08:57:36.202689 20905 layer_factory.hpp:77] Creating layer fc8_occlusion
I0805 08:57:36.202698 20905 net.cpp:106] Creating Layer fc8_occlusion
I0805 08:57:36.202702 20905 net.cpp:454] fc8_occlusion <- fc7
I0805 08:57:36.202708 20905 net.cpp:411] fc8_occlusion -> fc8_occlusion
I0805 08:57:36.204300 20905 net.cpp:150] Setting up fc8_occlusion
I0805 08:57:36.204313 20905 net.cpp:157] Top shape: 10 20 (200)
I0805 08:57:36.204316 20905 net.cpp:165] Memory required for data: 76969760
I0805 08:57:36.204322 20905 layer_factory.hpp:77] Creating layer prob
I0805 08:57:36.204331 20905 net.cpp:106] Creating Layer prob
I0805 08:57:36.204335 20905 net.cpp:454] prob <- fc8_occlusion
I0805 08:57:36.204342 20905 net.cpp:411] prob -> prob
I0805 08:57:36.204685 20905 net.cpp:150] Setting up prob
I0805 08:57:36.204697 20905 net.cpp:157] Top shape: 10 20 (200)
I0805 08:57:36.204700 20905 net.cpp:165] Memory required for data: 76970560
I0805 08:57:36.204704 20905 net.cpp:228] prob does not need backward computation.
I0805 08:57:36.204708 20905 net.cpp:228] fc8_occlusion does not need backward computation.
I0805 08:57:36.204712 20905 net.cpp:228] drop7 does not need backward computation.
I0805 08:57:36.204715 20905 net.cpp:228] relu7 does not need backward computation.
…
