discarding /home/haow3/miniconda2/bin from PATH
prepending /home/haow3/miniconda2/envs/cafferc3/bin to PATH
discarding /home/haow3/miniconda2/envs/cafferc3/bin from PATH
prepending /home/haow3/miniconda2/envs/cafferc3/bin to PATH
WARNING: Logging before InitGoogleLogging() is written to STDERR
I0729 11:21:01.749434 18702 net.cpp:49] Initializing net from parameters: 
name: "AlexNetOcclusion"
input: "data"
state {
  phase: TEST
}
input_shape {
  dim: 10
  dim: 3
  dim: 227
  dim: 227
}
layer {
  name: "conv1"
  type: "Convolution"
  bottom: "data"
  top: "conv1"
  param {
    lr_mult: 0
    decay_mult: 1
  }
  param {
    lr_mult: 0
    decay_mult: 0
  }
  convolution_param {
    num_output: 96
    kernel_size: 11
    stride: 4
    weight_filler {
      type: "gaussian"
      std: 0.01
    }
    bias_filler {
      type: "constant"
      value: 0
    }
  }
}
layer {
  name: "relu1"
  type: "ReLU"
  bottom: "conv1"
  top: "conv1"
}
layer {
  name: "norm1"
  type: "LRN"
  bottom: "conv1"
  top: "norm1"
  lrn_param {
    local_size: 5
    alpha: 0.0001
    beta: 0.75
  }
}
layer {
  name: "pool1"
  type: "Pooling"
  bottom: "norm1"
  top: "pool1"
  pooling_param {
    pool: MAX
    kernel_size: 3
    stride: 2
  }
}
layer {
  name: "conv2"
  type: "Convolution"
  bottom: "pool1"
  top: "conv2"
  param {
    lr_mult: 0
    decay_mult: 1
  }
  param {
    lr_mult: 0
    decay_mult: 0
  }
  convolution_param {
    num_output: 256
    pad: 2
    kernel_size: 5
    group: 2
    weight_filler {
      type: "gaussian"
      std: 0.01
    }
    bias_filler {
      type: "constant"
      value: 0.1
    }
  }
}
layer {
  name: "relu2"
  type: "ReLU"
  bottom: "conv2"
  top: "conv2"
}
layer {
  name: "norm2"
  type: "LRN"
  bottom: "conv2"
  top: "norm2"
  lrn_param {
    local_size: 5
    alpha: 0.0001
    beta: 0.75
  }
}
layer {
  name: "pool2"
  type: "Pooling"
  bottom: "norm2"
  top: "pool2"
  pooling_param {
    pool: MAX
    kernel_size: 3
    stride: 2
  }
}
layer {
  name: "conv3"
  type: "Convolution"
  bottom: "pool2"
  top: "conv3"
  param {
    lr_mult: 0
    decay_mult: 1
  }
  param {
    lr_mult: 0
    decay_mult: 0
  }
  convolution_param {
    num_output: 384
    pad: 1
    kernel_size: 3
    weight_filler {
      type: "gaussian"
      std: 0.01
    }
    bias_filler {
      type: "constant"
      value: 0
    }
  }
}
layer {
  name: "relu3"
  type: "ReLU"
  bottom: "conv3"
  top: "conv3"
}
layer {
  name: "conv4"
  type: "Convolution"
  bottom: "conv3"
  top: "conv4"
  param {
    lr_mult: 0
    decay_mult: 1
  }
  param {
    lr_mult: 0
    decay_mult: 0
  }
  convolution_param {
    num_output: 384
    pad: 1
    kernel_size: 3
    group: 2
    weight_filler {
      type: "gaussian"
      std: 0.01
    }
    bias_filler {
      type: "constant"
      value: 0.1
    }
  }
}
layer {
  name: "relu4"
  type: "ReLU"
  bottom: "conv4"
  top: "conv4"
}
layer {
  name: "conv5"
  type: "Convolution"
  bottom: "conv4"
  top: "conv5"
  param {
    lr_mult: 0
    decay_mult: 1
  }
  param {
    lr_mult: 0
    decay_mult: 0
  }
  convolution_param {
    num_output: 256
    pad: 1
    kernel_size: 3
    group: 2
    weight_filler {
      type: "gaussian"
      std: 0.01
    }
    bias_filler {
      type: "constant"
      value: 0.1
    }
  }
}
layer {
  name: "relu5"
  type: "ReLU"
  bottom: "conv5"
  top: "conv5"
}
layer {
  name: "pool5"
  type: "Pooling"
  bottom: "conv5"
  top: "pool5"
  pooling_param {
    pool: MAX
    kernel_size: 3
    stride: 2
  }
}
layer {
  name: "fc6"
  type: "InnerProduct"
  bottom: "pool5"
  top: "fc6"
  param {
    lr_mult: 0
    decay_mult: 1
  }
  param {
    lr_mult: 0
    decay_mult: 0
  }
  inner_product_param {
    num_output: 4096
    weight_filler {
      type: "gaussian"
      std: 0.005
    }
    bias_filler {
      type: "constant"
      value: 0.1
    }
  }
}
layer {
  name: "relu6"
  type: "ReLU"
  bottom: "fc6"
  top: "fc6"
}
layer {
  name: "drop6"
  type: "Dropout"
  bottom: "fc6"
  top: "fc6"
  dropout_param {
    dropout_ratio: 0.5
  }
}
layer {
  name: "fc7"
  type: "InnerProduct"
  bottom: "fc6"
  top: "fc7"
  param {
    lr_mult: 0
    decay_mult: 1
  }
  param {
    lr_mult: 0
    decay_mult: 0
  }
  inner_product_param {
    num_output: 4096
    weight_filler {
      type: "gaussian"
      std: 0.005
    }
    bias_filler {
      type: "constant"
      value: 0.1
    }
  }
}
layer {
  name: "relu7"
  type: "ReLU"
  bottom: "fc7"
  top: "fc7"
}
layer {
  name: "drop7"
  type: "Dropout"
  bottom: "fc7"
  top: "fc7"
  dropout_param {
    dropout_ratio: 0.5
  }
}
layer {
  name: "fc8_occlusion"
  type: "InnerProduct"
  bottom: "fc7"
  top: "fc8_occlusion"
  param {
    lr_mult: 1
    decay_mult: 1
  }
  param {
    lr_mult: 2
    decay_mult: 0
  }
  inner_product_param {
    num_output: 20
    weight_filler {
      type: "gaussian"
      std: 0.01
    }
    bias_filler {
      type: "constant"
      value: 0
    }
  }
}
layer {
  name: "prob"
  type: "Softmax"
  bottom: "fc8_occlusion"
  top: "prob"
}
I0729 11:21:01.749584 18702 net.cpp:413] Input 0 -> data
I0729 11:21:01.760256 18702 layer_factory.hpp:77] Creating layer conv1
I0729 11:21:01.760321 18702 net.cpp:106] Creating Layer conv1
I0729 11:21:01.760329 18702 net.cpp:454] conv1 <- data
I0729 11:21:01.760340 18702 net.cpp:411] conv1 -> conv1
I0729 11:21:01.978520 18702 net.cpp:150] Setting up conv1
I0729 11:21:01.978566 18702 net.cpp:157] Top shape: 10 96 55 55 (2904000)
I0729 11:21:01.978574 18702 net.cpp:165] Memory required for data: 11616000
I0729 11:21:01.978596 18702 layer_factory.hpp:77] Creating layer relu1
I0729 11:21:01.978615 18702 net.cpp:106] Creating Layer relu1
I0729 11:21:01.978621 18702 net.cpp:454] relu1 <- conv1
I0729 11:21:01.978628 18702 net.cpp:397] relu1 -> conv1 (in-place)
I0729 11:21:01.978957 18702 net.cpp:150] Setting up relu1
I0729 11:21:01.978973 18702 net.cpp:157] Top shape: 10 96 55 55 (2904000)
I0729 11:21:01.978977 18702 net.cpp:165] Memory required for data: 23232000
I0729 11:21:01.978982 18702 layer_factory.hpp:77] Creating layer norm1
I0729 11:21:01.978996 18702 net.cpp:106] Creating Layer norm1
I0729 11:21:01.979001 18702 net.cpp:454] norm1 <- conv1
I0729 11:21:01.979007 18702 net.cpp:411] norm1 -> norm1
I0729 11:21:01.979238 18702 net.cpp:150] Setting up norm1
I0729 11:21:01.979251 18702 net.cpp:157] Top shape: 10 96 55 55 (2904000)
I0729 11:21:01.979255 18702 net.cpp:165] Memory required for data: 34848000
I0729 11:21:01.979260 18702 layer_factory.hpp:77] Creating layer pool1
I0729 11:21:01.979272 18702 net.cpp:106] Creating Layer pool1
I0729 11:21:01.979276 18702 net.cpp:454] pool1 <- norm1
I0729 11:21:01.979284 18702 net.cpp:411] pool1 -> pool1
I0729 11:21:01.979331 18702 net.cpp:150] Setting up pool1
I0729 11:21:01.979341 18702 net.cpp:157] Top shape: 10 96 27 27 (699840)
I0729 11:21:01.979344 18702 net.cpp:165] Memory required for data: 37647360
I0729 11:21:01.979348 18702 layer_factory.hpp:77] Creating layer conv2
I0729 11:21:01.979367 18702 net.cpp:106] Creating Layer conv2
I0729 11:21:01.979372 18702 net.cpp:454] conv2 <- pool1
I0729 11:21:01.979380 18702 net.cpp:411] conv2 -> conv2
I0729 11:21:01.986688 18702 net.cpp:150] Setting up conv2
I0729 11:21:01.986747 18702 net.cpp:157] Top shape: 10 256 27 27 (1866240)
I0729 11:21:01.986753 18702 net.cpp:165] Memory required for data: 45112320
I0729 11:21:01.986773 18702 layer_factory.hpp:77] Creating layer relu2
I0729 11:21:01.986791 18702 net.cpp:106] Creating Layer relu2
I0729 11:21:01.986799 18702 net.cpp:454] relu2 <- conv2
I0729 11:21:01.986806 18702 net.cpp:397] relu2 -> conv2 (in-place)
I0729 11:21:01.987057 18702 net.cpp:150] Setting up relu2
I0729 11:21:01.987069 18702 net.cpp:157] Top shape: 10 256 27 27 (1866240)
I0729 11:21:01.987073 18702 net.cpp:165] Memory required for data: 52577280
I0729 11:21:01.987078 18702 layer_factory.hpp:77] Creating layer norm2
I0729 11:21:01.987090 18702 net.cpp:106] Creating Layer norm2
I0729 11:21:01.987095 18702 net.cpp:454] norm2 <- conv2
I0729 11:21:01.987102 18702 net.cpp:411] norm2 -> norm2
I0729 11:21:01.987584 18702 net.cpp:150] Setting up norm2
I0729 11:21:01.987603 18702 net.cpp:157] Top shape: 10 256 27 27 (1866240)
I0729 11:21:01.987617 18702 net.cpp:165] Memory required for data: 60042240
I0729 11:21:01.987623 18702 layer_factory.hpp:77] Creating layer pool2
I0729 11:21:01.987637 18702 net.cpp:106] Creating Layer pool2
I0729 11:21:01.987643 18702 net.cpp:454] pool2 <- norm2
I0729 11:21:01.987649 18702 net.cpp:411] pool2 -> pool2
I0729 11:21:01.987700 18702 net.cpp:150] Setting up pool2
I0729 11:21:01.987709 18702 net.cpp:157] Top shape: 10 256 13 13 (432640)
I0729 11:21:01.987714 18702 net.cpp:165] Memory required for data: 61772800
I0729 11:21:01.987717 18702 layer_factory.hpp:77] Creating layer conv3
I0729 11:21:01.987736 18702 net.cpp:106] Creating Layer conv3
I0729 11:21:01.987741 18702 net.cpp:454] conv3 <- pool2
I0729 11:21:01.987751 18702 net.cpp:411] conv3 -> conv3
I0729 11:21:02.001808 18702 net.cpp:150] Setting up conv3
I0729 11:21:02.001855 18702 net.cpp:157] Top shape: 10 384 13 13 (648960)
I0729 11:21:02.001860 18702 net.cpp:165] Memory required for data: 64368640
I0729 11:21:02.001878 18702 layer_factory.hpp:77] Creating layer relu3
I0729 11:21:02.001893 18702 net.cpp:106] Creating Layer relu3
I0729 11:21:02.001899 18702 net.cpp:454] relu3 <- conv3
I0729 11:21:02.001906 18702 net.cpp:397] relu3 -> conv3 (in-place)
I0729 11:21:02.002110 18702 net.cpp:150] Setting up relu3
I0729 11:21:02.002123 18702 net.cpp:157] Top shape: 10 384 13 13 (648960)
I0729 11:21:02.002128 18702 net.cpp:165] Memory required for data: 66964480
I0729 11:21:02.002132 18702 layer_factory.hpp:77] Creating layer conv4
I0729 11:21:02.002151 18702 net.cpp:106] Creating Layer conv4
I0729 11:21:02.002156 18702 net.cpp:454] conv4 <- conv3
I0729 11:21:02.002162 18702 net.cpp:411] conv4 -> conv4
I0729 11:21:02.013269 18702 net.cpp:150] Setting up conv4
I0729 11:21:02.013288 18702 net.cpp:157] Top shape: 10 384 13 13 (648960)
I0729 11:21:02.013293 18702 net.cpp:165] Memory required for data: 69560320
I0729 11:21:02.013300 18702 layer_factory.hpp:77] Creating layer relu4
I0729 11:21:02.013311 18702 net.cpp:106] Creating Layer relu4
I0729 11:21:02.013316 18702 net.cpp:454] relu4 <- conv4
I0729 11:21:02.013322 18702 net.cpp:397] relu4 -> conv4 (in-place)
I0729 11:21:02.013516 18702 net.cpp:150] Setting up relu4
I0729 11:21:02.013527 18702 net.cpp:157] Top shape: 10 384 13 13 (648960)
I0729 11:21:02.013531 18702 net.cpp:165] Memory required for data: 72156160
I0729 11:21:02.013535 18702 layer_factory.hpp:77] Creating layer conv5
I0729 11:21:02.013548 18702 net.cpp:106] Creating Layer conv5
I0729 11:21:02.013553 18702 net.cpp:454] conv5 <- conv4
I0729 11:21:02.013561 18702 net.cpp:411] conv5 -> conv5
I0729 11:21:02.021863 18702 net.cpp:150] Setting up conv5
I0729 11:21:02.021888 18702 net.cpp:157] Top shape: 10 256 13 13 (432640)
I0729 11:21:02.021893 18702 net.cpp:165] Memory required for data: 73886720
I0729 11:21:02.021906 18702 layer_factory.hpp:77] Creating layer relu5
I0729 11:21:02.021915 18702 net.cpp:106] Creating Layer relu5
I0729 11:21:02.021920 18702 net.cpp:454] relu5 <- conv5
I0729 11:21:02.021929 18702 net.cpp:397] relu5 -> conv5 (in-place)
I0729 11:21:02.022143 18702 net.cpp:150] Setting up relu5
I0729 11:21:02.022155 18702 net.cpp:157] Top shape: 10 256 13 13 (432640)
I0729 11:21:02.022158 18702 net.cpp:165] Memory required for data: 75617280
I0729 11:21:02.022163 18702 layer_factory.hpp:77] Creating layer pool5
I0729 11:21:02.022171 18702 net.cpp:106] Creating Layer pool5
I0729 11:21:02.022176 18702 net.cpp:454] pool5 <- conv5
I0729 11:21:02.022187 18702 net.cpp:411] pool5 -> pool5
I0729 11:21:02.022245 18702 net.cpp:150] Setting up pool5
I0729 11:21:02.022254 18702 net.cpp:157] Top shape: 10 256 6 6 (92160)
I0729 11:21:02.022258 18702 net.cpp:165] Memory required for data: 75985920
I0729 11:21:02.022263 18702 layer_factory.hpp:77] Creating layer fc6
I0729 11:21:02.022279 18702 net.cpp:106] Creating Layer fc6
I0729 11:21:02.022282 18702 net.cpp:454] fc6 <- pool5
I0729 11:21:02.022291 18702 net.cpp:411] fc6 -> fc6
I0729 11:21:02.539764 18702 net.cpp:150] Setting up fc6
I0729 11:21:02.539831 18702 net.cpp:157] Top shape: 10 4096 (40960)
I0729 11:21:02.539847 18702 net.cpp:165] Memory required for data: 76149760
I0729 11:21:02.539867 18702 layer_factory.hpp:77] Creating layer relu6
I0729 11:21:02.539901 18702 net.cpp:106] Creating Layer relu6
I0729 11:21:02.539909 18702 net.cpp:454] relu6 <- fc6
I0729 11:21:02.539919 18702 net.cpp:397] relu6 -> fc6 (in-place)
I0729 11:21:02.540678 18702 net.cpp:150] Setting up relu6
I0729 11:21:02.540698 18702 net.cpp:157] Top shape: 10 4096 (40960)
I0729 11:21:02.540702 18702 net.cpp:165] Memory required for data: 76313600
I0729 11:21:02.540707 18702 layer_factory.hpp:77] Creating layer drop6
I0729 11:21:02.540726 18702 net.cpp:106] Creating Layer drop6
I0729 11:21:02.540732 18702 net.cpp:454] drop6 <- fc6
I0729 11:21:02.540740 18702 net.cpp:397] drop6 -> fc6 (in-place)
I0729 11:21:02.540787 18702 net.cpp:150] Setting up drop6
I0729 11:21:02.540796 18702 net.cpp:157] Top shape: 10 4096 (40960)
I0729 11:21:02.540799 18702 net.cpp:165] Memory required for data: 76477440
I0729 11:21:02.540803 18702 layer_factory.hpp:77] Creating layer fc7
I0729 11:21:02.540819 18702 net.cpp:106] Creating Layer fc7
I0729 11:21:02.540824 18702 net.cpp:454] fc7 <- fc6
I0729 11:21:02.540833 18702 net.cpp:411] fc7 -> fc7
I0729 11:21:02.769472 18702 net.cpp:150] Setting up fc7
I0729 11:21:02.769520 18702 net.cpp:157] Top shape: 10 4096 (40960)
I0729 11:21:02.769526 18702 net.cpp:165] Memory required for data: 76641280
I0729 11:21:02.769541 18702 layer_factory.hpp:77] Creating layer relu7
I0729 11:21:02.769556 18702 net.cpp:106] Creating Layer relu7
I0729 11:21:02.769564 18702 net.cpp:454] relu7 <- fc7
I0729 11:21:02.769573 18702 net.cpp:397] relu7 -> fc7 (in-place)
I0729 11:21:02.769892 18702 net.cpp:150] Setting up relu7
I0729 11:21:02.769906 18702 net.cpp:157] Top shape: 10 4096 (40960)
I0729 11:21:02.769911 18702 net.cpp:165] Memory required for data: 76805120
I0729 11:21:02.769915 18702 layer_factory.hpp:77] Creating layer drop7
I0729 11:21:02.769927 18702 net.cpp:106] Creating Layer drop7
I0729 11:21:02.769930 18702 net.cpp:454] drop7 <- fc7
I0729 11:21:02.769937 18702 net.cpp:397] drop7 -> fc7 (in-place)
I0729 11:21:02.769971 18702 net.cpp:150] Setting up drop7
I0729 11:21:02.769979 18702 net.cpp:157] Top shape: 10 4096 (40960)
I0729 11:21:02.769982 18702 net.cpp:165] Memory required for data: 76968960
I0729 11:21:02.769987 18702 layer_factory.hpp:77] Creating layer fc8_occlusion
I0729 11:21:02.770000 18702 net.cpp:106] Creating Layer fc8_occlusion
I0729 11:21:02.770005 18702 net.cpp:454] fc8_occlusion <- fc7
I0729 11:21:02.770012 18702 net.cpp:411] fc8_occlusion -> fc8_occlusion
I0729 11:21:02.771828 18702 net.cpp:150] Setting up fc8_occlusion
I0729 11:21:02.771844 18702 net.cpp:157] Top shape: 10 20 (200)
I0729 11:21:02.771848 18702 net.cpp:165] Memory required for data: 76969760
I0729 11:21:02.771857 18702 layer_factory.hpp:77] Creating layer prob
I0729 11:21:02.771869 18702 net.cpp:106] Creating Layer prob
I0729 11:21:02.771873 18702 net.cpp:454] prob <- fc8_occlusion
I0729 11:21:02.771881 18702 net.cpp:411] prob -> prob
I0729 11:21:02.772299 18702 net.cpp:150] Setting up prob
I0729 11:21:02.772315 18702 net.cpp:157] Top shape: 10 20 (200)
I0729 11:21:02.772326 18702 net.cpp:165] Memory required for data: 76970560
I0729 11:21:02.772332 18702 net.cpp:228] prob does not need backward computation.
I0729 11:21:02.772337 18702 net.cpp:228] fc8_occlusion does not need backward computation.
I0729 11:21:02.772341 18702 net.cpp:228] drop7 does not need backward computation.
I0729 11:21:02.772346 18702 net.cpp:228] relu7 does not need backward computation.
…
