discarding /home/haow3/miniconda2/bin from PATH
prepending /home/haow3/miniconda2/envs/cafferc3/bin to PATH
WARNING: Logging before InitGoogleLogging() is written to STDERR
I0805 08:58:02.695780   836 net.cpp:49] Initializing net from parameters: 
name: "AlexNetOcclusion"
input: "data"
state {
  phase: TEST
}
input_shape {
  dim: 10
  dim: 3
  dim: 227
  dim: 227
}
layer {
  name: "conv1"
  type: "Convolution"
  bottom: "data"
  top: "conv1"
  param {
    lr_mult: 0
    decay_mult: 1
  }
  param {
    lr_mult: 0
    decay_mult: 0
  }
  convolution_param {
    num_output: 96
    kernel_size: 11
    stride: 4
    weight_filler {
      type: "gaussian"
      std: 0.01
    }
    bias_filler {
      type: "constant"
      value: 0
    }
  }
}
layer {
  name: "relu1"
  type: "ReLU"
  bottom: "conv1"
  top: "conv1"
}
layer {
  name: "norm1"
  type: "LRN"
  bottom: "conv1"
  top: "norm1"
  lrn_param {
    local_size: 5
    alpha: 0.0001
    beta: 0.75
  }
}
layer {
  name: "pool1"
  type: "Pooling"
  bottom: "norm1"
  top: "pool1"
  pooling_param {
    pool: MAX
    kernel_size: 3
    stride: 2
  }
}
layer {
  name: "conv2"
  type: "Convolution"
  bottom: "pool1"
  top: "conv2"
  param {
    lr_mult: 0
    decay_mult: 1
  }
  param {
    lr_mult: 0
    decay_mult: 0
  }
  convolution_param {
    num_output: 256
    pad: 2
    kernel_size: 5
    group: 2
    weight_filler {
      type: "gaussian"
      std: 0.01
    }
    bias_filler {
      type: "constant"
      value: 0.1
    }
  }
}
layer {
  name: "relu2"
  type: "ReLU"
  bottom: "conv2"
  top: "conv2"
}
layer {
  name: "norm2"
  type: "LRN"
  bottom: "conv2"
  top: "norm2"
  lrn_param {
    local_size: 5
    alpha: 0.0001
    beta: 0.75
  }
}
layer {
  name: "pool2"
  type: "Pooling"
  bottom: "norm2"
  top: "pool2"
  pooling_param {
    pool: MAX
    kernel_size: 3
    stride: 2
  }
}
layer {
  name: "conv3"
  type: "Convolution"
  bottom: "pool2"
  top: "conv3"
  param {
    lr_mult: 0
    decay_mult: 1
  }
  param {
    lr_mult: 0
    decay_mult: 0
  }
  convolution_param {
    num_output: 384
    pad: 1
    kernel_size: 3
    weight_filler {
      type: "gaussian"
      std: 0.01
    }
    bias_filler {
      type: "constant"
      value: 0
    }
  }
}
layer {
  name: "relu3"
  type: "ReLU"
  bottom: "conv3"
  top: "conv3"
}
layer {
  name: "conv4"
  type: "Convolution"
  bottom: "conv3"
  top: "conv4"
  param {
    lr_mult: 0
    decay_mult: 1
  }
  param {
    lr_mult: 0
    decay_mult: 0
  }
  convolution_param {
    num_output: 384
    pad: 1
    kernel_size: 3
    group: 2
    weight_filler {
      type: "gaussian"
      std: 0.01
    }
    bias_filler {
      type: "constant"
      value: 0.1
    }
  }
}
layer {
  name: "relu4"
  type: "ReLU"
  bottom: "conv4"
  top: "conv4"
}
layer {
  name: "conv5"
  type: "Convolution"
  bottom: "conv4"
  top: "conv5"
  param {
    lr_mult: 0
    decay_mult: 1
  }
  param {
    lr_mult: 0
    decay_mult: 0
  }
  convolution_param {
    num_output: 256
    pad: 1
    kernel_size: 3
    group: 2
    weight_filler {
      type: "gaussian"
      std: 0.01
    }
    bias_filler {
      type: "constant"
      value: 0.1
    }
  }
}
layer {
  name: "relu5"
  type: "ReLU"
  bottom: "conv5"
  top: "conv5"
}
layer {
  name: "pool5"
  type: "Pooling"
  bottom: "conv5"
  top: "pool5"
  pooling_param {
    pool: MAX
    kernel_size: 3
    stride: 2
  }
}
layer {
  name: "fc6"
  type: "InnerProduct"
  bottom: "pool5"
  top: "fc6"
  param {
    lr_mult: 0
    decay_mult: 1
  }
  param {
    lr_mult: 0
    decay_mult: 0
  }
  inner_product_param {
    num_output: 4096
    weight_filler {
      type: "gaussian"
      std: 0.005
    }
    bias_filler {
      type: "constant"
      value: 0.1
    }
  }
}
layer {
  name: "relu6"
  type: "ReLU"
  bottom: "fc6"
  top: "fc6"
}
layer {
  name: "drop6"
  type: "Dropout"
  bottom: "fc6"
  top: "fc6"
  dropout_param {
    dropout_ratio: 0.5
  }
}
layer {
  name: "fc7"
  type: "InnerProduct"
  bottom: "fc6"
  top: "fc7"
  param {
    lr_mult: 0
    decay_mult: 1
  }
  param {
    lr_mult: 0
    decay_mult: 0
  }
  inner_product_param {
    num_output: 4096
    weight_filler {
      type: "gaussian"
      std: 0.005
    }
    bias_filler {
      type: "constant"
      value: 0.1
    }
  }
}
layer {
  name: "relu7"
  type: "ReLU"
  bottom: "fc7"
  top: "fc7"
}
layer {
  name: "drop7"
  type: "Dropout"
  bottom: "fc7"
  top: "fc7"
  dropout_param {
    dropout_ratio: 0.5
  }
}
layer {
  name: "fc8_occlusion"
  type: "InnerProduct"
  bottom: "fc7"
  top: "fc8_occlusion"
  param {
    lr_mult: 1
    decay_mult: 1
  }
  param {
    lr_mult: 2
    decay_mult: 0
  }
  inner_product_param {
    num_output: 20
    weight_filler {
      type: "gaussian"
      std: 0.01
    }
    bias_filler {
      type: "constant"
      value: 0
    }
  }
}
layer {
  name: "prob"
  type: "Softmax"
  bottom: "fc8_occlusion"
  top: "prob"
}
I0805 08:58:02.695956   836 net.cpp:413] Input 0 -> data
I0805 08:58:02.733937   836 layer_factory.hpp:77] Creating layer conv1
I0805 08:58:02.734002   836 net.cpp:106] Creating Layer conv1
I0805 08:58:02.734009   836 net.cpp:454] conv1 <- data
I0805 08:58:02.734019   836 net.cpp:411] conv1 -> conv1
I0805 08:58:02.949715   836 net.cpp:150] Setting up conv1
I0805 08:58:02.949771   836 net.cpp:157] Top shape: 10 96 55 55 (2904000)
I0805 08:58:02.949777   836 net.cpp:165] Memory required for data: 11616000
I0805 08:58:02.949801   836 layer_factory.hpp:77] Creating layer relu1
I0805 08:58:02.949820   836 net.cpp:106] Creating Layer relu1
I0805 08:58:02.949826   836 net.cpp:454] relu1 <- conv1
I0805 08:58:02.949833   836 net.cpp:397] relu1 -> conv1 (in-place)
I0805 08:58:02.950181   836 net.cpp:150] Setting up relu1
I0805 08:58:02.950196   836 net.cpp:157] Top shape: 10 96 55 55 (2904000)
I0805 08:58:02.950199   836 net.cpp:165] Memory required for data: 23232000
I0805 08:58:02.950204   836 layer_factory.hpp:77] Creating layer norm1
I0805 08:58:02.950217   836 net.cpp:106] Creating Layer norm1
I0805 08:58:02.950222   836 net.cpp:454] norm1 <- conv1
I0805 08:58:02.950229   836 net.cpp:411] norm1 -> norm1
I0805 08:58:02.951548   836 net.cpp:150] Setting up norm1
I0805 08:58:02.951562   836 net.cpp:157] Top shape: 10 96 55 55 (2904000)
I0805 08:58:02.951566   836 net.cpp:165] Memory required for data: 34848000
I0805 08:58:02.951571   836 layer_factory.hpp:77] Creating layer pool1
I0805 08:58:02.951581   836 net.cpp:106] Creating Layer pool1
I0805 08:58:02.951586   836 net.cpp:454] pool1 <- norm1
I0805 08:58:02.951591   836 net.cpp:411] pool1 -> pool1
I0805 08:58:02.951643   836 net.cpp:150] Setting up pool1
I0805 08:58:02.951653   836 net.cpp:157] Top shape: 10 96 27 27 (699840)
I0805 08:58:02.951655   836 net.cpp:165] Memory required for data: 37647360
I0805 08:58:02.951659   836 layer_factory.hpp:77] Creating layer conv2
I0805 08:58:02.951678   836 net.cpp:106] Creating Layer conv2
I0805 08:58:02.951681   836 net.cpp:454] conv2 <- pool1
I0805 08:58:02.951688   836 net.cpp:411] conv2 -> conv2
I0805 08:58:02.963263   836 net.cpp:150] Setting up conv2
I0805 08:58:02.963281   836 net.cpp:157] Top shape: 10 256 27 27 (1866240)
I0805 08:58:02.963286   836 net.cpp:165] Memory required for data: 45112320
I0805 08:58:02.963297   836 layer_factory.hpp:77] Creating layer relu2
I0805 08:58:02.963305   836 net.cpp:106] Creating Layer relu2
I0805 08:58:02.963310   836 net.cpp:454] relu2 <- conv2
I0805 08:58:02.963315   836 net.cpp:397] relu2 -> conv2 (in-place)
I0805 08:58:02.963790   836 net.cpp:150] Setting up relu2
I0805 08:58:02.963802   836 net.cpp:157] Top shape: 10 256 27 27 (1866240)
I0805 08:58:02.963807   836 net.cpp:165] Memory required for data: 52577280
I0805 08:58:02.963811   836 layer_factory.hpp:77] Creating layer norm2
I0805 08:58:02.963819   836 net.cpp:106] Creating Layer norm2
I0805 08:58:02.963824   836 net.cpp:454] norm2 <- conv2
I0805 08:58:02.963829   836 net.cpp:411] norm2 -> norm2
I0805 08:58:02.964802   836 net.cpp:150] Setting up norm2
I0805 08:58:02.964818   836 net.cpp:157] Top shape: 10 256 27 27 (1866240)
I0805 08:58:02.964821   836 net.cpp:165] Memory required for data: 60042240
I0805 08:58:02.964826   836 layer_factory.hpp:77] Creating layer pool2
I0805 08:58:02.964844   836 net.cpp:106] Creating Layer pool2
I0805 08:58:02.964848   836 net.cpp:454] pool2 <- norm2
I0805 08:58:02.964855   836 net.cpp:411] pool2 -> pool2
I0805 08:58:02.964895   836 net.cpp:150] Setting up pool2
I0805 08:58:02.964902   836 net.cpp:157] Top shape: 10 256 13 13 (432640)
I0805 08:58:02.964906   836 net.cpp:165] Memory required for data: 61772800
I0805 08:58:02.964910   836 layer_factory.hpp:77] Creating layer conv3
I0805 08:58:02.964922   836 net.cpp:106] Creating Layer conv3
I0805 08:58:02.964926   836 net.cpp:454] conv3 <- pool2
I0805 08:58:02.964933   836 net.cpp:411] conv3 -> conv3
I0805 08:58:02.979460   836 net.cpp:150] Setting up conv3
I0805 08:58:02.979477   836 net.cpp:157] Top shape: 10 384 13 13 (648960)
I0805 08:58:02.979481   836 net.cpp:165] Memory required for data: 64368640
I0805 08:58:02.979493   836 layer_factory.hpp:77] Creating layer relu3
I0805 08:58:02.979502   836 net.cpp:106] Creating Layer relu3
I0805 08:58:02.979506   836 net.cpp:454] relu3 <- conv3
I0805 08:58:02.979513   836 net.cpp:397] relu3 -> conv3 (in-place)
I0805 08:58:02.980502   836 net.cpp:150] Setting up relu3
I0805 08:58:02.980515   836 net.cpp:157] Top shape: 10 384 13 13 (648960)
I0805 08:58:02.980520   836 net.cpp:165] Memory required for data: 66964480
I0805 08:58:02.980523   836 layer_factory.hpp:77] Creating layer conv4
I0805 08:58:02.980535   836 net.cpp:106] Creating Layer conv4
I0805 08:58:02.980540   836 net.cpp:454] conv4 <- conv3
I0805 08:58:02.980548   836 net.cpp:411] conv4 -> conv4
I0805 08:58:02.991523   836 net.cpp:150] Setting up conv4
I0805 08:58:02.991540   836 net.cpp:157] Top shape: 10 384 13 13 (648960)
I0805 08:58:02.991545   836 net.cpp:165] Memory required for data: 69560320
I0805 08:58:02.991554   836 layer_factory.hpp:77] Creating layer relu4
I0805 08:58:02.991562   836 net.cpp:106] Creating Layer relu4
I0805 08:58:02.991566   836 net.cpp:454] relu4 <- conv4
I0805 08:58:02.991572   836 net.cpp:397] relu4 -> conv4 (in-place)
I0805 08:58:02.991762   836 net.cpp:150] Setting up relu4
I0805 08:58:02.991775   836 net.cpp:157] Top shape: 10 384 13 13 (648960)
I0805 08:58:02.991778   836 net.cpp:165] Memory required for data: 72156160
I0805 08:58:02.991782   836 layer_factory.hpp:77] Creating layer conv5
I0805 08:58:02.991796   836 net.cpp:106] Creating Layer conv5
I0805 08:58:02.991801   836 net.cpp:454] conv5 <- conv4
I0805 08:58:02.991808   836 net.cpp:411] conv5 -> conv5
I0805 08:58:02.999950   836 net.cpp:150] Setting up conv5
I0805 08:58:02.999969   836 net.cpp:157] Top shape: 10 256 13 13 (432640)
I0805 08:58:02.999972   836 net.cpp:165] Memory required for data: 73886720
I0805 08:58:02.999984   836 layer_factory.hpp:77] Creating layer relu5
I0805 08:58:02.999992   836 net.cpp:106] Creating Layer relu5
I0805 08:58:02.999996   836 net.cpp:454] relu5 <- conv5
I0805 08:58:03.000003   836 net.cpp:397] relu5 -> conv5 (in-place)
I0805 08:58:03.000193   836 net.cpp:150] Setting up relu5
I0805 08:58:03.000205   836 net.cpp:157] Top shape: 10 256 13 13 (432640)
I0805 08:58:03.000208   836 net.cpp:165] Memory required for data: 75617280
I0805 08:58:03.000213   836 layer_factory.hpp:77] Creating layer pool5
I0805 08:58:03.000221   836 net.cpp:106] Creating Layer pool5
I0805 08:58:03.000226   836 net.cpp:454] pool5 <- conv5
I0805 08:58:03.000231   836 net.cpp:411] pool5 -> pool5
I0805 08:58:03.000278   836 net.cpp:150] Setting up pool5
I0805 08:58:03.000286   836 net.cpp:157] Top shape: 10 256 6 6 (92160)
I0805 08:58:03.000289   836 net.cpp:165] Memory required for data: 75985920
I0805 08:58:03.000293   836 layer_factory.hpp:77] Creating layer fc6
I0805 08:58:03.000306   836 net.cpp:106] Creating Layer fc6
I0805 08:58:03.000310   836 net.cpp:454] fc6 <- pool5
I0805 08:58:03.000318   836 net.cpp:411] fc6 -> fc6
I0805 08:58:03.516170   836 net.cpp:150] Setting up fc6
I0805 08:58:03.516219   836 net.cpp:157] Top shape: 10 4096 (40960)
I0805 08:58:03.516224   836 net.cpp:165] Memory required for data: 76149760
I0805 08:58:03.516238   836 layer_factory.hpp:77] Creating layer relu6
I0805 08:58:03.516268   836 net.cpp:106] Creating Layer relu6
I0805 08:58:03.516274   836 net.cpp:454] relu6 <- fc6
I0805 08:58:03.516283   836 net.cpp:397] relu6 -> fc6 (in-place)
I0805 08:58:03.516827   836 net.cpp:150] Setting up relu6
I0805 08:58:03.516842   836 net.cpp:157] Top shape: 10 4096 (40960)
I0805 08:58:03.516846   836 net.cpp:165] Memory required for data: 76313600
I0805 08:58:03.516851   836 layer_factory.hpp:77] Creating layer drop6
I0805 08:58:03.516861   836 net.cpp:106] Creating Layer drop6
I0805 08:58:03.516866   836 net.cpp:454] drop6 <- fc6
I0805 08:58:03.516873   836 net.cpp:397] drop6 -> fc6 (in-place)
I0805 08:58:03.516906   836 net.cpp:150] Setting up drop6
I0805 08:58:03.516913   836 net.cpp:157] Top shape: 10 4096 (40960)
I0805 08:58:03.516917   836 net.cpp:165] Memory required for data: 76477440
I0805 08:58:03.516921   836 layer_factory.hpp:77] Creating layer fc7
I0805 08:58:03.516932   836 net.cpp:106] Creating Layer fc7
I0805 08:58:03.516935   836 net.cpp:454] fc7 <- fc6
I0805 08:58:03.516942   836 net.cpp:411] fc7 -> fc7
I0805 08:58:03.746559   836 net.cpp:150] Setting up fc7
I0805 08:58:03.746618   836 net.cpp:157] Top shape: 10 4096 (40960)
I0805 08:58:03.746623   836 net.cpp:165] Memory required for data: 76641280
I0805 08:58:03.746637   836 layer_factory.hpp:77] Creating layer relu7
I0805 08:58:03.746652   836 net.cpp:106] Creating Layer relu7
I0805 08:58:03.746659   836 net.cpp:454] relu7 <- fc7
I0805 08:58:03.746668   836 net.cpp:397] relu7 -> fc7 (in-place)
I0805 08:58:03.746932   836 net.cpp:150] Setting up relu7
I0805 08:58:03.746945   836 net.cpp:157] Top shape: 10 4096 (40960)
I0805 08:58:03.746949   836 net.cpp:165] Memory required for data: 76805120
I0805 08:58:03.746953   836 layer_factory.hpp:77] Creating layer drop7
I0805 08:58:03.746963   836 net.cpp:106] Creating Layer drop7
I0805 08:58:03.746968   836 net.cpp:454] drop7 <- fc7
I0805 08:58:03.746974   836 net.cpp:397] drop7 -> fc7 (in-place)
I0805 08:58:03.747009   836 net.cpp:150] Setting up drop7
I0805 08:58:03.747016   836 net.cpp:157] Top shape: 10 4096 (40960)
I0805 08:58:03.747020   836 net.cpp:165] Memory required for data: 76968960
I0805 08:58:03.747025   836 layer_factory.hpp:77] Creating layer fc8_occlusion
I0805 08:58:03.747035   836 net.cpp:106] Creating Layer fc8_occlusion
I0805 08:58:03.747038   836 net.cpp:454] fc8_occlusion <- fc7
I0805 08:58:03.747045   836 net.cpp:411] fc8_occlusion -> fc8_occlusion
I0805 08:58:03.748937   836 net.cpp:150] Setting up fc8_occlusion
I0805 08:58:03.748957   836 net.cpp:157] Top shape: 10 20 (200)
I0805 08:58:03.748961   836 net.cpp:165] Memory required for data: 76969760
I0805 08:58:03.748970   836 layer_factory.hpp:77] Creating layer prob
I0805 08:58:03.748980   836 net.cpp:106] Creating Layer prob
I0805 08:58:03.748985   836 net.cpp:454] prob <- fc8_occlusion
I0805 08:58:03.748991   836 net.cpp:411] prob -> prob
I0805 08:58:03.749399   836 net.cpp:150] Setting up prob
I0805 08:58:03.749416   836 net.cpp:157] Top shape: 10 20 (200)
I0805 08:58:03.749420   836 net.cpp:165] Memory required for data: 76970560
I0805 08:58:03.749425   836 net.cpp:228] prob does not need backward computation.
I0805 08:58:03.749430   836 net.cpp:228] fc8_occlusion does not need backward computation.
I0805 08:58:03.749434   836 net.cpp:228] drop7 does not need backward computation.
I0805 08:58:03.749439   836 net.cpp:228] relu7 does not need backward computation.
…
