discarding /home/haow3/miniconda2/bin from PATH
prepending /home/haow3/miniconda2/envs/cafferc3/bin to PATH
WARNING: Logging before InitGoogleLogging() is written to STDERR
I0805 08:57:17.456104 20624 net.cpp:49] Initializing net from parameters: 
name: "AlexNetOcclusion"
input: "data"
state {
  phase: TEST
}
input_shape {
  dim: 10
  dim: 3
  dim: 227
  dim: 227
}
layer {
  name: "conv1"
  type: "Convolution"
  bottom: "data"
  top: "conv1"
  param {
    lr_mult: 0
    decay_mult: 1
  }
  param {
    lr_mult: 0
    decay_mult: 0
  }
  convolution_param {
    num_output: 96
    kernel_size: 11
    stride: 4
    weight_filler {
      type: "gaussian"
      std: 0.01
    }
    bias_filler {
      type: "constant"
      value: 0
    }
  }
}
layer {
  name: "relu1"
  type: "ReLU"
  bottom: "conv1"
  top: "conv1"
}
layer {
  name: "norm1"
  type: "LRN"
  bottom: "conv1"
  top: "norm1"
  lrn_param {
    local_size: 5
    alpha: 0.0001
    beta: 0.75
  }
}
layer {
  name: "pool1"
  type: "Pooling"
  bottom: "norm1"
  top: "pool1"
  pooling_param {
    pool: MAX
    kernel_size: 3
    stride: 2
  }
}
layer {
  name: "conv2"
  type: "Convolution"
  bottom: "pool1"
  top: "conv2"
  param {
    lr_mult: 0
    decay_mult: 1
  }
  param {
    lr_mult: 0
    decay_mult: 0
  }
  convolution_param {
    num_output: 256
    pad: 2
    kernel_size: 5
    group: 2
    weight_filler {
      type: "gaussian"
      std: 0.01
    }
    bias_filler {
      type: "constant"
      value: 0.1
    }
  }
}
layer {
  name: "relu2"
  type: "ReLU"
  bottom: "conv2"
  top: "conv2"
}
layer {
  name: "norm2"
  type: "LRN"
  bottom: "conv2"
  top: "norm2"
  lrn_param {
    local_size: 5
    alpha: 0.0001
    beta: 0.75
  }
}
layer {
  name: "pool2"
  type: "Pooling"
  bottom: "norm2"
  top: "pool2"
  pooling_param {
    pool: MAX
    kernel_size: 3
    stride: 2
  }
}
layer {
  name: "conv3"
  type: "Convolution"
  bottom: "pool2"
  top: "conv3"
  param {
    lr_mult: 0
    decay_mult: 1
  }
  param {
    lr_mult: 0
    decay_mult: 0
  }
  convolution_param {
    num_output: 384
    pad: 1
    kernel_size: 3
    weight_filler {
      type: "gaussian"
      std: 0.01
    }
    bias_filler {
      type: "constant"
      value: 0
    }
  }
}
layer {
  name: "relu3"
  type: "ReLU"
  bottom: "conv3"
  top: "conv3"
}
layer {
  name: "conv4"
  type: "Convolution"
  bottom: "conv3"
  top: "conv4"
  param {
    lr_mult: 0
    decay_mult: 1
  }
  param {
    lr_mult: 0
    decay_mult: 0
  }
  convolution_param {
    num_output: 384
    pad: 1
    kernel_size: 3
    group: 2
    weight_filler {
      type: "gaussian"
      std: 0.01
    }
    bias_filler {
      type: "constant"
      value: 0.1
    }
  }
}
layer {
  name: "relu4"
  type: "ReLU"
  bottom: "conv4"
  top: "conv4"
}
layer {
  name: "conv5"
  type: "Convolution"
  bottom: "conv4"
  top: "conv5"
  param {
    lr_mult: 0
    decay_mult: 1
  }
  param {
    lr_mult: 0
    decay_mult: 0
  }
  convolution_param {
    num_output: 256
    pad: 1
    kernel_size: 3
    group: 2
    weight_filler {
      type: "gaussian"
      std: 0.01
    }
    bias_filler {
      type: "constant"
      value: 0.1
    }
  }
}
layer {
  name: "relu5"
  type: "ReLU"
  bottom: "conv5"
  top: "conv5"
}
layer {
  name: "pool5"
  type: "Pooling"
  bottom: "conv5"
  top: "pool5"
  pooling_param {
    pool: MAX
    kernel_size: 3
    stride: 2
  }
}
layer {
  name: "fc6"
  type: "InnerProduct"
  bottom: "pool5"
  top: "fc6"
  param {
    lr_mult: 0
    decay_mult: 1
  }
  param {
    lr_mult: 0
    decay_mult: 0
  }
  inner_product_param {
    num_output: 4096
    weight_filler {
      type: "gaussian"
      std: 0.005
    }
    bias_filler {
      type: "constant"
      value: 0.1
    }
  }
}
layer {
  name: "relu6"
  type: "ReLU"
  bottom: "fc6"
  top: "fc6"
}
layer {
  name: "drop6"
  type: "Dropout"
  bottom: "fc6"
  top: "fc6"
  dropout_param {
    dropout_ratio: 0.5
  }
}
layer {
  name: "fc7"
  type: "InnerProduct"
  bottom: "fc6"
  top: "fc7"
  param {
    lr_mult: 0
    decay_mult: 1
  }
  param {
    lr_mult: 0
    decay_mult: 0
  }
  inner_product_param {
    num_output: 4096
    weight_filler {
      type: "gaussian"
      std: 0.005
    }
    bias_filler {
      type: "constant"
      value: 0.1
    }
  }
}
layer {
  name: "relu7"
  type: "ReLU"
  bottom: "fc7"
  top: "fc7"
}
layer {
  name: "drop7"
  type: "Dropout"
  bottom: "fc7"
  top: "fc7"
  dropout_param {
    dropout_ratio: 0.5
  }
}
layer {
  name: "fc8_occlusion"
  type: "InnerProduct"
  bottom: "fc7"
  top: "fc8_occlusion"
  param {
    lr_mult: 1
    decay_mult: 1
  }
  param {
    lr_mult: 2
    decay_mult: 0
  }
  inner_product_param {
    num_output: 20
    weight_filler {
      type: "gaussian"
      std: 0.01
    }
    bias_filler {
      type: "constant"
      value: 0
    }
  }
}
layer {
  name: "prob"
  type: "Softmax"
  bottom: "fc8_occlusion"
  top: "prob"
}
I0805 08:57:17.456229 20624 net.cpp:413] Input 0 -> data
I0805 08:57:17.464998 20624 layer_factory.hpp:77] Creating layer conv1
I0805 08:57:17.465034 20624 net.cpp:106] Creating Layer conv1
I0805 08:57:17.465039 20624 net.cpp:454] conv1 <- data
I0805 08:57:17.465045 20624 net.cpp:411] conv1 -> conv1
I0805 08:57:17.720891 20624 net.cpp:150] Setting up conv1
I0805 08:57:17.720930 20624 net.cpp:157] Top shape: 10 96 55 55 (2904000)
I0805 08:57:17.720934 20624 net.cpp:165] Memory required for data: 11616000
I0805 08:57:17.720958 20624 layer_factory.hpp:77] Creating layer relu1
I0805 08:57:17.720973 20624 net.cpp:106] Creating Layer relu1
I0805 08:57:17.720978 20624 net.cpp:454] relu1 <- conv1
I0805 08:57:17.720983 20624 net.cpp:397] relu1 -> conv1 (in-place)
I0805 08:57:17.721282 20624 net.cpp:150] Setting up relu1
I0805 08:57:17.721294 20624 net.cpp:157] Top shape: 10 96 55 55 (2904000)
I0805 08:57:17.721297 20624 net.cpp:165] Memory required for data: 23232000
I0805 08:57:17.721302 20624 layer_factory.hpp:77] Creating layer norm1
I0805 08:57:17.721313 20624 net.cpp:106] Creating Layer norm1
I0805 08:57:17.721318 20624 net.cpp:454] norm1 <- conv1
I0805 08:57:17.721323 20624 net.cpp:411] norm1 -> norm1
I0805 08:57:17.721508 20624 net.cpp:150] Setting up norm1
I0805 08:57:17.721518 20624 net.cpp:157] Top shape: 10 96 55 55 (2904000)
I0805 08:57:17.721520 20624 net.cpp:165] Memory required for data: 34848000
I0805 08:57:17.721524 20624 layer_factory.hpp:77] Creating layer pool1
I0805 08:57:17.721534 20624 net.cpp:106] Creating Layer pool1
I0805 08:57:17.721536 20624 net.cpp:454] pool1 <- norm1
I0805 08:57:17.721542 20624 net.cpp:411] pool1 -> pool1
I0805 08:57:17.721580 20624 net.cpp:150] Setting up pool1
I0805 08:57:17.721585 20624 net.cpp:157] Top shape: 10 96 27 27 (699840)
I0805 08:57:17.721588 20624 net.cpp:165] Memory required for data: 37647360
I0805 08:57:17.721592 20624 layer_factory.hpp:77] Creating layer conv2
I0805 08:57:17.721606 20624 net.cpp:106] Creating Layer conv2
I0805 08:57:17.721609 20624 net.cpp:454] conv2 <- pool1
I0805 08:57:17.721616 20624 net.cpp:411] conv2 -> conv2
I0805 08:57:17.727378 20624 net.cpp:150] Setting up conv2
I0805 08:57:17.727401 20624 net.cpp:157] Top shape: 10 256 27 27 (1866240)
I0805 08:57:17.727406 20624 net.cpp:165] Memory required for data: 45112320
I0805 08:57:17.727417 20624 layer_factory.hpp:77] Creating layer relu2
I0805 08:57:17.727427 20624 net.cpp:106] Creating Layer relu2
I0805 08:57:17.727432 20624 net.cpp:454] relu2 <- conv2
I0805 08:57:17.727438 20624 net.cpp:397] relu2 -> conv2 (in-place)
I0805 08:57:17.727594 20624 net.cpp:150] Setting up relu2
I0805 08:57:17.727604 20624 net.cpp:157] Top shape: 10 256 27 27 (1866240)
I0805 08:57:17.727607 20624 net.cpp:165] Memory required for data: 52577280
I0805 08:57:17.727612 20624 layer_factory.hpp:77] Creating layer norm2
I0805 08:57:17.727619 20624 net.cpp:106] Creating Layer norm2
I0805 08:57:17.727622 20624 net.cpp:454] norm2 <- conv2
I0805 08:57:17.727629 20624 net.cpp:411] norm2 -> norm2
I0805 08:57:17.727901 20624 net.cpp:150] Setting up norm2
I0805 08:57:17.727912 20624 net.cpp:157] Top shape: 10 256 27 27 (1866240)
I0805 08:57:17.727916 20624 net.cpp:165] Memory required for data: 60042240
I0805 08:57:17.727918 20624 layer_factory.hpp:77] Creating layer pool2
I0805 08:57:17.727932 20624 net.cpp:106] Creating Layer pool2
I0805 08:57:17.727936 20624 net.cpp:454] pool2 <- norm2
I0805 08:57:17.727942 20624 net.cpp:411] pool2 -> pool2
I0805 08:57:17.727977 20624 net.cpp:150] Setting up pool2
I0805 08:57:17.727982 20624 net.cpp:157] Top shape: 10 256 13 13 (432640)
I0805 08:57:17.727985 20624 net.cpp:165] Memory required for data: 61772800
I0805 08:57:17.727988 20624 layer_factory.hpp:77] Creating layer conv3
I0805 08:57:17.728004 20624 net.cpp:106] Creating Layer conv3
I0805 08:57:17.728011 20624 net.cpp:454] conv3 <- pool2
I0805 08:57:17.728018 20624 net.cpp:411] conv3 -> conv3
I0805 08:57:17.738867 20624 net.cpp:150] Setting up conv3
I0805 08:57:17.738899 20624 net.cpp:157] Top shape: 10 384 13 13 (648960)
I0805 08:57:17.738903 20624 net.cpp:165] Memory required for data: 64368640
I0805 08:57:17.738917 20624 layer_factory.hpp:77] Creating layer relu3
I0805 08:57:17.738927 20624 net.cpp:106] Creating Layer relu3
I0805 08:57:17.738931 20624 net.cpp:454] relu3 <- conv3
I0805 08:57:17.738939 20624 net.cpp:397] relu3 -> conv3 (in-place)
I0805 08:57:17.739096 20624 net.cpp:150] Setting up relu3
I0805 08:57:17.739105 20624 net.cpp:157] Top shape: 10 384 13 13 (648960)
I0805 08:57:17.739109 20624 net.cpp:165] Memory required for data: 66964480
I0805 08:57:17.739111 20624 layer_factory.hpp:77] Creating layer conv4
I0805 08:57:17.739140 20624 net.cpp:106] Creating Layer conv4
I0805 08:57:17.739145 20624 net.cpp:454] conv4 <- conv3
I0805 08:57:17.739151 20624 net.cpp:411] conv4 -> conv4
I0805 08:57:17.748265 20624 net.cpp:150] Setting up conv4
I0805 08:57:17.748322 20624 net.cpp:157] Top shape: 10 384 13 13 (648960)
I0805 08:57:17.748325 20624 net.cpp:165] Memory required for data: 69560320
I0805 08:57:17.748335 20624 layer_factory.hpp:77] Creating layer relu4
I0805 08:57:17.748347 20624 net.cpp:106] Creating Layer relu4
I0805 08:57:17.748352 20624 net.cpp:454] relu4 <- conv4
I0805 08:57:17.748360 20624 net.cpp:397] relu4 -> conv4 (in-place)
I0805 08:57:17.748513 20624 net.cpp:150] Setting up relu4
I0805 08:57:17.748522 20624 net.cpp:157] Top shape: 10 384 13 13 (648960)
I0805 08:57:17.748524 20624 net.cpp:165] Memory required for data: 72156160
I0805 08:57:17.748528 20624 layer_factory.hpp:77] Creating layer conv5
I0805 08:57:17.748544 20624 net.cpp:106] Creating Layer conv5
I0805 08:57:17.748548 20624 net.cpp:454] conv5 <- conv4
I0805 08:57:17.748554 20624 net.cpp:411] conv5 -> conv5
I0805 08:57:17.755439 20624 net.cpp:150] Setting up conv5
I0805 08:57:17.755482 20624 net.cpp:157] Top shape: 10 256 13 13 (432640)
I0805 08:57:17.755486 20624 net.cpp:165] Memory required for data: 73886720
I0805 08:57:17.755503 20624 layer_factory.hpp:77] Creating layer relu5
I0805 08:57:17.755516 20624 net.cpp:106] Creating Layer relu5
I0805 08:57:17.755519 20624 net.cpp:454] relu5 <- conv5
I0805 08:57:17.755525 20624 net.cpp:397] relu5 -> conv5 (in-place)
I0805 08:57:17.755695 20624 net.cpp:150] Setting up relu5
I0805 08:57:17.755705 20624 net.cpp:157] Top shape: 10 256 13 13 (432640)
I0805 08:57:17.755708 20624 net.cpp:165] Memory required for data: 75617280
I0805 08:57:17.755712 20624 layer_factory.hpp:77] Creating layer pool5
I0805 08:57:17.755719 20624 net.cpp:106] Creating Layer pool5
I0805 08:57:17.755722 20624 net.cpp:454] pool5 <- conv5
I0805 08:57:17.755728 20624 net.cpp:411] pool5 -> pool5
I0805 08:57:17.755772 20624 net.cpp:150] Setting up pool5
I0805 08:57:17.755777 20624 net.cpp:157] Top shape: 10 256 6 6 (92160)
I0805 08:57:17.755780 20624 net.cpp:165] Memory required for data: 75985920
I0805 08:57:17.755784 20624 layer_factory.hpp:77] Creating layer fc6
I0805 08:57:17.755798 20624 net.cpp:106] Creating Layer fc6
I0805 08:57:17.755801 20624 net.cpp:454] fc6 <- pool5
I0805 08:57:17.755808 20624 net.cpp:411] fc6 -> fc6
I0805 08:57:18.156865 20624 net.cpp:150] Setting up fc6
I0805 08:57:18.156900 20624 net.cpp:157] Top shape: 10 4096 (40960)
I0805 08:57:18.156904 20624 net.cpp:165] Memory required for data: 76149760
I0805 08:57:18.156915 20624 layer_factory.hpp:77] Creating layer relu6
I0805 08:57:18.156936 20624 net.cpp:106] Creating Layer relu6
I0805 08:57:18.156941 20624 net.cpp:454] relu6 <- fc6
I0805 08:57:18.156955 20624 net.cpp:397] relu6 -> fc6 (in-place)
I0805 08:57:18.157389 20624 net.cpp:150] Setting up relu6
I0805 08:57:18.157404 20624 net.cpp:157] Top shape: 10 4096 (40960)
I0805 08:57:18.157408 20624 net.cpp:165] Memory required for data: 76313600
I0805 08:57:18.157414 20624 layer_factory.hpp:77] Creating layer drop6
I0805 08:57:18.157424 20624 net.cpp:106] Creating Layer drop6
I0805 08:57:18.157429 20624 net.cpp:454] drop6 <- fc6
I0805 08:57:18.157438 20624 net.cpp:397] drop6 -> fc6 (in-place)
I0805 08:57:18.157474 20624 net.cpp:150] Setting up drop6
I0805 08:57:18.157483 20624 net.cpp:157] Top shape: 10 4096 (40960)
I0805 08:57:18.157487 20624 net.cpp:165] Memory required for data: 76477440
I0805 08:57:18.157492 20624 layer_factory.hpp:77] Creating layer fc7
I0805 08:57:18.157503 20624 net.cpp:106] Creating Layer fc7
I0805 08:57:18.157508 20624 net.cpp:454] fc7 <- fc6
I0805 08:57:18.157517 20624 net.cpp:411] fc7 -> fc7
I0805 08:57:18.333744 20624 net.cpp:150] Setting up fc7
I0805 08:57:18.333768 20624 net.cpp:157] Top shape: 10 4096 (40960)
I0805 08:57:18.333772 20624 net.cpp:165] Memory required for data: 76641280
I0805 08:57:18.333781 20624 layer_factory.hpp:77] Creating layer relu7
I0805 08:57:18.333791 20624 net.cpp:106] Creating Layer relu7
I0805 08:57:18.333796 20624 net.cpp:454] relu7 <- fc7
I0805 08:57:18.333801 20624 net.cpp:397] relu7 -> fc7 (in-place)
I0805 08:57:18.334019 20624 net.cpp:150] Setting up relu7
I0805 08:57:18.334028 20624 net.cpp:157] Top shape: 10 4096 (40960)
I0805 08:57:18.334031 20624 net.cpp:165] Memory required for data: 76805120
I0805 08:57:18.334034 20624 layer_factory.hpp:77] Creating layer drop7
I0805 08:57:18.334043 20624 net.cpp:106] Creating Layer drop7
I0805 08:57:18.334045 20624 net.cpp:454] drop7 <- fc7
I0805 08:57:18.334051 20624 net.cpp:397] drop7 -> fc7 (in-place)
I0805 08:57:18.334077 20624 net.cpp:150] Setting up drop7
I0805 08:57:18.334082 20624 net.cpp:157] Top shape: 10 4096 (40960)
I0805 08:57:18.334085 20624 net.cpp:165] Memory required for data: 76968960
I0805 08:57:18.334089 20624 layer_factory.hpp:77] Creating layer fc8_occlusion
I0805 08:57:18.334096 20624 net.cpp:106] Creating Layer fc8_occlusion
I0805 08:57:18.334100 20624 net.cpp:454] fc8_occlusion <- fc7
I0805 08:57:18.334106 20624 net.cpp:411] fc8_occlusion -> fc8_occlusion
I0805 08:57:18.335494 20624 net.cpp:150] Setting up fc8_occlusion
I0805 08:57:18.335506 20624 net.cpp:157] Top shape: 10 20 (200)
I0805 08:57:18.335510 20624 net.cpp:165] Memory required for data: 76969760
I0805 08:57:18.335515 20624 layer_factory.hpp:77] Creating layer prob
I0805 08:57:18.335522 20624 net.cpp:106] Creating Layer prob
I0805 08:57:18.335526 20624 net.cpp:454] prob <- fc8_occlusion
I0805 08:57:18.335531 20624 net.cpp:411] prob -> prob
I0805 08:57:18.335844 20624 net.cpp:150] Setting up prob
I0805 08:57:18.335855 20624 net.cpp:157] Top shape: 10 20 (200)
I0805 08:57:18.335858 20624 net.cpp:165] Memory required for data: 76970560
I0805 08:57:18.335861 20624 net.cpp:228] prob does not need backward computation.
I0805 08:57:18.335865 20624 net.cpp:228] fc8_occlusion does not need backward computation.
I0805 08:57:18.335868 20624 net.cpp:228] drop7 does not need backward computation.
I0805 08:57:18.335870 20624 net.cpp:228] relu7 does not need backward computation.
…
