discarding /home/haow3/miniconda2/bin from PATH
prepending /home/haow3/miniconda2/envs/cafferc3/bin to PATH
WARNING: Logging before InitGoogleLogging() is written to STDERR
I0805 08:58:01.340251   697 net.cpp:49] Initializing net from parameters: 
name: "AlexNetOcclusion"
input: "data"
state {
  phase: TEST
}
input_shape {
  dim: 10
  dim: 3
  dim: 227
  dim: 227
}
layer {
  name: "conv1"
  type: "Convolution"
  bottom: "data"
  top: "conv1"
  param {
    lr_mult: 0
    decay_mult: 1
  }
  param {
    lr_mult: 0
    decay_mult: 0
  }
  convolution_param {
    num_output: 96
    kernel_size: 11
    stride: 4
    weight_filler {
      type: "gaussian"
      std: 0.01
    }
    bias_filler {
      type: "constant"
      value: 0
    }
  }
}
layer {
  name: "relu1"
  type: "ReLU"
  bottom: "conv1"
  top: "conv1"
}
layer {
  name: "norm1"
  type: "LRN"
  bottom: "conv1"
  top: "norm1"
  lrn_param {
    local_size: 5
    alpha: 0.0001
    beta: 0.75
  }
}
layer {
  name: "pool1"
  type: "Pooling"
  bottom: "norm1"
  top: "pool1"
  pooling_param {
    pool: MAX
    kernel_size: 3
    stride: 2
  }
}
layer {
  name: "conv2"
  type: "Convolution"
  bottom: "pool1"
  top: "conv2"
  param {
    lr_mult: 0
    decay_mult: 1
  }
  param {
    lr_mult: 0
    decay_mult: 0
  }
  convolution_param {
    num_output: 256
    pad: 2
    kernel_size: 5
    group: 2
    weight_filler {
      type: "gaussian"
      std: 0.01
    }
    bias_filler {
      type: "constant"
      value: 0.1
    }
  }
}
layer {
  name: "relu2"
  type: "ReLU"
  bottom: "conv2"
  top: "conv2"
}
layer {
  name: "norm2"
  type: "LRN"
  bottom: "conv2"
  top: "norm2"
  lrn_param {
    local_size: 5
    alpha: 0.0001
    beta: 0.75
  }
}
layer {
  name: "pool2"
  type: "Pooling"
  bottom: "norm2"
  top: "pool2"
  pooling_param {
    pool: MAX
    kernel_size: 3
    stride: 2
  }
}
layer {
  name: "conv3"
  type: "Convolution"
  bottom: "pool2"
  top: "conv3"
  param {
    lr_mult: 0
    decay_mult: 1
  }
  param {
    lr_mult: 0
    decay_mult: 0
  }
  convolution_param {
    num_output: 384
    pad: 1
    kernel_size: 3
    weight_filler {
      type: "gaussian"
      std: 0.01
    }
    bias_filler {
      type: "constant"
      value: 0
    }
  }
}
layer {
  name: "relu3"
  type: "ReLU"
  bottom: "conv3"
  top: "conv3"
}
layer {
  name: "conv4"
  type: "Convolution"
  bottom: "conv3"
  top: "conv4"
  param {
    lr_mult: 0
    decay_mult: 1
  }
  param {
    lr_mult: 0
    decay_mult: 0
  }
  convolution_param {
    num_output: 384
    pad: 1
    kernel_size: 3
    group: 2
    weight_filler {
      type: "gaussian"
      std: 0.01
    }
    bias_filler {
      type: "constant"
      value: 0.1
    }
  }
}
layer {
  name: "relu4"
  type: "ReLU"
  bottom: "conv4"
  top: "conv4"
}
layer {
  name: "conv5"
  type: "Convolution"
  bottom: "conv4"
  top: "conv5"
  param {
    lr_mult: 0
    decay_mult: 1
  }
  param {
    lr_mult: 0
    decay_mult: 0
  }
  convolution_param {
    num_output: 256
    pad: 1
    kernel_size: 3
    group: 2
    weight_filler {
      type: "gaussian"
      std: 0.01
    }
    bias_filler {
      type: "constant"
      value: 0.1
    }
  }
}
layer {
  name: "relu5"
  type: "ReLU"
  bottom: "conv5"
  top: "conv5"
}
layer {
  name: "pool5"
  type: "Pooling"
  bottom: "conv5"
  top: "pool5"
  pooling_param {
    pool: MAX
    kernel_size: 3
    stride: 2
  }
}
layer {
  name: "fc6"
  type: "InnerProduct"
  bottom: "pool5"
  top: "fc6"
  param {
    lr_mult: 0
    decay_mult: 1
  }
  param {
    lr_mult: 0
    decay_mult: 0
  }
  inner_product_param {
    num_output: 4096
    weight_filler {
      type: "gaussian"
      std: 0.005
    }
    bias_filler {
      type: "constant"
      value: 0.1
    }
  }
}
layer {
  name: "relu6"
  type: "ReLU"
  bottom: "fc6"
  top: "fc6"
}
layer {
  name: "drop6"
  type: "Dropout"
  bottom: "fc6"
  top: "fc6"
  dropout_param {
    dropout_ratio: 0.5
  }
}
layer {
  name: "fc7"
  type: "InnerProduct"
  bottom: "fc6"
  top: "fc7"
  param {
    lr_mult: 0
    decay_mult: 1
  }
  param {
    lr_mult: 0
    decay_mult: 0
  }
  inner_product_param {
    num_output: 4096
    weight_filler {
      type: "gaussian"
      std: 0.005
    }
    bias_filler {
      type: "constant"
      value: 0.1
    }
  }
}
layer {
  name: "relu7"
  type: "ReLU"
  bottom: "fc7"
  top: "fc7"
}
layer {
  name: "drop7"
  type: "Dropout"
  bottom: "fc7"
  top: "fc7"
  dropout_param {
    dropout_ratio: 0.5
  }
}
layer {
  name: "fc8_occlusion"
  type: "InnerProduct"
  bottom: "fc7"
  top: "fc8_occlusion"
  param {
    lr_mult: 1
    decay_mult: 1
  }
  param {
    lr_mult: 2
    decay_mult: 0
  }
  inner_product_param {
    num_output: 20
    weight_filler {
      type: "gaussian"
      std: 0.01
    }
    bias_filler {
      type: "constant"
      value: 0
    }
  }
}
layer {
  name: "prob"
  type: "Softmax"
  bottom: "fc8_occlusion"
  top: "prob"
}
I0805 08:58:01.340440   697 net.cpp:413] Input 0 -> data
I0805 08:58:01.359891   697 layer_factory.hpp:77] Creating layer conv1
I0805 08:58:01.359958   697 net.cpp:106] Creating Layer conv1
I0805 08:58:01.359966   697 net.cpp:454] conv1 <- data
I0805 08:58:01.359977   697 net.cpp:411] conv1 -> conv1
I0805 08:58:01.647651   697 net.cpp:150] Setting up conv1
I0805 08:58:01.647706   697 net.cpp:157] Top shape: 10 96 55 55 (2904000)
I0805 08:58:01.647711   697 net.cpp:165] Memory required for data: 11616000
I0805 08:58:01.647738   697 layer_factory.hpp:77] Creating layer relu1
I0805 08:58:01.647758   697 net.cpp:106] Creating Layer relu1
I0805 08:58:01.647765   697 net.cpp:454] relu1 <- conv1
I0805 08:58:01.647773   697 net.cpp:397] relu1 -> conv1 (in-place)
I0805 08:58:01.648270   697 net.cpp:150] Setting up relu1
I0805 08:58:01.648294   697 net.cpp:157] Top shape: 10 96 55 55 (2904000)
I0805 08:58:01.648299   697 net.cpp:165] Memory required for data: 23232000
I0805 08:58:01.648305   697 layer_factory.hpp:77] Creating layer norm1
I0805 08:58:01.648321   697 net.cpp:106] Creating Layer norm1
I0805 08:58:01.648327   697 net.cpp:454] norm1 <- conv1
I0805 08:58:01.648334   697 net.cpp:411] norm1 -> norm1
I0805 08:58:01.649884   697 net.cpp:150] Setting up norm1
I0805 08:58:01.649905   697 net.cpp:157] Top shape: 10 96 55 55 (2904000)
I0805 08:58:01.649910   697 net.cpp:165] Memory required for data: 34848000
I0805 08:58:01.649916   697 layer_factory.hpp:77] Creating layer pool1
I0805 08:58:01.649931   697 net.cpp:106] Creating Layer pool1
I0805 08:58:01.649937   697 net.cpp:454] pool1 <- norm1
I0805 08:58:01.649945   697 net.cpp:411] pool1 -> pool1
I0805 08:58:01.649998   697 net.cpp:150] Setting up pool1
I0805 08:58:01.650007   697 net.cpp:157] Top shape: 10 96 27 27 (699840)
I0805 08:58:01.650012   697 net.cpp:165] Memory required for data: 37647360
I0805 08:58:01.650017   697 layer_factory.hpp:77] Creating layer conv2
I0805 08:58:01.650037   697 net.cpp:106] Creating Layer conv2
I0805 08:58:01.650041   697 net.cpp:454] conv2 <- pool1
I0805 08:58:01.650050   697 net.cpp:411] conv2 -> conv2
I0805 08:58:01.657248   697 net.cpp:150] Setting up conv2
I0805 08:58:01.657297   697 net.cpp:157] Top shape: 10 256 27 27 (1866240)
I0805 08:58:01.657304   697 net.cpp:165] Memory required for data: 45112320
I0805 08:58:01.657322   697 layer_factory.hpp:77] Creating layer relu2
I0805 08:58:01.657337   697 net.cpp:106] Creating Layer relu2
I0805 08:58:01.657344   697 net.cpp:454] relu2 <- conv2
I0805 08:58:01.657351   697 net.cpp:397] relu2 -> conv2 (in-place)
I0805 08:58:01.657565   697 net.cpp:150] Setting up relu2
I0805 08:58:01.657577   697 net.cpp:157] Top shape: 10 256 27 27 (1866240)
I0805 08:58:01.657582   697 net.cpp:165] Memory required for data: 52577280
I0805 08:58:01.657588   697 layer_factory.hpp:77] Creating layer norm2
I0805 08:58:01.657598   697 net.cpp:106] Creating Layer norm2
I0805 08:58:01.657603   697 net.cpp:454] norm2 <- conv2
I0805 08:58:01.657613   697 net.cpp:411] norm2 -> norm2
I0805 08:58:01.657970   697 net.cpp:150] Setting up norm2
I0805 08:58:01.657985   697 net.cpp:157] Top shape: 10 256 27 27 (1866240)
I0805 08:58:01.657991   697 net.cpp:165] Memory required for data: 60042240
I0805 08:58:01.657996   697 layer_factory.hpp:77] Creating layer pool2
I0805 08:58:01.658016   697 net.cpp:106] Creating Layer pool2
I0805 08:58:01.658022   697 net.cpp:454] pool2 <- norm2
I0805 08:58:01.658030   697 net.cpp:411] pool2 -> pool2
I0805 08:58:01.658078   697 net.cpp:150] Setting up pool2
I0805 08:58:01.658087   697 net.cpp:157] Top shape: 10 256 13 13 (432640)
I0805 08:58:01.658092   697 net.cpp:165] Memory required for data: 61772800
I0805 08:58:01.658097   697 layer_factory.hpp:77] Creating layer conv3
I0805 08:58:01.658114   697 net.cpp:106] Creating Layer conv3
I0805 08:58:01.658119   697 net.cpp:454] conv3 <- pool2
I0805 08:58:01.658129   697 net.cpp:411] conv3 -> conv3
I0805 08:58:01.672257   697 net.cpp:150] Setting up conv3
I0805 08:58:01.672307   697 net.cpp:157] Top shape: 10 384 13 13 (648960)
I0805 08:58:01.672313   697 net.cpp:165] Memory required for data: 64368640
I0805 08:58:01.672333   697 layer_factory.hpp:77] Creating layer relu3
I0805 08:58:01.672349   697 net.cpp:106] Creating Layer relu3
I0805 08:58:01.672355   697 net.cpp:454] relu3 <- conv3
I0805 08:58:01.672363   697 net.cpp:397] relu3 -> conv3 (in-place)
I0805 08:58:01.672577   697 net.cpp:150] Setting up relu3
I0805 08:58:01.672592   697 net.cpp:157] Top shape: 10 384 13 13 (648960)
I0805 08:58:01.672596   697 net.cpp:165] Memory required for data: 66964480
I0805 08:58:01.672601   697 layer_factory.hpp:77] Creating layer conv4
I0805 08:58:01.672621   697 net.cpp:106] Creating Layer conv4
I0805 08:58:01.672626   697 net.cpp:454] conv4 <- conv3
I0805 08:58:01.672633   697 net.cpp:411] conv4 -> conv4
I0805 08:58:01.684792   697 net.cpp:150] Setting up conv4
I0805 08:58:01.684855   697 net.cpp:157] Top shape: 10 384 13 13 (648960)
I0805 08:58:01.684861   697 net.cpp:165] Memory required for data: 69560320
I0805 08:58:01.684875   697 layer_factory.hpp:77] Creating layer relu4
I0805 08:58:01.684890   697 net.cpp:106] Creating Layer relu4
I0805 08:58:01.684896   697 net.cpp:454] relu4 <- conv4
I0805 08:58:01.684906   697 net.cpp:397] relu4 -> conv4 (in-place)
I0805 08:58:01.685117   697 net.cpp:150] Setting up relu4
I0805 08:58:01.685132   697 net.cpp:157] Top shape: 10 384 13 13 (648960)
I0805 08:58:01.685137   697 net.cpp:165] Memory required for data: 72156160
I0805 08:58:01.685142   697 layer_factory.hpp:77] Creating layer conv5
I0805 08:58:01.685160   697 net.cpp:106] Creating Layer conv5
I0805 08:58:01.685165   697 net.cpp:454] conv5 <- conv4
I0805 08:58:01.685173   697 net.cpp:411] conv5 -> conv5
I0805 08:58:01.694064   697 net.cpp:150] Setting up conv5
I0805 08:58:01.694124   697 net.cpp:157] Top shape: 10 256 13 13 (432640)
I0805 08:58:01.694129   697 net.cpp:165] Memory required for data: 73886720
I0805 08:58:01.694149   697 layer_factory.hpp:77] Creating layer relu5
I0805 08:58:01.694161   697 net.cpp:106] Creating Layer relu5
I0805 08:58:01.694169   697 net.cpp:454] relu5 <- conv5
I0805 08:58:01.694178   697 net.cpp:397] relu5 -> conv5 (in-place)
I0805 08:58:01.694402   697 net.cpp:150] Setting up relu5
I0805 08:58:01.694416   697 net.cpp:157] Top shape: 10 256 13 13 (432640)
I0805 08:58:01.694420   697 net.cpp:165] Memory required for data: 75617280
I0805 08:58:01.694425   697 layer_factory.hpp:77] Creating layer pool5
I0805 08:58:01.694434   697 net.cpp:106] Creating Layer pool5
I0805 08:58:01.694439   697 net.cpp:454] pool5 <- conv5
I0805 08:58:01.694447   697 net.cpp:411] pool5 -> pool5
I0805 08:58:01.694505   697 net.cpp:150] Setting up pool5
I0805 08:58:01.694514   697 net.cpp:157] Top shape: 10 256 6 6 (92160)
I0805 08:58:01.694519   697 net.cpp:165] Memory required for data: 75985920
I0805 08:58:01.694524   697 layer_factory.hpp:77] Creating layer fc6
I0805 08:58:01.694541   697 net.cpp:106] Creating Layer fc6
I0805 08:58:01.694546   697 net.cpp:454] fc6 <- pool5
I0805 08:58:01.694555   697 net.cpp:411] fc6 -> fc6
I0805 08:58:02.216423   697 net.cpp:150] Setting up fc6
I0805 08:58:02.216471   697 net.cpp:157] Top shape: 10 4096 (40960)
I0805 08:58:02.216476   697 net.cpp:165] Memory required for data: 76149760
I0805 08:58:02.216488   697 layer_factory.hpp:77] Creating layer relu6
I0805 08:58:02.216516   697 net.cpp:106] Creating Layer relu6
I0805 08:58:02.216522   697 net.cpp:454] relu6 <- fc6
I0805 08:58:02.216531   697 net.cpp:397] relu6 -> fc6 (in-place)
I0805 08:58:02.217730   697 net.cpp:150] Setting up relu6
I0805 08:58:02.217751   697 net.cpp:157] Top shape: 10 4096 (40960)
I0805 08:58:02.217756   697 net.cpp:165] Memory required for data: 76313600
I0805 08:58:02.217761   697 layer_factory.hpp:77] Creating layer drop6
I0805 08:58:02.217775   697 net.cpp:106] Creating Layer drop6
I0805 08:58:02.217780   697 net.cpp:454] drop6 <- fc6
I0805 08:58:02.217788   697 net.cpp:397] drop6 -> fc6 (in-place)
I0805 08:58:02.217828   697 net.cpp:150] Setting up drop6
I0805 08:58:02.217836   697 net.cpp:157] Top shape: 10 4096 (40960)
I0805 08:58:02.217840   697 net.cpp:165] Memory required for data: 76477440
I0805 08:58:02.217845   697 layer_factory.hpp:77] Creating layer fc7
I0805 08:58:02.217854   697 net.cpp:106] Creating Layer fc7
I0805 08:58:02.217859   697 net.cpp:454] fc7 <- fc6
I0805 08:58:02.217869   697 net.cpp:411] fc7 -> fc7
I0805 08:58:02.511842   697 net.cpp:150] Setting up fc7
I0805 08:58:02.511898   697 net.cpp:157] Top shape: 10 4096 (40960)
I0805 08:58:02.511904   697 net.cpp:165] Memory required for data: 76641280
I0805 08:58:02.511916   697 layer_factory.hpp:77] Creating layer relu7
I0805 08:58:02.511930   697 net.cpp:106] Creating Layer relu7
I0805 08:58:02.511936   697 net.cpp:454] relu7 <- fc7
I0805 08:58:02.511948   697 net.cpp:397] relu7 -> fc7 (in-place)
I0805 08:58:02.512233   697 net.cpp:150] Setting up relu7
I0805 08:58:02.512249   697 net.cpp:157] Top shape: 10 4096 (40960)
I0805 08:58:02.512254   697 net.cpp:165] Memory required for data: 76805120
I0805 08:58:02.512260   697 layer_factory.hpp:77] Creating layer drop7
I0805 08:58:02.512271   697 net.cpp:106] Creating Layer drop7
I0805 08:58:02.512281   697 net.cpp:454] drop7 <- fc7
I0805 08:58:02.512289   697 net.cpp:397] drop7 -> fc7 (in-place)
I0805 08:58:02.512328   697 net.cpp:150] Setting up drop7
I0805 08:58:02.512337   697 net.cpp:157] Top shape: 10 4096 (40960)
I0805 08:58:02.512341   697 net.cpp:165] Memory required for data: 76968960
I0805 08:58:02.512346   697 layer_factory.hpp:77] Creating layer fc8_occlusion
I0805 08:58:02.512358   697 net.cpp:106] Creating Layer fc8_occlusion
I0805 08:58:02.512363   697 net.cpp:454] fc8_occlusion <- fc7
I0805 08:58:02.512370   697 net.cpp:411] fc8_occlusion -> fc8_occlusion
I0805 08:58:02.519287   697 net.cpp:150] Setting up fc8_occlusion
I0805 08:58:02.519351   697 net.cpp:157] Top shape: 10 20 (200)
I0805 08:58:02.519356   697 net.cpp:165] Memory required for data: 76969760
I0805 08:58:02.519369   697 layer_factory.hpp:77] Creating layer prob
I0805 08:58:02.519385   697 net.cpp:106] Creating Layer prob
I0805 08:58:02.519393   697 net.cpp:454] prob <- fc8_occlusion
I0805 08:58:02.519404   697 net.cpp:411] prob -> prob
I0805 08:58:02.527043   697 net.cpp:150] Setting up prob
I0805 08:58:02.527108   697 net.cpp:157] Top shape: 10 20 (200)
I0805 08:58:02.527117   697 net.cpp:165] Memory required for data: 76970560
I0805 08:58:02.527127   697 net.cpp:228] prob does not need backward computation.
I0805 08:58:02.527132   697 net.cpp:228] fc8_occlusion does not need backward computation.
I0805 08:58:02.527137   697 net.cpp:228] drop7 does not need backward computation.
I0805 08:58:02.527143   697 net.cpp:228] relu7 does not need backward computation.
…
