discarding /home/haow3/miniconda2/bin from PATH
prepending /home/haow3/miniconda2/envs/cafferc3/bin to PATH
WARNING: Logging before InitGoogleLogging() is written to STDERR
I0805 08:58:20.753492 21692 net.cpp:49] Initializing net from parameters: 
name: "AlexNetOcclusion"
input: "data"
state {
  phase: TEST
}
input_shape {
  dim: 10
  dim: 3
  dim: 227
  dim: 227
}
layer {
  name: "conv1"
  type: "Convolution"
  bottom: "data"
  top: "conv1"
  param {
    lr_mult: 0
    decay_mult: 1
  }
  param {
    lr_mult: 0
    decay_mult: 0
  }
  convolution_param {
    num_output: 96
    kernel_size: 11
    stride: 4
    weight_filler {
      type: "gaussian"
      std: 0.01
    }
    bias_filler {
      type: "constant"
      value: 0
    }
  }
}
layer {
  name: "relu1"
  type: "ReLU"
  bottom: "conv1"
  top: "conv1"
}
layer {
  name: "norm1"
  type: "LRN"
  bottom: "conv1"
  top: "norm1"
  lrn_param {
    local_size: 5
    alpha: 0.0001
    beta: 0.75
  }
}
layer {
  name: "pool1"
  type: "Pooling"
  bottom: "norm1"
  top: "pool1"
  pooling_param {
    pool: MAX
    kernel_size: 3
    stride: 2
  }
}
layer {
  name: "conv2"
  type: "Convolution"
  bottom: "pool1"
  top: "conv2"
  param {
    lr_mult: 0
    decay_mult: 1
  }
  param {
    lr_mult: 0
    decay_mult: 0
  }
  convolution_param {
    num_output: 256
    pad: 2
    kernel_size: 5
    group: 2
    weight_filler {
      type: "gaussian"
      std: 0.01
    }
    bias_filler {
      type: "constant"
      value: 0.1
    }
  }
}
layer {
  name: "relu2"
  type: "ReLU"
  bottom: "conv2"
  top: "conv2"
}
layer {
  name: "norm2"
  type: "LRN"
  bottom: "conv2"
  top: "norm2"
  lrn_param {
    local_size: 5
    alpha: 0.0001
    beta: 0.75
  }
}
layer {
  name: "pool2"
  type: "Pooling"
  bottom: "norm2"
  top: "pool2"
  pooling_param {
    pool: MAX
    kernel_size: 3
    stride: 2
  }
}
layer {
  name: "conv3"
  type: "Convolution"
  bottom: "pool2"
  top: "conv3"
  param {
    lr_mult: 0
    decay_mult: 1
  }
  param {
    lr_mult: 0
    decay_mult: 0
  }
  convolution_param {
    num_output: 384
    pad: 1
    kernel_size: 3
    weight_filler {
      type: "gaussian"
      std: 0.01
    }
    bias_filler {
      type: "constant"
      value: 0
    }
  }
}
layer {
  name: "relu3"
  type: "ReLU"
  bottom: "conv3"
  top: "conv3"
}
layer {
  name: "conv4"
  type: "Convolution"
  bottom: "conv3"
  top: "conv4"
  param {
    lr_mult: 0
    decay_mult: 1
  }
  param {
    lr_mult: 0
    decay_mult: 0
  }
  convolution_param {
    num_output: 384
    pad: 1
    kernel_size: 3
    group: 2
    weight_filler {
      type: "gaussian"
      std: 0.01
    }
    bias_filler {
      type: "constant"
      value: 0.1
    }
  }
}
layer {
  name: "relu4"
  type: "ReLU"
  bottom: "conv4"
  top: "conv4"
}
layer {
  name: "conv5"
  type: "Convolution"
  bottom: "conv4"
  top: "conv5"
  param {
    lr_mult: 0
    decay_mult: 1
  }
  param {
    lr_mult: 0
    decay_mult: 0
  }
  convolution_param {
    num_output: 256
    pad: 1
    kernel_size: 3
    group: 2
    weight_filler {
      type: "gaussian"
      std: 0.01
    }
    bias_filler {
      type: "constant"
      value: 0.1
    }
  }
}
layer {
  name: "relu5"
  type: "ReLU"
  bottom: "conv5"
  top: "conv5"
}
layer {
  name: "pool5"
  type: "Pooling"
  bottom: "conv5"
  top: "pool5"
  pooling_param {
    pool: MAX
    kernel_size: 3
    stride: 2
  }
}
layer {
  name: "fc6"
  type: "InnerProduct"
  bottom: "pool5"
  top: "fc6"
  param {
    lr_mult: 0
    decay_mult: 1
  }
  param {
    lr_mult: 0
    decay_mult: 0
  }
  inner_product_param {
    num_output: 4096
    weight_filler {
      type: "gaussian"
      std: 0.005
    }
    bias_filler {
      type: "constant"
      value: 0.1
    }
  }
}
layer {
  name: "relu6"
  type: "ReLU"
  bottom: "fc6"
  top: "fc6"
}
layer {
  name: "drop6"
  type: "Dropout"
  bottom: "fc6"
  top: "fc6"
  dropout_param {
    dropout_ratio: 0.5
  }
}
layer {
  name: "fc7"
  type: "InnerProduct"
  bottom: "fc6"
  top: "fc7"
  param {
    lr_mult: 0
    decay_mult: 1
  }
  param {
    lr_mult: 0
    decay_mult: 0
  }
  inner_product_param {
    num_output: 4096
    weight_filler {
      type: "gaussian"
      std: 0.005
    }
    bias_filler {
      type: "constant"
      value: 0.1
    }
  }
}
layer {
  name: "relu7"
  type: "ReLU"
  bottom: "fc7"
  top: "fc7"
}
layer {
  name: "drop7"
  type: "Dropout"
  bottom: "fc7"
  top: "fc7"
  dropout_param {
    dropout_ratio: 0.5
  }
}
layer {
  name: "fc8_occlusion"
  type: "InnerProduct"
  bottom: "fc7"
  top: "fc8_occlusion"
  param {
    lr_mult: 1
    decay_mult: 1
  }
  param {
    lr_mult: 2
    decay_mult: 0
  }
  inner_product_param {
    num_output: 20
    weight_filler {
      type: "gaussian"
      std: 0.01
    }
    bias_filler {
      type: "constant"
      value: 0
    }
  }
}
layer {
  name: "prob"
  type: "Softmax"
  bottom: "fc8_occlusion"
  top: "prob"
}
I0805 08:58:20.753720 21692 net.cpp:413] Input 0 -> data
I0805 08:58:20.801663 21692 layer_factory.hpp:77] Creating layer conv1
I0805 08:58:20.801864 21692 net.cpp:106] Creating Layer conv1
I0805 08:58:20.801875 21692 net.cpp:454] conv1 <- data
I0805 08:58:20.801895 21692 net.cpp:411] conv1 -> conv1
I0805 08:58:21.095188 21692 net.cpp:150] Setting up conv1
I0805 08:58:21.095320 21692 net.cpp:157] Top shape: 10 96 55 55 (2904000)
I0805 08:58:21.095325 21692 net.cpp:165] Memory required for data: 11616000
I0805 08:58:21.095371 21692 layer_factory.hpp:77] Creating layer relu1
I0805 08:58:21.095407 21692 net.cpp:106] Creating Layer relu1
I0805 08:58:21.095412 21692 net.cpp:454] relu1 <- conv1
I0805 08:58:21.095422 21692 net.cpp:397] relu1 -> conv1 (in-place)
I0805 08:58:21.095721 21692 net.cpp:150] Setting up relu1
I0805 08:58:21.095733 21692 net.cpp:157] Top shape: 10 96 55 55 (2904000)
I0805 08:58:21.095737 21692 net.cpp:165] Memory required for data: 23232000
I0805 08:58:21.095741 21692 layer_factory.hpp:77] Creating layer norm1
I0805 08:58:21.095763 21692 net.cpp:106] Creating Layer norm1
I0805 08:58:21.095767 21692 net.cpp:454] norm1 <- conv1
I0805 08:58:21.095773 21692 net.cpp:411] norm1 -> norm1
I0805 08:58:21.095968 21692 net.cpp:150] Setting up norm1
I0805 08:58:21.095978 21692 net.cpp:157] Top shape: 10 96 55 55 (2904000)
I0805 08:58:21.095981 21692 net.cpp:165] Memory required for data: 34848000
I0805 08:58:21.095984 21692 layer_factory.hpp:77] Creating layer pool1
I0805 08:58:21.096002 21692 net.cpp:106] Creating Layer pool1
I0805 08:58:21.096005 21692 net.cpp:454] pool1 <- norm1
I0805 08:58:21.096011 21692 net.cpp:411] pool1 -> pool1
I0805 08:58:21.096060 21692 net.cpp:150] Setting up pool1
I0805 08:58:21.096065 21692 net.cpp:157] Top shape: 10 96 27 27 (699840)
I0805 08:58:21.096070 21692 net.cpp:165] Memory required for data: 37647360
I0805 08:58:21.096076 21692 layer_factory.hpp:77] Creating layer conv2
I0805 08:58:21.096106 21692 net.cpp:106] Creating Layer conv2
I0805 08:58:21.096108 21692 net.cpp:454] conv2 <- pool1
I0805 08:58:21.096115 21692 net.cpp:411] conv2 -> conv2
I0805 08:58:21.102669 21692 net.cpp:150] Setting up conv2
I0805 08:58:21.102870 21692 net.cpp:157] Top shape: 10 256 27 27 (1866240)
I0805 08:58:21.102876 21692 net.cpp:165] Memory required for data: 45112320
I0805 08:58:21.102916 21692 layer_factory.hpp:77] Creating layer relu2
I0805 08:58:21.102957 21692 net.cpp:106] Creating Layer relu2
I0805 08:58:21.102963 21692 net.cpp:454] relu2 <- conv2
I0805 08:58:21.102983 21692 net.cpp:397] relu2 -> conv2 (in-place)
I0805 08:58:21.103188 21692 net.cpp:150] Setting up relu2
I0805 08:58:21.103198 21692 net.cpp:157] Top shape: 10 256 27 27 (1866240)
I0805 08:58:21.103200 21692 net.cpp:165] Memory required for data: 52577280
I0805 08:58:21.103204 21692 layer_factory.hpp:77] Creating layer norm2
I0805 08:58:21.103224 21692 net.cpp:106] Creating Layer norm2
I0805 08:58:21.103227 21692 net.cpp:454] norm2 <- conv2
I0805 08:58:21.103235 21692 net.cpp:411] norm2 -> norm2
I0805 08:58:21.103574 21692 net.cpp:150] Setting up norm2
I0805 08:58:21.103586 21692 net.cpp:157] Top shape: 10 256 27 27 (1866240)
I0805 08:58:21.103590 21692 net.cpp:165] Memory required for data: 60042240
I0805 08:58:21.103595 21692 layer_factory.hpp:77] Creating layer pool2
I0805 08:58:21.103632 21692 net.cpp:106] Creating Layer pool2
I0805 08:58:21.103636 21692 net.cpp:454] pool2 <- norm2
I0805 08:58:21.103642 21692 net.cpp:411] pool2 -> pool2
I0805 08:58:21.103691 21692 net.cpp:150] Setting up pool2
I0805 08:58:21.103698 21692 net.cpp:157] Top shape: 10 256 13 13 (432640)
I0805 08:58:21.103700 21692 net.cpp:165] Memory required for data: 61772800
I0805 08:58:21.103704 21692 layer_factory.hpp:77] Creating layer conv3
I0805 08:58:21.103736 21692 net.cpp:106] Creating Layer conv3
I0805 08:58:21.103740 21692 net.cpp:454] conv3 <- pool2
I0805 08:58:21.103746 21692 net.cpp:411] conv3 -> conv3
I0805 08:58:21.116575 21692 net.cpp:150] Setting up conv3
I0805 08:58:21.116670 21692 net.cpp:157] Top shape: 10 384 13 13 (648960)
I0805 08:58:21.116675 21692 net.cpp:165] Memory required for data: 64368640
I0805 08:58:21.116699 21692 layer_factory.hpp:77] Creating layer relu3
I0805 08:58:21.116719 21692 net.cpp:106] Creating Layer relu3
I0805 08:58:21.116725 21692 net.cpp:454] relu3 <- conv3
I0805 08:58:21.116732 21692 net.cpp:397] relu3 -> conv3 (in-place)
I0805 08:58:21.116919 21692 net.cpp:150] Setting up relu3
I0805 08:58:21.116930 21692 net.cpp:157] Top shape: 10 384 13 13 (648960)
I0805 08:58:21.116933 21692 net.cpp:165] Memory required for data: 66964480
I0805 08:58:21.116936 21692 layer_factory.hpp:77] Creating layer conv4
I0805 08:58:21.116955 21692 net.cpp:106] Creating Layer conv4
I0805 08:58:21.116960 21692 net.cpp:454] conv4 <- conv3
I0805 08:58:21.116967 21692 net.cpp:411] conv4 -> conv4
I0805 08:58:21.126936 21692 net.cpp:150] Setting up conv4
I0805 08:58:21.126991 21692 net.cpp:157] Top shape: 10 384 13 13 (648960)
I0805 08:58:21.126996 21692 net.cpp:165] Memory required for data: 69560320
I0805 08:58:21.127005 21692 layer_factory.hpp:77] Creating layer relu4
I0805 08:58:21.127022 21692 net.cpp:106] Creating Layer relu4
I0805 08:58:21.127028 21692 net.cpp:454] relu4 <- conv4
I0805 08:58:21.127037 21692 net.cpp:397] relu4 -> conv4 (in-place)
I0805 08:58:21.127856 21692 net.cpp:150] Setting up relu4
I0805 08:58:21.127866 21692 net.cpp:157] Top shape: 10 384 13 13 (648960)
I0805 08:58:21.127869 21692 net.cpp:165] Memory required for data: 72156160
I0805 08:58:21.127873 21692 layer_factory.hpp:77] Creating layer conv5
I0805 08:58:21.127890 21692 net.cpp:106] Creating Layer conv5
I0805 08:58:21.127894 21692 net.cpp:454] conv5 <- conv4
I0805 08:58:21.127902 21692 net.cpp:411] conv5 -> conv5
I0805 08:58:21.147394 21692 net.cpp:150] Setting up conv5
I0805 08:58:21.147456 21692 net.cpp:157] Top shape: 10 256 13 13 (432640)
I0805 08:58:21.147460 21692 net.cpp:165] Memory required for data: 73886720
I0805 08:58:21.147485 21692 layer_factory.hpp:77] Creating layer relu5
I0805 08:58:21.147501 21692 net.cpp:106] Creating Layer relu5
I0805 08:58:21.147507 21692 net.cpp:454] relu5 <- conv5
I0805 08:58:21.147514 21692 net.cpp:397] relu5 -> conv5 (in-place)
I0805 08:58:21.150634 21692 net.cpp:150] Setting up relu5
I0805 08:58:21.150643 21692 net.cpp:157] Top shape: 10 256 13 13 (432640)
I0805 08:58:21.150646 21692 net.cpp:165] Memory required for data: 75617280
I0805 08:58:21.150650 21692 layer_factory.hpp:77] Creating layer pool5
I0805 08:58:21.150657 21692 net.cpp:106] Creating Layer pool5
I0805 08:58:21.150661 21692 net.cpp:454] pool5 <- conv5
I0805 08:58:21.150670 21692 net.cpp:411] pool5 -> pool5
I0805 08:58:21.150717 21692 net.cpp:150] Setting up pool5
I0805 08:58:21.150724 21692 net.cpp:157] Top shape: 10 256 6 6 (92160)
I0805 08:58:21.150727 21692 net.cpp:165] Memory required for data: 75985920
I0805 08:58:21.150730 21692 layer_factory.hpp:77] Creating layer fc6
I0805 08:58:21.150748 21692 net.cpp:106] Creating Layer fc6
I0805 08:58:21.150753 21692 net.cpp:454] fc6 <- pool5
I0805 08:58:21.150759 21692 net.cpp:411] fc6 -> fc6
I0805 08:58:21.590348 21692 net.cpp:150] Setting up fc6
I0805 08:58:21.590466 21692 net.cpp:157] Top shape: 10 4096 (40960)
I0805 08:58:21.590471 21692 net.cpp:165] Memory required for data: 76149760
I0805 08:58:21.590490 21692 layer_factory.hpp:77] Creating layer relu6
I0805 08:58:21.590540 21692 net.cpp:106] Creating Layer relu6
I0805 08:58:21.590548 21692 net.cpp:454] relu6 <- fc6
I0805 08:58:21.590561 21692 net.cpp:397] relu6 -> fc6 (in-place)
I0805 08:58:21.591284 21692 net.cpp:150] Setting up relu6
I0805 08:58:21.591310 21692 net.cpp:157] Top shape: 10 4096 (40960)
I0805 08:58:21.591315 21692 net.cpp:165] Memory required for data: 76313600
I0805 08:58:21.591320 21692 layer_factory.hpp:77] Creating layer drop6
I0805 08:58:21.591336 21692 net.cpp:106] Creating Layer drop6
I0805 08:58:21.591341 21692 net.cpp:454] drop6 <- fc6
I0805 08:58:21.591348 21692 net.cpp:397] drop6 -> fc6 (in-place)
I0805 08:58:21.591392 21692 net.cpp:150] Setting up drop6
I0805 08:58:21.591400 21692 net.cpp:157] Top shape: 10 4096 (40960)
I0805 08:58:21.591405 21692 net.cpp:165] Memory required for data: 76477440
I0805 08:58:21.591410 21692 layer_factory.hpp:77] Creating layer fc7
I0805 08:58:21.591439 21692 net.cpp:106] Creating Layer fc7
I0805 08:58:21.591444 21692 net.cpp:454] fc7 <- fc6
I0805 08:58:21.591452 21692 net.cpp:411] fc7 -> fc7
I0805 08:58:21.787459 21692 net.cpp:150] Setting up fc7
I0805 08:58:21.787549 21692 net.cpp:157] Top shape: 10 4096 (40960)
I0805 08:58:21.787552 21692 net.cpp:165] Memory required for data: 76641280
I0805 08:58:21.787571 21692 layer_factory.hpp:77] Creating layer relu7
I0805 08:58:21.787592 21692 net.cpp:106] Creating Layer relu7
I0805 08:58:21.787600 21692 net.cpp:454] relu7 <- fc7
I0805 08:58:21.787612 21692 net.cpp:397] relu7 -> fc7 (in-place)
I0805 08:58:21.787864 21692 net.cpp:150] Setting up relu7
I0805 08:58:21.787873 21692 net.cpp:157] Top shape: 10 4096 (40960)
I0805 08:58:21.787876 21692 net.cpp:165] Memory required for data: 76805120
I0805 08:58:21.787880 21692 layer_factory.hpp:77] Creating layer drop7
I0805 08:58:21.787889 21692 net.cpp:106] Creating Layer drop7
I0805 08:58:21.787894 21692 net.cpp:454] drop7 <- fc7
I0805 08:58:21.787900 21692 net.cpp:397] drop7 -> fc7 (in-place)
I0805 08:58:21.787928 21692 net.cpp:150] Setting up drop7
I0805 08:58:21.787935 21692 net.cpp:157] Top shape: 10 4096 (40960)
I0805 08:58:21.787938 21692 net.cpp:165] Memory required for data: 76968960
I0805 08:58:21.787942 21692 layer_factory.hpp:77] Creating layer fc8_occlusion
I0805 08:58:21.787951 21692 net.cpp:106] Creating Layer fc8_occlusion
I0805 08:58:21.787955 21692 net.cpp:454] fc8_occlusion <- fc7
I0805 08:58:21.787960 21692 net.cpp:411] fc8_occlusion -> fc8_occlusion
I0805 08:58:21.789615 21692 net.cpp:150] Setting up fc8_occlusion
I0805 08:58:21.789628 21692 net.cpp:157] Top shape: 10 20 (200)
I0805 08:58:21.789631 21692 net.cpp:165] Memory required for data: 76969760
I0805 08:58:21.789638 21692 layer_factory.hpp:77] Creating layer prob
I0805 08:58:21.789645 21692 net.cpp:106] Creating Layer prob
I0805 08:58:21.789649 21692 net.cpp:454] prob <- fc8_occlusion
I0805 08:58:21.789656 21692 net.cpp:411] prob -> prob
I0805 08:58:21.790014 21692 net.cpp:150] Setting up prob
I0805 08:58:21.790027 21692 net.cpp:157] Top shape: 10 20 (200)
I0805 08:58:21.790031 21692 net.cpp:165] Memory required for data: 76970560
I0805 08:58:21.790035 21692 net.cpp:228] prob does not need backward computation.
I0805 08:58:21.790040 21692 net.cpp:228] fc8_occlusion does not need backward computation.
I0805 08:58:21.790042 21692 net.cpp:228] drop7 does not need backward computation.
I0805 08:58:21.790046 21692 net.cpp:228] relu7 does not need backward computation.
…
