discarding /home/haow3/miniconda2/bin from PATH
prepending /home/haow3/miniconda2/envs/cafferc3/bin to PATH
WARNING: Logging before InitGoogleLogging() is written to STDERR
I0805 08:57:57.710116 21254 net.cpp:49] Initializing net from parameters: 
name: "AlexNetOcclusion"
input: "data"
state {
  phase: TEST
}
input_shape {
  dim: 10
  dim: 3
  dim: 227
  dim: 227
}
layer {
  name: "conv1"
  type: "Convolution"
  bottom: "data"
  top: "conv1"
  param {
    lr_mult: 0
    decay_mult: 1
  }
  param {
    lr_mult: 0
    decay_mult: 0
  }
  convolution_param {
    num_output: 96
    kernel_size: 11
    stride: 4
    weight_filler {
      type: "gaussian"
      std: 0.01
    }
    bias_filler {
      type: "constant"
      value: 0
    }
  }
}
layer {
  name: "relu1"
  type: "ReLU"
  bottom: "conv1"
  top: "conv1"
}
layer {
  name: "norm1"
  type: "LRN"
  bottom: "conv1"
  top: "norm1"
  lrn_param {
    local_size: 5
    alpha: 0.0001
    beta: 0.75
  }
}
layer {
  name: "pool1"
  type: "Pooling"
  bottom: "norm1"
  top: "pool1"
  pooling_param {
    pool: MAX
    kernel_size: 3
    stride: 2
  }
}
layer {
  name: "conv2"
  type: "Convolution"
  bottom: "pool1"
  top: "conv2"
  param {
    lr_mult: 0
    decay_mult: 1
  }
  param {
    lr_mult: 0
    decay_mult: 0
  }
  convolution_param {
    num_output: 256
    pad: 2
    kernel_size: 5
    group: 2
    weight_filler {
      type: "gaussian"
      std: 0.01
    }
    bias_filler {
      type: "constant"
      value: 0.1
    }
  }
}
layer {
  name: "relu2"
  type: "ReLU"
  bottom: "conv2"
  top: "conv2"
}
layer {
  name: "norm2"
  type: "LRN"
  bottom: "conv2"
  top: "norm2"
  lrn_param {
    local_size: 5
    alpha: 0.0001
    beta: 0.75
  }
}
layer {
  name: "pool2"
  type: "Pooling"
  bottom: "norm2"
  top: "pool2"
  pooling_param {
    pool: MAX
    kernel_size: 3
    stride: 2
  }
}
layer {
  name: "conv3"
  type: "Convolution"
  bottom: "pool2"
  top: "conv3"
  param {
    lr_mult: 0
    decay_mult: 1
  }
  param {
    lr_mult: 0
    decay_mult: 0
  }
  convolution_param {
    num_output: 384
    pad: 1
    kernel_size: 3
    weight_filler {
      type: "gaussian"
      std: 0.01
    }
    bias_filler {
      type: "constant"
      value: 0
    }
  }
}
layer {
  name: "relu3"
  type: "ReLU"
  bottom: "conv3"
  top: "conv3"
}
layer {
  name: "conv4"
  type: "Convolution"
  bottom: "conv3"
  top: "conv4"
  param {
    lr_mult: 0
    decay_mult: 1
  }
  param {
    lr_mult: 0
    decay_mult: 0
  }
  convolution_param {
    num_output: 384
    pad: 1
    kernel_size: 3
    group: 2
    weight_filler {
      type: "gaussian"
      std: 0.01
    }
    bias_filler {
      type: "constant"
      value: 0.1
    }
  }
}
layer {
  name: "relu4"
  type: "ReLU"
  bottom: "conv4"
  top: "conv4"
}
layer {
  name: "conv5"
  type: "Convolution"
  bottom: "conv4"
  top: "conv5"
  param {
    lr_mult: 0
    decay_mult: 1
  }
  param {
    lr_mult: 0
    decay_mult: 0
  }
  convolution_param {
    num_output: 256
    pad: 1
    kernel_size: 3
    group: 2
    weight_filler {
      type: "gaussian"
      std: 0.01
    }
    bias_filler {
      type: "constant"
      value: 0.1
    }
  }
}
layer {
  name: "relu5"
  type: "ReLU"
  bottom: "conv5"
  top: "conv5"
}
layer {
  name: "pool5"
  type: "Pooling"
  bottom: "conv5"
  top: "pool5"
  pooling_param {
    pool: MAX
    kernel_size: 3
    stride: 2
  }
}
layer {
  name: "fc6"
  type: "InnerProduct"
  bottom: "pool5"
  top: "fc6"
  param {
    lr_mult: 0
    decay_mult: 1
  }
  param {
    lr_mult: 0
    decay_mult: 0
  }
  inner_product_param {
    num_output: 4096
    weight_filler {
      type: "gaussian"
      std: 0.005
    }
    bias_filler {
      type: "constant"
      value: 0.1
    }
  }
}
layer {
  name: "relu6"
  type: "ReLU"
  bottom: "fc6"
  top: "fc6"
}
layer {
  name: "drop6"
  type: "Dropout"
  bottom: "fc6"
  top: "fc6"
  dropout_param {
    dropout_ratio: 0.5
  }
}
layer {
  name: "fc7"
  type: "InnerProduct"
  bottom: "fc6"
  top: "fc7"
  param {
    lr_mult: 0
    decay_mult: 1
  }
  param {
    lr_mult: 0
    decay_mult: 0
  }
  inner_product_param {
    num_output: 4096
    weight_filler {
      type: "gaussian"
      std: 0.005
    }
    bias_filler {
      type: "constant"
      value: 0.1
    }
  }
}
layer {
  name: "relu7"
  type: "ReLU"
  bottom: "fc7"
  top: "fc7"
}
layer {
  name: "drop7"
  type: "Dropout"
  bottom: "fc7"
  top: "fc7"
  dropout_param {
    dropout_ratio: 0.5
  }
}
layer {
  name: "fc8_occlusion"
  type: "InnerProduct"
  bottom: "fc7"
  top: "fc8_occlusion"
  param {
    lr_mult: 1
    decay_mult: 1
  }
  param {
    lr_mult: 2
    decay_mult: 0
  }
  inner_product_param {
    num_output: 20
    weight_filler {
      type: "gaussian"
      std: 0.01
    }
    bias_filler {
      type: "constant"
      value: 0
    }
  }
}
layer {
  name: "prob"
  type: "Softmax"
  bottom: "fc8_occlusion"
  top: "prob"
}
I0805 08:57:57.710250 21254 net.cpp:413] Input 0 -> data
I0805 08:57:57.739954 21254 layer_factory.hpp:77] Creating layer conv1
I0805 08:57:57.740041 21254 net.cpp:106] Creating Layer conv1
I0805 08:57:57.740047 21254 net.cpp:454] conv1 <- data
I0805 08:57:57.740056 21254 net.cpp:411] conv1 -> conv1
I0805 08:57:57.984560 21254 net.cpp:150] Setting up conv1
I0805 08:57:57.984623 21254 net.cpp:157] Top shape: 10 96 55 55 (2904000)
I0805 08:57:57.984627 21254 net.cpp:165] Memory required for data: 11616000
I0805 08:57:57.984653 21254 layer_factory.hpp:77] Creating layer relu1
I0805 08:57:57.984673 21254 net.cpp:106] Creating Layer relu1
I0805 08:57:57.984678 21254 net.cpp:454] relu1 <- conv1
I0805 08:57:57.984685 21254 net.cpp:397] relu1 -> conv1 (in-place)
I0805 08:57:57.984975 21254 net.cpp:150] Setting up relu1
I0805 08:57:57.984987 21254 net.cpp:157] Top shape: 10 96 55 55 (2904000)
I0805 08:57:57.984990 21254 net.cpp:165] Memory required for data: 23232000
I0805 08:57:57.984994 21254 layer_factory.hpp:77] Creating layer norm1
I0805 08:57:57.985008 21254 net.cpp:106] Creating Layer norm1
I0805 08:57:57.985014 21254 net.cpp:454] norm1 <- conv1
I0805 08:57:57.985020 21254 net.cpp:411] norm1 -> norm1
I0805 08:57:57.986196 21254 net.cpp:150] Setting up norm1
I0805 08:57:57.986207 21254 net.cpp:157] Top shape: 10 96 55 55 (2904000)
I0805 08:57:57.986210 21254 net.cpp:165] Memory required for data: 34848000
I0805 08:57:57.986214 21254 layer_factory.hpp:77] Creating layer pool1
I0805 08:57:57.986224 21254 net.cpp:106] Creating Layer pool1
I0805 08:57:57.986227 21254 net.cpp:454] pool1 <- norm1
I0805 08:57:57.986233 21254 net.cpp:411] pool1 -> pool1
I0805 08:57:57.986273 21254 net.cpp:150] Setting up pool1
I0805 08:57:57.986279 21254 net.cpp:157] Top shape: 10 96 27 27 (699840)
I0805 08:57:57.986282 21254 net.cpp:165] Memory required for data: 37647360
I0805 08:57:57.986285 21254 layer_factory.hpp:77] Creating layer conv2
I0805 08:57:57.986304 21254 net.cpp:106] Creating Layer conv2
I0805 08:57:57.986307 21254 net.cpp:454] conv2 <- pool1
I0805 08:57:57.986315 21254 net.cpp:411] conv2 -> conv2
I0805 08:57:57.992136 21254 net.cpp:150] Setting up conv2
I0805 08:57:57.992162 21254 net.cpp:157] Top shape: 10 256 27 27 (1866240)
I0805 08:57:57.992166 21254 net.cpp:165] Memory required for data: 45112320
I0805 08:57:57.992178 21254 layer_factory.hpp:77] Creating layer relu2
I0805 08:57:57.992187 21254 net.cpp:106] Creating Layer relu2
I0805 08:57:57.992192 21254 net.cpp:454] relu2 <- conv2
I0805 08:57:57.992197 21254 net.cpp:397] relu2 -> conv2 (in-place)
I0805 08:57:57.992367 21254 net.cpp:150] Setting up relu2
I0805 08:57:57.992377 21254 net.cpp:157] Top shape: 10 256 27 27 (1866240)
I0805 08:57:57.992379 21254 net.cpp:165] Memory required for data: 52577280
I0805 08:57:57.992383 21254 layer_factory.hpp:77] Creating layer norm2
I0805 08:57:57.992393 21254 net.cpp:106] Creating Layer norm2
I0805 08:57:57.992395 21254 net.cpp:454] norm2 <- conv2
I0805 08:57:57.992401 21254 net.cpp:411] norm2 -> norm2
I0805 08:57:57.992700 21254 net.cpp:150] Setting up norm2
I0805 08:57:57.992712 21254 net.cpp:157] Top shape: 10 256 27 27 (1866240)
I0805 08:57:57.992715 21254 net.cpp:165] Memory required for data: 60042240
I0805 08:57:57.992719 21254 layer_factory.hpp:77] Creating layer pool2
I0805 08:57:57.992735 21254 net.cpp:106] Creating Layer pool2
I0805 08:57:57.992739 21254 net.cpp:454] pool2 <- norm2
I0805 08:57:57.992745 21254 net.cpp:411] pool2 -> pool2
I0805 08:57:57.992782 21254 net.cpp:150] Setting up pool2
I0805 08:57:57.992789 21254 net.cpp:157] Top shape: 10 256 13 13 (432640)
I0805 08:57:57.992791 21254 net.cpp:165] Memory required for data: 61772800
I0805 08:57:57.992795 21254 layer_factory.hpp:77] Creating layer conv3
I0805 08:57:57.992810 21254 net.cpp:106] Creating Layer conv3
I0805 08:57:57.992813 21254 net.cpp:454] conv3 <- pool2
I0805 08:57:57.992820 21254 net.cpp:411] conv3 -> conv3
I0805 08:57:58.005331 21254 net.cpp:150] Setting up conv3
I0805 08:57:58.005466 21254 net.cpp:157] Top shape: 10 384 13 13 (648960)
I0805 08:57:58.005471 21254 net.cpp:165] Memory required for data: 64368640
I0805 08:57:58.005514 21254 layer_factory.hpp:77] Creating layer relu3
I0805 08:57:58.005548 21254 net.cpp:106] Creating Layer relu3
I0805 08:57:58.005555 21254 net.cpp:454] relu3 <- conv3
I0805 08:57:58.005566 21254 net.cpp:397] relu3 -> conv3 (in-place)
I0805 08:57:58.005753 21254 net.cpp:150] Setting up relu3
I0805 08:57:58.005762 21254 net.cpp:157] Top shape: 10 384 13 13 (648960)
I0805 08:57:58.005765 21254 net.cpp:165] Memory required for data: 66964480
I0805 08:57:58.005769 21254 layer_factory.hpp:77] Creating layer conv4
I0805 08:57:58.005794 21254 net.cpp:106] Creating Layer conv4
I0805 08:57:58.005797 21254 net.cpp:454] conv4 <- conv3
I0805 08:57:58.005803 21254 net.cpp:411] conv4 -> conv4
I0805 08:57:58.016378 21254 net.cpp:150] Setting up conv4
I0805 08:57:58.016500 21254 net.cpp:157] Top shape: 10 384 13 13 (648960)
I0805 08:57:58.016505 21254 net.cpp:165] Memory required for data: 69560320
I0805 08:57:58.016525 21254 layer_factory.hpp:77] Creating layer relu4
I0805 08:57:58.016578 21254 net.cpp:106] Creating Layer relu4
I0805 08:57:58.016584 21254 net.cpp:454] relu4 <- conv4
I0805 08:57:58.016598 21254 net.cpp:397] relu4 -> conv4 (in-place)
I0805 08:57:58.016785 21254 net.cpp:150] Setting up relu4
I0805 08:57:58.016795 21254 net.cpp:157] Top shape: 10 384 13 13 (648960)
I0805 08:57:58.016798 21254 net.cpp:165] Memory required for data: 72156160
I0805 08:57:58.016803 21254 layer_factory.hpp:77] Creating layer conv5
I0805 08:57:58.016826 21254 net.cpp:106] Creating Layer conv5
I0805 08:57:58.016829 21254 net.cpp:454] conv5 <- conv4
I0805 08:57:58.016837 21254 net.cpp:411] conv5 -> conv5
I0805 08:57:58.024262 21254 net.cpp:150] Setting up conv5
I0805 08:57:58.024323 21254 net.cpp:157] Top shape: 10 256 13 13 (432640)
I0805 08:57:58.024327 21254 net.cpp:165] Memory required for data: 73886720
I0805 08:57:58.024350 21254 layer_factory.hpp:77] Creating layer relu5
I0805 08:57:58.024369 21254 net.cpp:106] Creating Layer relu5
I0805 08:57:58.024374 21254 net.cpp:454] relu5 <- conv5
I0805 08:57:58.024385 21254 net.cpp:397] relu5 -> conv5 (in-place)
I0805 08:57:58.025207 21254 net.cpp:150] Setting up relu5
I0805 08:57:58.025223 21254 net.cpp:157] Top shape: 10 256 13 13 (432640)
I0805 08:57:58.025225 21254 net.cpp:165] Memory required for data: 75617280
I0805 08:57:58.025229 21254 layer_factory.hpp:77] Creating layer pool5
I0805 08:57:58.025241 21254 net.cpp:106] Creating Layer pool5
I0805 08:57:58.025245 21254 net.cpp:454] pool5 <- conv5
I0805 08:57:58.025252 21254 net.cpp:411] pool5 -> pool5
I0805 08:57:58.025305 21254 net.cpp:150] Setting up pool5
I0805 08:57:58.025310 21254 net.cpp:157] Top shape: 10 256 6 6 (92160)
I0805 08:57:58.025313 21254 net.cpp:165] Memory required for data: 75985920
I0805 08:57:58.025317 21254 layer_factory.hpp:77] Creating layer fc6
I0805 08:57:58.025341 21254 net.cpp:106] Creating Layer fc6
I0805 08:57:58.025344 21254 net.cpp:454] fc6 <- pool5
I0805 08:57:58.025351 21254 net.cpp:411] fc6 -> fc6
I0805 08:57:58.463621 21254 net.cpp:150] Setting up fc6
I0805 08:57:58.463672 21254 net.cpp:157] Top shape: 10 4096 (40960)
I0805 08:57:58.463676 21254 net.cpp:165] Memory required for data: 76149760
I0805 08:57:58.463690 21254 layer_factory.hpp:77] Creating layer relu6
I0805 08:57:58.463721 21254 net.cpp:106] Creating Layer relu6
I0805 08:57:58.463726 21254 net.cpp:454] relu6 <- fc6
I0805 08:57:58.463733 21254 net.cpp:397] relu6 -> fc6 (in-place)
I0805 08:57:58.464216 21254 net.cpp:150] Setting up relu6
I0805 08:57:58.464229 21254 net.cpp:157] Top shape: 10 4096 (40960)
I0805 08:57:58.464234 21254 net.cpp:165] Memory required for data: 76313600
I0805 08:57:58.464238 21254 layer_factory.hpp:77] Creating layer drop6
I0805 08:57:58.464248 21254 net.cpp:106] Creating Layer drop6
I0805 08:57:58.464252 21254 net.cpp:454] drop6 <- fc6
I0805 08:57:58.464257 21254 net.cpp:397] drop6 -> fc6 (in-place)
I0805 08:57:58.464289 21254 net.cpp:150] Setting up drop6
I0805 08:57:58.464295 21254 net.cpp:157] Top shape: 10 4096 (40960)
I0805 08:57:58.464298 21254 net.cpp:165] Memory required for data: 76477440
I0805 08:57:58.464301 21254 layer_factory.hpp:77] Creating layer fc7
I0805 08:57:58.464310 21254 net.cpp:106] Creating Layer fc7
I0805 08:57:58.464313 21254 net.cpp:454] fc7 <- fc6
I0805 08:57:58.464320 21254 net.cpp:411] fc7 -> fc7
I0805 08:57:58.660719 21254 net.cpp:150] Setting up fc7
I0805 08:57:58.660773 21254 net.cpp:157] Top shape: 10 4096 (40960)
I0805 08:57:58.660778 21254 net.cpp:165] Memory required for data: 76641280
I0805 08:57:58.660789 21254 layer_factory.hpp:77] Creating layer relu7
I0805 08:57:58.660804 21254 net.cpp:106] Creating Layer relu7
I0805 08:57:58.660809 21254 net.cpp:454] relu7 <- fc7
I0805 08:57:58.660818 21254 net.cpp:397] relu7 -> fc7 (in-place)
I0805 08:57:58.661046 21254 net.cpp:150] Setting up relu7
I0805 08:57:58.661058 21254 net.cpp:157] Top shape: 10 4096 (40960)
I0805 08:57:58.661062 21254 net.cpp:165] Memory required for data: 76805120
I0805 08:57:58.661065 21254 layer_factory.hpp:77] Creating layer drop7
I0805 08:57:58.661073 21254 net.cpp:106] Creating Layer drop7
I0805 08:57:58.661077 21254 net.cpp:454] drop7 <- fc7
I0805 08:57:58.661082 21254 net.cpp:397] drop7 -> fc7 (in-place)
I0805 08:57:58.661111 21254 net.cpp:150] Setting up drop7
I0805 08:57:58.661118 21254 net.cpp:157] Top shape: 10 4096 (40960)
I0805 08:57:58.661120 21254 net.cpp:165] Memory required for data: 76968960
I0805 08:57:58.661124 21254 layer_factory.hpp:77] Creating layer fc8_occlusion
I0805 08:57:58.661134 21254 net.cpp:106] Creating Layer fc8_occlusion
I0805 08:57:58.661137 21254 net.cpp:454] fc8_occlusion <- fc7
I0805 08:57:58.661142 21254 net.cpp:411] fc8_occlusion -> fc8_occlusion
I0805 08:57:58.662760 21254 net.cpp:150] Setting up fc8_occlusion
I0805 08:57:58.662771 21254 net.cpp:157] Top shape: 10 20 (200)
I0805 08:57:58.662775 21254 net.cpp:165] Memory required for data: 76969760
I0805 08:57:58.662782 21254 layer_factory.hpp:77] Creating layer prob
I0805 08:57:58.662792 21254 net.cpp:106] Creating Layer prob
I0805 08:57:58.662796 21254 net.cpp:454] prob <- fc8_occlusion
I0805 08:57:58.662801 21254 net.cpp:411] prob -> prob
I0805 08:57:58.663161 21254 net.cpp:150] Setting up prob
I0805 08:57:58.663174 21254 net.cpp:157] Top shape: 10 20 (200)
I0805 08:57:58.663177 21254 net.cpp:165] Memory required for data: 76970560
I0805 08:57:58.663182 21254 net.cpp:228] prob does not need backward computation.
I0805 08:57:58.663187 21254 net.cpp:228] fc8_occlusion does not need backward computation.
I0805 08:57:58.663189 21254 net.cpp:228] drop7 does not need backward computation.
I0805 08:57:58.663193 21254 net.cpp:228] relu7 does not need backward computation.
…
